{"modelTopology": {"node": [{"name": "Openpose/MConv_Stage6_L2_1_depthwise/depthwise_weights", "op": "Const", "attr": {"value": {"tensor": {"dtype": "DT_FLOAT", "tensorShape": {"dim": [{"size": "3"}, {"size": "3"}, {"size": "921"}, {"size": "1"}]}}}, "dtype": {"type": "DT_FLOAT"}}}, {"name": "Openpose/MConv_Stage6_L2_1_pointwise/weights", "op": "Const", "attr": {"value": {"tensor": {"dtype": "DT_FLOAT", "tensorShape": {"dim": [{"size": "1"}, {"size": "1"}, {"size": "921"}, {"size": "64"}]}}}, "dtype": {"type": "DT_FLOAT"}}}, {"name": "Openpose/MConv_Stage6_L2_1_pointwise/Conv2D_bn_offset", "op": "Const", "attr": {"value": {"tensor": {"dtype": "DT_FLOAT", "tensorShape": {"dim": [{"size": "64"}]}}}, "dtype": {"type": "DT_FLOAT"}}}, {"name": "Openpose/MConv_Stage6_L2_2_depthwise/depthwise_weights", "op": "Const", "attr": {"dtype": {"type": "DT_FLOAT"}, "value": {"tensor": {"dtype": "DT_FLOAT", "tensorShape": {"dim": [{"size": "3"}, {"size": "3"}, {"size": "64"}, {"size": "1"}]}}}}}, {"name": "Openpose/MConv_Stage6_L2_2_pointwise/weights", "op": "Const", "attr": {"value": {"tensor": {"dtype": "DT_FLOAT", "tensorShape": {"dim": [{"size": "1"}, {"size": "1"}, {"size": "64"}, {"size": "64"}]}}}, "dtype": {"type": "DT_FLOAT"}}}, {"name": "Openpose/MConv_Stage6_L2_2_pointwise/Conv2D_bn_offset", "op": "Const", "attr": {"value": {"tensor": {"dtype": "DT_FLOAT", "tensorShape": {"dim": [{"size": "64"}]}}}, "dtype": {"type": "DT_FLOAT"}}}, {"name": "Openpose/MConv_Stage6_L2_3_depthwise/depthwise_weights", "op": "Const", "attr": {"value": {"tensor": {"dtype": "DT_FLOAT", "tensorShape": {"dim": [{"size": "3"}, {"size": "3"}, {"size": "64"}, {"size": "1"}]}}}, "dtype": {"type": "DT_FLOAT"}}}, {"name": "Openpose/MConv_Stage6_L2_3_pointwise/weights", "op": "Const", "attr": {"value": {"tensor": {"dtype": "DT_FLOAT", "tensorShape": {"dim": [{"size": "1"}, {"size": "1"}, {"size": "64"}, {"size": "64"}]}}}, "dtype": {"type": "DT_FLOAT"}}}, {"name": "Openpose/MConv_Stage6_L2_3_pointwise/Conv2D_bn_offset", "op": "Const", "attr": {"dtype": {"type": "DT_FLOAT"}, "value": {"tensor": {"dtype": "DT_FLOAT", "tensorShape": {"dim": [{"size": "64"}]}}}}}, {"name": "Openpose/MConv_Stage6_L2_4_depthwise/depthwise_weights", "op": "Const", "attr": {"value": {"tensor": {"dtype": "DT_FLOAT", "tensorShape": {"dim": [{"size": "1"}, {"size": "1"}, {"size": "64"}, {"size": "1"}]}}}, "dtype": {"type": "DT_FLOAT"}}}, {"name": "Openpose/MConv_Stage6_L2_4_pointwise/weights", "op": "Const", "attr": {"value": {"tensor": {"dtype": "DT_FLOAT", "tensorShape": {"dim": [{"size": "1"}, {"size": "1"}, {"size": "64"}, {"size": "64"}]}}}, "dtype": {"type": "DT_FLOAT"}}}, {"name": "Openpose/MConv_Stage6_L2_4_pointwise/Conv2D_bn_offset", "op": "Const", "attr": {"value": {"tensor": {"dtype": "DT_FLOAT", "tensorShape": {"dim": [{"size": "64"}]}}}, "dtype": {"type": "DT_FLOAT"}}}, {"name": "Openpose/MConv_Stage6_L2_5_depthwise/depthwise_weights", "op": "Const", "attr": {"value": {"tensor": {"dtype": "DT_FLOAT", "tensorShape": {"dim": [{"size": "1"}, {"size": "1"}, {"size": "64"}, {"size": "1"}]}}}, "dtype": {"type": "DT_FLOAT"}}}, {"name": "Openpose/MConv_Stage6_L2_5_pointwise/weights", "op": "Const", "attr": {"value": {"tensor": {"dtype": "DT_FLOAT", "tensorShape": {"dim": [{"size": "1"}, {"size": "1"}, {"size": "64"}, {"size": "19"}]}}}, "dtype": {"type": "DT_FLOAT"}}}, {"name": "Openpose/MConv_Stage6_L2_5_pointwise/Conv2D_bn_offset", "op": "Const", "attr": {"value": {"tensor": {"dtype": "DT_FLOAT", "tensorShape": {"dim": [{"size": "19"}]}}}, "dtype": {"type": "DT_FLOAT"}}}, {"name": "Openpose/MConv_Stage5_L1_1_depthwise/depthwise_weights", "op": "Const", "attr": {"dtype": {"type": "DT_FLOAT"}, "value": {"tensor": {"dtype": "DT_FLOAT", "tensorShape": {"dim": [{"size": "3"}, {"size": "3"}, {"size": "921"}, {"size": "1"}]}}}}}, {"name": "Openpose/MConv_Stage5_L1_1_pointwise/weights", "op": "Const", "attr": {"value": {"tensor": {"dtype": "DT_FLOAT", "tensorShape": {"dim": [{"size": "1"}, {"size": "1"}, {"size": "921"}, {"size": "64"}]}}}, "dtype": {"type": "DT_FLOAT"}}}, {"name": "Openpose/MConv_Stage5_L1_1_pointwise/Conv2D_bn_offset", "op": "Const", "attr": {"value": {"tensor": {"dtype": "DT_FLOAT", "tensorShape": {"dim": [{"size": "64"}]}}}, "dtype": {"type": "DT_FLOAT"}}}, {"name": "Openpose/MConv_Stage5_L1_2_depthwise/depthwise_weights", "op": "Const", "attr": {"dtype": {"type": "DT_FLOAT"}, "value": {"tensor": {"dtype": "DT_FLOAT", "tensorShape": {"dim": [{"size": "3"}, {"size": "3"}, {"size": "64"}, {"size": "1"}]}}}}}, {"name": "Openpose/MConv_Stage5_L1_2_pointwise/weights", "op": "Const", "attr": {"dtype": {"type": "DT_FLOAT"}, "value": {"tensor": {"dtype": "DT_FLOAT", "tensorShape": {"dim": [{"size": "1"}, {"size": "1"}, {"size": "64"}, {"size": "64"}]}}}}}, {"name": "Openpose/MConv_Stage5_L1_2_pointwise/Conv2D_bn_offset", "op": "Const", "attr": {"value": {"tensor": {"dtype": "DT_FLOAT", "tensorShape": {"dim": [{"size": "64"}]}}}, "dtype": {"type": "DT_FLOAT"}}}, {"name": "Openpose/MConv_Stage5_L1_3_depthwise/depthwise_weights", "op": "Const", "attr": {"value": {"tensor": {"dtype": "DT_FLOAT", "tensorShape": {"dim": [{"size": "3"}, {"size": "3"}, {"size": "64"}, {"size": "1"}]}}}, "dtype": {"type": "DT_FLOAT"}}}, {"name": "Openpose/MConv_Stage5_L1_3_pointwise/weights", "op": "Const", "attr": {"value": {"tensor": {"dtype": "DT_FLOAT", "tensorShape": {"dim": [{"size": "1"}, {"size": "1"}, {"size": "64"}, {"size": "64"}]}}}, "dtype": {"type": "DT_FLOAT"}}}, {"name": "Openpose/MConv_Stage5_L1_3_pointwise/Conv2D_bn_offset", "op": "Const", "attr": {"value": {"tensor": {"dtype": "DT_FLOAT", "tensorShape": {"dim": [{"size": "64"}]}}}, "dtype": {"type": "DT_FLOAT"}}}, {"name": "Openpose/MConv_Stage5_L1_4_depthwise/depthwise_weights", "op": "Const", "attr": {"value": {"tensor": {"dtype": "DT_FLOAT", "tensorShape": {"dim": [{"size": "1"}, {"size": "1"}, {"size": "64"}, {"size": "1"}]}}}, "dtype": {"type": "DT_FLOAT"}}}, {"name": "Openpose/MConv_Stage5_L1_4_pointwise/weights", "op": "Const", "attr": {"value": {"tensor": {"dtype": "DT_FLOAT", "tensorShape": {"dim": [{"size": "1"}, {"size": "1"}, {"size": "64"}, {"size": "64"}]}}}, "dtype": {"type": "DT_FLOAT"}}}, {"name": "Openpose/MConv_Stage5_L1_4_pointwise/Conv2D_bn_offset", "op": "Const", "attr": {"value": {"tensor": {"dtype": "DT_FLOAT", "tensorShape": {"dim": [{"size": "64"}]}}}, "dtype": {"type": "DT_FLOAT"}}}, {"name": "Openpose/MConv_Stage5_L1_5_depthwise/depthwise_weights", "op": "Const", "attr": {"value": {"tensor": {"dtype": "DT_FLOAT", "tensorShape": {"dim": [{"size": "1"}, {"size": "1"}, {"size": "64"}, {"size": "1"}]}}}, "dtype": {"type": "DT_FLOAT"}}}, {"name": "Openpose/MConv_Stage5_L1_5_pointwise/weights", "op": "Const", "attr": {"value": {"tensor": {"dtype": "DT_FLOAT", "tensorShape": {"dim": [{"size": "1"}, {"size": "1"}, {"size": "64"}, {"size": "38"}]}}}, "dtype": {"type": "DT_FLOAT"}}}, {"name": "Openpose/MConv_Stage5_L1_5_pointwise/Conv2D_bn_offset", "op": "Const", "attr": {"value": {"tensor": {"dtype": "DT_FLOAT", "tensorShape": {"dim": [{"size": "38"}]}}}, "dtype": {"type": "DT_FLOAT"}}}, {"name": "Openpose/MConv_Stage4_L1_1_depthwise/depthwise_weights", "op": "Const", "attr": {"value": {"tensor": {"dtype": "DT_FLOAT", "tensorShape": {"dim": [{"size": "3"}, {"size": "3"}, {"size": "921"}, {"size": "1"}]}}}, "dtype": {"type": "DT_FLOAT"}}}, {"name": "Openpose/MConv_Stage4_L1_1_pointwise/weights", "op": "Const", "attr": {"value": {"tensor": {"dtype": "DT_FLOAT", "tensorShape": {"dim": [{"size": "1"}, {"size": "1"}, {"size": "921"}, {"size": "64"}]}}}, "dtype": {"type": "DT_FLOAT"}}}, {"name": "Openpose/MConv_Stage4_L1_1_pointwise/Conv2D_bn_offset", "op": "Const", "attr": {"value": {"tensor": {"dtype": "DT_FLOAT", "tensorShape": {"dim": [{"size": "64"}]}}}, "dtype": {"type": "DT_FLOAT"}}}, {"name": "Openpose/MConv_Stage4_L1_2_depthwise/depthwise_weights", "op": "Const", "attr": {"value": {"tensor": {"dtype": "DT_FLOAT", "tensorShape": {"dim": [{"size": "3"}, {"size": "3"}, {"size": "64"}, {"size": "1"}]}}}, "dtype": {"type": "DT_FLOAT"}}}, {"name": "Openpose/MConv_Stage4_L1_2_pointwise/weights", "op": "Const", "attr": {"dtype": {"type": "DT_FLOAT"}, "value": {"tensor": {"dtype": "DT_FLOAT", "tensorShape": {"dim": [{"size": "1"}, {"size": "1"}, {"size": "64"}, {"size": "64"}]}}}}}, {"name": "Openpose/MConv_Stage4_L1_2_pointwise/Conv2D_bn_offset", "op": "Const", "attr": {"value": {"tensor": {"dtype": "DT_FLOAT", "tensorShape": {"dim": [{"size": "64"}]}}}, "dtype": {"type": "DT_FLOAT"}}}, {"name": "Openpose/MConv_Stage4_L1_3_depthwise/depthwise_weights", "op": "Const", "attr": {"value": {"tensor": {"dtype": "DT_FLOAT", "tensorShape": {"dim": [{"size": "3"}, {"size": "3"}, {"size": "64"}, {"size": "1"}]}}}, "dtype": {"type": "DT_FLOAT"}}}, {"name": "Openpose/MConv_Stage4_L1_3_pointwise/weights", "op": "Const", "attr": {"value": {"tensor": {"dtype": "DT_FLOAT", "tensorShape": {"dim": [{"size": "1"}, {"size": "1"}, {"size": "64"}, {"size": "64"}]}}}, "dtype": {"type": "DT_FLOAT"}}}, {"name": "Openpose/MConv_Stage4_L1_3_pointwise/Conv2D_bn_offset", "op": "Const", "attr": {"value": {"tensor": {"dtype": "DT_FLOAT", "tensorShape": {"dim": [{"size": "64"}]}}}, "dtype": {"type": "DT_FLOAT"}}}, {"name": "Openpose/MConv_Stage4_L1_4_depthwise/depthwise_weights", "op": "Const", "attr": {"value": {"tensor": {"dtype": "DT_FLOAT", "tensorShape": {"dim": [{"size": "1"}, {"size": "1"}, {"size": "64"}, {"size": "1"}]}}}, "dtype": {"type": "DT_FLOAT"}}}, {"name": "Openpose/MConv_Stage4_L1_4_pointwise/weights", "op": "Const", "attr": {"value": {"tensor": {"dtype": "DT_FLOAT", "tensorShape": {"dim": [{"size": "1"}, {"size": "1"}, {"size": "64"}, {"size": "64"}]}}}, "dtype": {"type": "DT_FLOAT"}}}, {"name": "Openpose/MConv_Stage4_L1_4_pointwise/Conv2D_bn_offset", "op": "Const", "attr": {"value": {"tensor": {"dtype": "DT_FLOAT", "tensorShape": {"dim": [{"size": "64"}]}}}, "dtype": {"type": "DT_FLOAT"}}}, {"name": "Openpose/MConv_Stage4_L1_5_depthwise/depthwise_weights", "op": "Const", "attr": {"value": {"tensor": {"dtype": "DT_FLOAT", "tensorShape": {"dim": [{"size": "1"}, {"size": "1"}, {"size": "64"}, {"size": "1"}]}}}, "dtype": {"type": "DT_FLOAT"}}}, {"name": "Openpose/MConv_Stage4_L1_5_pointwise/weights", "op": "Const", "attr": {"value": {"tensor": {"dtype": "DT_FLOAT", "tensorShape": {"dim": [{"size": "1"}, {"size": "1"}, {"size": "64"}, {"size": "38"}]}}}, "dtype": {"type": "DT_FLOAT"}}}, {"name": "Openpose/MConv_Stage4_L1_5_pointwise/Conv2D_bn_offset", "op": "Const", "attr": {"dtype": {"type": "DT_FLOAT"}, "value": {"tensor": {"dtype": "DT_FLOAT", "tensorShape": {"dim": [{"size": "38"}]}}}}}, {"name": "Openpose/MConv_Stage3_L1_1_depthwise/depthwise_weights", "op": "Const", "attr": {"value": {"tensor": {"dtype": "DT_FLOAT", "tensorShape": {"dim": [{"size": "3"}, {"size": "3"}, {"size": "921"}, {"size": "1"}]}}}, "dtype": {"type": "DT_FLOAT"}}}, {"name": "Openpose/MConv_Stage3_L1_1_pointwise/weights", "op": "Const", "attr": {"value": {"tensor": {"dtype": "DT_FLOAT", "tensorShape": {"dim": [{"size": "1"}, {"size": "1"}, {"size": "921"}, {"size": "64"}]}}}, "dtype": {"type": "DT_FLOAT"}}}, {"name": "Openpose/MConv_Stage3_L1_1_pointwise/Conv2D_bn_offset", "op": "Const", "attr": {"value": {"tensor": {"dtype": "DT_FLOAT", "tensorShape": {"dim": [{"size": "64"}]}}}, "dtype": {"type": "DT_FLOAT"}}}, {"name": "Openpose/MConv_Stage3_L1_2_depthwise/depthwise_weights", "op": "Const", "attr": {"value": {"tensor": {"dtype": "DT_FLOAT", "tensorShape": {"dim": [{"size": "3"}, {"size": "3"}, {"size": "64"}, {"size": "1"}]}}}, "dtype": {"type": "DT_FLOAT"}}}, {"name": "Openpose/MConv_Stage3_L1_2_pointwise/weights", "op": "Const", "attr": {"dtype": {"type": "DT_FLOAT"}, "value": {"tensor": {"dtype": "DT_FLOAT", "tensorShape": {"dim": [{"size": "1"}, {"size": "1"}, {"size": "64"}, {"size": "64"}]}}}}}, {"name": "Openpose/MConv_Stage3_L1_2_pointwise/Conv2D_bn_offset", "op": "Const", "attr": {"value": {"tensor": {"dtype": "DT_FLOAT", "tensorShape": {"dim": [{"size": "64"}]}}}, "dtype": {"type": "DT_FLOAT"}}}, {"name": "Openpose/MConv_Stage3_L1_3_depthwise/depthwise_weights", "op": "Const", "attr": {"value": {"tensor": {"dtype": "DT_FLOAT", "tensorShape": {"dim": [{"size": "3"}, {"size": "3"}, {"size": "64"}, {"size": "1"}]}}}, "dtype": {"type": "DT_FLOAT"}}}, {"name": "Openpose/MConv_Stage3_L1_3_pointwise/weights", "op": "Const", "attr": {"value": {"tensor": {"dtype": "DT_FLOAT", "tensorShape": {"dim": [{"size": "1"}, {"size": "1"}, {"size": "64"}, {"size": "64"}]}}}, "dtype": {"type": "DT_FLOAT"}}}, {"name": "Openpose/MConv_Stage3_L1_3_pointwise/Conv2D_bn_offset", "op": "Const", "attr": {"value": {"tensor": {"dtype": "DT_FLOAT", "tensorShape": {"dim": [{"size": "64"}]}}}, "dtype": {"type": "DT_FLOAT"}}}, {"name": "Openpose/MConv_Stage3_L1_4_depthwise/depthwise_weights", "op": "Const", "attr": {"value": {"tensor": {"dtype": "DT_FLOAT", "tensorShape": {"dim": [{"size": "1"}, {"size": "1"}, {"size": "64"}, {"size": "1"}]}}}, "dtype": {"type": "DT_FLOAT"}}}, {"name": "Openpose/MConv_Stage3_L1_4_pointwise/weights", "op": "Const", "attr": {"value": {"tensor": {"dtype": "DT_FLOAT", "tensorShape": {"dim": [{"size": "1"}, {"size": "1"}, {"size": "64"}, {"size": "64"}]}}}, "dtype": {"type": "DT_FLOAT"}}}, {"name": "Openpose/MConv_Stage3_L1_4_pointwise/Conv2D_bn_offset", "op": "Const", "attr": {"value": {"tensor": {"dtype": "DT_FLOAT", "tensorShape": {"dim": [{"size": "64"}]}}}, "dtype": {"type": "DT_FLOAT"}}}, {"name": "Openpose/MConv_Stage3_L1_5_depthwise/depthwise_weights", "op": "Const", "attr": {"value": {"tensor": {"dtype": "DT_FLOAT", "tensorShape": {"dim": [{"size": "1"}, {"size": "1"}, {"size": "64"}, {"size": "1"}]}}}, "dtype": {"type": "DT_FLOAT"}}}, {"name": "Openpose/MConv_Stage3_L1_5_pointwise/weights", "op": "Const", "attr": {"value": {"tensor": {"dtype": "DT_FLOAT", "tensorShape": {"dim": [{"size": "1"}, {"size": "1"}, {"size": "64"}, {"size": "38"}]}}}, "dtype": {"type": "DT_FLOAT"}}}, {"name": "Openpose/MConv_Stage3_L1_5_pointwise/Conv2D_bn_offset", "op": "Const", "attr": {"dtype": {"type": "DT_FLOAT"}, "value": {"tensor": {"dtype": "DT_FLOAT", "tensorShape": {"dim": [{"size": "38"}]}}}}}, {"name": "Openpose/MConv_Stage2_L1_1_depthwise/depthwise_weights", "op": "Const", "attr": {"value": {"tensor": {"dtype": "DT_FLOAT", "tensorShape": {"dim": [{"size": "3"}, {"size": "3"}, {"size": "921"}, {"size": "1"}]}}}, "dtype": {"type": "DT_FLOAT"}}}, {"name": "Openpose/MConv_Stage2_L1_1_pointwise/weights", "op": "Const", "attr": {"value": {"tensor": {"dtype": "DT_FLOAT", "tensorShape": {"dim": [{"size": "1"}, {"size": "1"}, {"size": "921"}, {"size": "64"}]}}}, "dtype": {"type": "DT_FLOAT"}}}, {"name": "Openpose/MConv_Stage2_L1_1_pointwise/Conv2D_bn_offset", "op": "Const", "attr": {"dtype": {"type": "DT_FLOAT"}, "value": {"tensor": {"dtype": "DT_FLOAT", "tensorShape": {"dim": [{"size": "64"}]}}}}}, {"name": "Openpose/MConv_Stage2_L1_2_depthwise/depthwise_weights", "op": "Const", "attr": {"value": {"tensor": {"dtype": "DT_FLOAT", "tensorShape": {"dim": [{"size": "3"}, {"size": "3"}, {"size": "64"}, {"size": "1"}]}}}, "dtype": {"type": "DT_FLOAT"}}}, {"name": "Openpose/MConv_Stage2_L1_2_pointwise/weights", "op": "Const", "attr": {"value": {"tensor": {"dtype": "DT_FLOAT", "tensorShape": {"dim": [{"size": "1"}, {"size": "1"}, {"size": "64"}, {"size": "64"}]}}}, "dtype": {"type": "DT_FLOAT"}}}, {"name": "Openpose/MConv_Stage2_L1_2_pointwise/Conv2D_bn_offset", "op": "Const", "attr": {"value": {"tensor": {"dtype": "DT_FLOAT", "tensorShape": {"dim": [{"size": "64"}]}}}, "dtype": {"type": "DT_FLOAT"}}}, {"name": "Openpose/MConv_Stage2_L1_3_depthwise/depthwise_weights", "op": "Const", "attr": {"value": {"tensor": {"dtype": "DT_FLOAT", "tensorShape": {"dim": [{"size": "3"}, {"size": "3"}, {"size": "64"}, {"size": "1"}]}}}, "dtype": {"type": "DT_FLOAT"}}}, {"name": "Openpose/MConv_Stage2_L1_3_pointwise/weights", "op": "Const", "attr": {"value": {"tensor": {"dtype": "DT_FLOAT", "tensorShape": {"dim": [{"size": "1"}, {"size": "1"}, {"size": "64"}, {"size": "64"}]}}}, "dtype": {"type": "DT_FLOAT"}}}, {"name": "Openpose/MConv_Stage2_L1_3_pointwise/Conv2D_bn_offset", "op": "Const", "attr": {"dtype": {"type": "DT_FLOAT"}, "value": {"tensor": {"dtype": "DT_FLOAT", "tensorShape": {"dim": [{"size": "64"}]}}}}}, {"name": "Openpose/MConv_Stage2_L1_4_depthwise/depthwise_weights", "op": "Const", "attr": {"value": {"tensor": {"dtype": "DT_FLOAT", "tensorShape": {"dim": [{"size": "1"}, {"size": "1"}, {"size": "64"}, {"size": "1"}]}}}, "dtype": {"type": "DT_FLOAT"}}}, {"name": "Openpose/MConv_Stage2_L1_4_pointwise/weights", "op": "Const", "attr": {"value": {"tensor": {"dtype": "DT_FLOAT", "tensorShape": {"dim": [{"size": "1"}, {"size": "1"}, {"size": "64"}, {"size": "64"}]}}}, "dtype": {"type": "DT_FLOAT"}}}, {"name": "Openpose/MConv_Stage2_L1_4_pointwise/Conv2D_bn_offset", "op": "Const", "attr": {"value": {"tensor": {"dtype": "DT_FLOAT", "tensorShape": {"dim": [{"size": "64"}]}}}, "dtype": {"type": "DT_FLOAT"}}}, {"name": "Openpose/MConv_Stage2_L1_5_depthwise/depthwise_weights", "op": "Const", "attr": {"value": {"tensor": {"dtype": "DT_FLOAT", "tensorShape": {"dim": [{"size": "1"}, {"size": "1"}, {"size": "64"}, {"size": "1"}]}}}, "dtype": {"type": "DT_FLOAT"}}}, {"name": "Openpose/MConv_Stage2_L1_5_pointwise/weights", "op": "Const", "attr": {"value": {"tensor": {"dtype": "DT_FLOAT", "tensorShape": {"dim": [{"size": "1"}, {"size": "1"}, {"size": "64"}, {"size": "38"}]}}}, "dtype": {"type": "DT_FLOAT"}}}, {"name": "Openpose/MConv_Stage2_L1_5_pointwise/Conv2D_bn_offset", "op": "Const", "attr": {"value": {"tensor": {"dtype": "DT_FLOAT", "tensorShape": {"dim": [{"size": "38"}]}}}, "dtype": {"type": "DT_FLOAT"}}}, {"name": "Openpose/MConv_Stage1_L1_1_depthwise/depthwise_weights", "op": "Const", "attr": {"value": {"tensor": {"dtype": "DT_FLOAT", "tensorShape": {"dim": [{"size": "3"}, {"size": "3"}, {"size": "864"}, {"size": "1"}]}}}, "dtype": {"type": "DT_FLOAT"}}}, {"name": "Openpose/MConv_Stage1_L1_1_pointwise/weights", "op": "Const", "attr": {"value": {"tensor": {"dtype": "DT_FLOAT", "tensorShape": {"dim": [{"size": "1"}, {"size": "1"}, {"size": "864"}, {"size": "64"}]}}}, "dtype": {"type": "DT_FLOAT"}}}, {"name": "Openpose/MConv_Stage1_L1_1_pointwise/Conv2D_bn_offset", "op": "Const", "attr": {"dtype": {"type": "DT_FLOAT"}, "value": {"tensor": {"dtype": "DT_FLOAT", "tensorShape": {"dim": [{"size": "64"}]}}}}}, {"name": "Openpose/MConv_Stage1_L1_2_depthwise/depthwise_weights", "op": "Const", "attr": {"value": {"tensor": {"dtype": "DT_FLOAT", "tensorShape": {"dim": [{"size": "3"}, {"size": "3"}, {"size": "64"}, {"size": "1"}]}}}, "dtype": {"type": "DT_FLOAT"}}}, {"name": "Openpose/MConv_Stage1_L1_2_pointwise/weights", "op": "Const", "attr": {"value": {"tensor": {"dtype": "DT_FLOAT", "tensorShape": {"dim": [{"size": "1"}, {"size": "1"}, {"size": "64"}, {"size": "64"}]}}}, "dtype": {"type": "DT_FLOAT"}}}, {"name": "Openpose/MConv_Stage1_L1_2_pointwise/Conv2D_bn_offset", "op": "Const", "attr": {"dtype": {"type": "DT_FLOAT"}, "value": {"tensor": {"dtype": "DT_FLOAT", "tensorShape": {"dim": [{"size": "64"}]}}}}}, {"name": "Openpose/MConv_Stage1_L1_3_depthwise/depthwise_weights", "op": "Const", "attr": {"value": {"tensor": {"dtype": "DT_FLOAT", "tensorShape": {"dim": [{"size": "3"}, {"size": "3"}, {"size": "64"}, {"size": "1"}]}}}, "dtype": {"type": "DT_FLOAT"}}}, {"name": "Openpose/MConv_Stage1_L1_3_pointwise/weights", "op": "Const", "attr": {"value": {"tensor": {"dtype": "DT_FLOAT", "tensorShape": {"dim": [{"size": "1"}, {"size": "1"}, {"size": "64"}, {"size": "64"}]}}}, "dtype": {"type": "DT_FLOAT"}}}, {"name": "Openpose/MConv_Stage1_L1_3_pointwise/Conv2D_bn_offset", "op": "Const", "attr": {"value": {"tensor": {"dtype": "DT_FLOAT", "tensorShape": {"dim": [{"size": "64"}]}}}, "dtype": {"type": "DT_FLOAT"}}}, {"name": "Openpose/MConv_Stage1_L1_4_depthwise/depthwise_weights", "op": "Const", "attr": {"value": {"tensor": {"dtype": "DT_FLOAT", "tensorShape": {"dim": [{"size": "1"}, {"size": "1"}, {"size": "64"}, {"size": "1"}]}}}, "dtype": {"type": "DT_FLOAT"}}}, {"name": "Openpose/MConv_Stage1_L1_4_pointwise/weights", "op": "Const", "attr": {"dtype": {"type": "DT_FLOAT"}, "value": {"tensor": {"dtype": "DT_FLOAT", "tensorShape": {"dim": [{"size": "1"}, {"size": "1"}, {"size": "64"}, {"size": "256"}]}}}}}, {"name": "Openpose/MConv_Stage1_L1_4_pointwise/Conv2D_bn_offset", "op": "Const", "attr": {"value": {"tensor": {"dtype": "DT_FLOAT", "tensorShape": {"dim": [{"size": "256"}]}}}, "dtype": {"type": "DT_FLOAT"}}}, {"name": "Openpose/MConv_Stage1_L1_5_depthwise/depthwise_weights", "op": "Const", "attr": {"dtype": {"type": "DT_FLOAT"}, "value": {"tensor": {"dtype": "DT_FLOAT", "tensorShape": {"dim": [{"size": "1"}, {"size": "1"}, {"size": "256"}, {"size": "1"}]}}}}}, {"name": "Openpose/MConv_Stage1_L1_5_pointwise/weights", "op": "Const", "attr": {"dtype": {"type": "DT_FLOAT"}, "value": {"tensor": {"dtype": "DT_FLOAT", "tensorShape": {"dim": [{"size": "1"}, {"size": "1"}, {"size": "256"}, {"size": "38"}]}}}}}, {"name": "Openpose/MConv_Stage1_L1_5_pointwise/Conv2D_bn_offset", "op": "Const", "attr": {"value": {"tensor": {"dtype": "DT_FLOAT", "tensorShape": {"dim": [{"size": "38"}]}}}, "dtype": {"type": "DT_FLOAT"}}}, {"name": "Openpose/MConv_Stage1_L2_1_depthwise/depthwise_weights", "op": "Const", "attr": {"value": {"tensor": {"dtype": "DT_FLOAT", "tensorShape": {"dim": [{"size": "3"}, {"size": "3"}, {"size": "864"}, {"size": "1"}]}}}, "dtype": {"type": "DT_FLOAT"}}}, {"name": "Openpose/MConv_Stage1_L2_1_pointwise/weights", "op": "Const", "attr": {"dtype": {"type": "DT_FLOAT"}, "value": {"tensor": {"dtype": "DT_FLOAT", "tensorShape": {"dim": [{"size": "1"}, {"size": "1"}, {"size": "864"}, {"size": "64"}]}}}}}, {"name": "Openpose/MConv_Stage1_L2_1_pointwise/Conv2D_bn_offset", "op": "Const", "attr": {"value": {"tensor": {"dtype": "DT_FLOAT", "tensorShape": {"dim": [{"size": "64"}]}}}, "dtype": {"type": "DT_FLOAT"}}}, {"name": "Openpose/MConv_Stage1_L2_2_depthwise/depthwise_weights", "op": "Const", "attr": {"value": {"tensor": {"dtype": "DT_FLOAT", "tensorShape": {"dim": [{"size": "3"}, {"size": "3"}, {"size": "64"}, {"size": "1"}]}}}, "dtype": {"type": "DT_FLOAT"}}}, {"name": "Openpose/MConv_Stage1_L2_2_pointwise/weights", "op": "Const", "attr": {"value": {"tensor": {"dtype": "DT_FLOAT", "tensorShape": {"dim": [{"size": "1"}, {"size": "1"}, {"size": "64"}, {"size": "64"}]}}}, "dtype": {"type": "DT_FLOAT"}}}, {"name": "Openpose/MConv_Stage1_L2_2_pointwise/Conv2D_bn_offset", "op": "Const", "attr": {"value": {"tensor": {"dtype": "DT_FLOAT", "tensorShape": {"dim": [{"size": "64"}]}}}, "dtype": {"type": "DT_FLOAT"}}}, {"name": "Openpose/MConv_Stage1_L2_3_depthwise/depthwise_weights", "op": "Const", "attr": {"value": {"tensor": {"dtype": "DT_FLOAT", "tensorShape": {"dim": [{"size": "3"}, {"size": "3"}, {"size": "64"}, {"size": "1"}]}}}, "dtype": {"type": "DT_FLOAT"}}}, {"name": "Openpose/MConv_Stage1_L2_3_pointwise/weights", "op": "Const", "attr": {"value": {"tensor": {"dtype": "DT_FLOAT", "tensorShape": {"dim": [{"size": "1"}, {"size": "1"}, {"size": "64"}, {"size": "64"}]}}}, "dtype": {"type": "DT_FLOAT"}}}, {"name": "Openpose/MConv_Stage1_L2_3_pointwise/Conv2D_bn_offset", "op": "Const", "attr": {"value": {"tensor": {"dtype": "DT_FLOAT", "tensorShape": {"dim": [{"size": "64"}]}}}, "dtype": {"type": "DT_FLOAT"}}}, {"name": "Openpose/MConv_Stage1_L2_4_depthwise/depthwise_weights", "op": "Const", "attr": {"value": {"tensor": {"dtype": "DT_FLOAT", "tensorShape": {"dim": [{"size": "1"}, {"size": "1"}, {"size": "64"}, {"size": "1"}]}}}, "dtype": {"type": "DT_FLOAT"}}}, {"name": "Openpose/MConv_Stage1_L2_4_pointwise/weights", "op": "Const", "attr": {"value": {"tensor": {"dtype": "DT_FLOAT", "tensorShape": {"dim": [{"size": "1"}, {"size": "1"}, {"size": "64"}, {"size": "256"}]}}}, "dtype": {"type": "DT_FLOAT"}}}, {"name": "Openpose/MConv_Stage1_L2_4_pointwise/Conv2D_bn_offset", "op": "Const", "attr": {"value": {"tensor": {"dtype": "DT_FLOAT", "tensorShape": {"dim": [{"size": "256"}]}}}, "dtype": {"type": "DT_FLOAT"}}}, {"name": "Openpose/MConv_Stage1_L2_5_depthwise/depthwise_weights", "op": "Const", "attr": {"value": {"tensor": {"dtype": "DT_FLOAT", "tensorShape": {"dim": [{"size": "1"}, {"size": "1"}, {"size": "256"}, {"size": "1"}]}}}, "dtype": {"type": "DT_FLOAT"}}}, {"name": "Openpose/MConv_Stage1_L2_5_pointwise/weights", "op": "Const", "attr": {"value": {"tensor": {"dtype": "DT_FLOAT", "tensorShape": {"dim": [{"size": "1"}, {"size": "1"}, {"size": "256"}, {"size": "19"}]}}}, "dtype": {"type": "DT_FLOAT"}}}, {"name": "Openpose/MConv_Stage1_L2_5_pointwise/Conv2D_bn_offset", "op": "Const", "attr": {"dtype": {"type": "DT_FLOAT"}, "value": {"tensor": {"dtype": "DT_FLOAT", "tensorShape": {"dim": [{"size": "19"}]}}}}}, {"name": "Openpose/MConv_Stage2_L2_1_depthwise/depthwise_weights", "op": "Const", "attr": {"value": {"tensor": {"dtype": "DT_FLOAT", "tensorShape": {"dim": [{"size": "3"}, {"size": "3"}, {"size": "921"}, {"size": "1"}]}}}, "dtype": {"type": "DT_FLOAT"}}}, {"name": "Openpose/MConv_Stage2_L2_1_pointwise/weights", "op": "Const", "attr": {"dtype": {"type": "DT_FLOAT"}, "value": {"tensor": {"dtype": "DT_FLOAT", "tensorShape": {"dim": [{"size": "1"}, {"size": "1"}, {"size": "921"}, {"size": "64"}]}}}}}, {"name": "Openpose/MConv_Stage2_L2_1_pointwise/Conv2D_bn_offset", "op": "Const", "attr": {"value": {"tensor": {"dtype": "DT_FLOAT", "tensorShape": {"dim": [{"size": "64"}]}}}, "dtype": {"type": "DT_FLOAT"}}}, {"name": "Openpose/MConv_Stage2_L2_2_depthwise/depthwise_weights", "op": "Const", "attr": {"value": {"tensor": {"dtype": "DT_FLOAT", "tensorShape": {"dim": [{"size": "3"}, {"size": "3"}, {"size": "64"}, {"size": "1"}]}}}, "dtype": {"type": "DT_FLOAT"}}}, {"name": "Openpose/MConv_Stage2_L2_2_pointwise/weights", "op": "Const", "attr": {"value": {"tensor": {"dtype": "DT_FLOAT", "tensorShape": {"dim": [{"size": "1"}, {"size": "1"}, {"size": "64"}, {"size": "64"}]}}}, "dtype": {"type": "DT_FLOAT"}}}, {"name": "Openpose/MConv_Stage2_L2_2_pointwise/Conv2D_bn_offset", "op": "Const", "attr": {"value": {"tensor": {"dtype": "DT_FLOAT", "tensorShape": {"dim": [{"size": "64"}]}}}, "dtype": {"type": "DT_FLOAT"}}}, {"name": "Openpose/MConv_Stage2_L2_3_depthwise/depthwise_weights", "op": "Const", "attr": {"value": {"tensor": {"dtype": "DT_FLOAT", "tensorShape": {"dim": [{"size": "3"}, {"size": "3"}, {"size": "64"}, {"size": "1"}]}}}, "dtype": {"type": "DT_FLOAT"}}}, {"name": "Openpose/MConv_Stage2_L2_3_pointwise/weights", "op": "Const", "attr": {"value": {"tensor": {"dtype": "DT_FLOAT", "tensorShape": {"dim": [{"size": "1"}, {"size": "1"}, {"size": "64"}, {"size": "64"}]}}}, "dtype": {"type": "DT_FLOAT"}}}, {"name": "Openpose/MConv_Stage2_L2_3_pointwise/Conv2D_bn_offset", "op": "Const", "attr": {"dtype": {"type": "DT_FLOAT"}, "value": {"tensor": {"dtype": "DT_FLOAT", "tensorShape": {"dim": [{"size": "64"}]}}}}}, {"name": "Openpose/MConv_Stage2_L2_4_depthwise/depthwise_weights", "op": "Const", "attr": {"dtype": {"type": "DT_FLOAT"}, "value": {"tensor": {"dtype": "DT_FLOAT", "tensorShape": {"dim": [{"size": "1"}, {"size": "1"}, {"size": "64"}, {"size": "1"}]}}}}}, {"name": "Openpose/MConv_Stage2_L2_4_pointwise/weights", "op": "Const", "attr": {"value": {"tensor": {"dtype": "DT_FLOAT", "tensorShape": {"dim": [{"size": "1"}, {"size": "1"}, {"size": "64"}, {"size": "64"}]}}}, "dtype": {"type": "DT_FLOAT"}}}, {"name": "Openpose/MConv_Stage2_L2_4_pointwise/Conv2D_bn_offset", "op": "Const", "attr": {"value": {"tensor": {"dtype": "DT_FLOAT", "tensorShape": {"dim": [{"size": "64"}]}}}, "dtype": {"type": "DT_FLOAT"}}}, {"name": "Openpose/MConv_Stage2_L2_5_depthwise/depthwise_weights", "op": "Const", "attr": {"value": {"tensor": {"dtype": "DT_FLOAT", "tensorShape": {"dim": [{"size": "1"}, {"size": "1"}, {"size": "64"}, {"size": "1"}]}}}, "dtype": {"type": "DT_FLOAT"}}}, {"name": "Openpose/MConv_Stage2_L2_5_pointwise/weights", "op": "Const", "attr": {"value": {"tensor": {"dtype": "DT_FLOAT", "tensorShape": {"dim": [{"size": "1"}, {"size": "1"}, {"size": "64"}, {"size": "19"}]}}}, "dtype": {"type": "DT_FLOAT"}}}, {"name": "Openpose/MConv_Stage2_L2_5_pointwise/Conv2D_bn_offset", "op": "Const", "attr": {"value": {"tensor": {"dtype": "DT_FLOAT", "tensorShape": {"dim": [{"size": "19"}]}}}, "dtype": {"type": "DT_FLOAT"}}}, {"name": "Openpose/MConv_Stage3_L2_1_depthwise/depthwise_weights", "op": "Const", "attr": {"value": {"tensor": {"dtype": "DT_FLOAT", "tensorShape": {"dim": [{"size": "3"}, {"size": "3"}, {"size": "921"}, {"size": "1"}]}}}, "dtype": {"type": "DT_FLOAT"}}}, {"name": "Openpose/MConv_Stage3_L2_1_pointwise/weights", "op": "Const", "attr": {"value": {"tensor": {"dtype": "DT_FLOAT", "tensorShape": {"dim": [{"size": "1"}, {"size": "1"}, {"size": "921"}, {"size": "64"}]}}}, "dtype": {"type": "DT_FLOAT"}}}, {"name": "Openpose/MConv_Stage3_L2_1_pointwise/Conv2D_bn_offset", "op": "Const", "attr": {"dtype": {"type": "DT_FLOAT"}, "value": {"tensor": {"dtype": "DT_FLOAT", "tensorShape": {"dim": [{"size": "64"}]}}}}}, {"name": "Openpose/MConv_Stage3_L2_2_depthwise/depthwise_weights", "op": "Const", "attr": {"value": {"tensor": {"dtype": "DT_FLOAT", "tensorShape": {"dim": [{"size": "3"}, {"size": "3"}, {"size": "64"}, {"size": "1"}]}}}, "dtype": {"type": "DT_FLOAT"}}}, {"name": "Openpose/MConv_Stage3_L2_2_pointwise/weights", "op": "Const", "attr": {"value": {"tensor": {"dtype": "DT_FLOAT", "tensorShape": {"dim": [{"size": "1"}, {"size": "1"}, {"size": "64"}, {"size": "64"}]}}}, "dtype": {"type": "DT_FLOAT"}}}, {"name": "Openpose/MConv_Stage3_L2_2_pointwise/Conv2D_bn_offset", "op": "Const", "attr": {"value": {"tensor": {"dtype": "DT_FLOAT", "tensorShape": {"dim": [{"size": "64"}]}}}, "dtype": {"type": "DT_FLOAT"}}}, {"name": "Openpose/MConv_Stage3_L2_3_depthwise/depthwise_weights", "op": "Const", "attr": {"value": {"tensor": {"dtype": "DT_FLOAT", "tensorShape": {"dim": [{"size": "3"}, {"size": "3"}, {"size": "64"}, {"size": "1"}]}}}, "dtype": {"type": "DT_FLOAT"}}}, {"name": "Openpose/MConv_Stage3_L2_3_pointwise/weights", "op": "Const", "attr": {"value": {"tensor": {"dtype": "DT_FLOAT", "tensorShape": {"dim": [{"size": "1"}, {"size": "1"}, {"size": "64"}, {"size": "64"}]}}}, "dtype": {"type": "DT_FLOAT"}}}, {"name": "Openpose/MConv_Stage3_L2_3_pointwise/Conv2D_bn_offset", "op": "Const", "attr": {"value": {"tensor": {"dtype": "DT_FLOAT", "tensorShape": {"dim": [{"size": "64"}]}}}, "dtype": {"type": "DT_FLOAT"}}}, {"name": "Openpose/MConv_Stage3_L2_4_depthwise/depthwise_weights", "op": "Const", "attr": {"value": {"tensor": {"dtype": "DT_FLOAT", "tensorShape": {"dim": [{"size": "1"}, {"size": "1"}, {"size": "64"}, {"size": "1"}]}}}, "dtype": {"type": "DT_FLOAT"}}}, {"name": "Openpose/MConv_Stage3_L2_4_pointwise/weights", "op": "Const", "attr": {"value": {"tensor": {"dtype": "DT_FLOAT", "tensorShape": {"dim": [{"size": "1"}, {"size": "1"}, {"size": "64"}, {"size": "64"}]}}}, "dtype": {"type": "DT_FLOAT"}}}, {"name": "Openpose/MConv_Stage3_L2_4_pointwise/Conv2D_bn_offset", "op": "Const", "attr": {"value": {"tensor": {"dtype": "DT_FLOAT", "tensorShape": {"dim": [{"size": "64"}]}}}, "dtype": {"type": "DT_FLOAT"}}}, {"name": "Openpose/MConv_Stage3_L2_5_depthwise/depthwise_weights", "op": "Const", "attr": {"value": {"tensor": {"dtype": "DT_FLOAT", "tensorShape": {"dim": [{"size": "1"}, {"size": "1"}, {"size": "64"}, {"size": "1"}]}}}, "dtype": {"type": "DT_FLOAT"}}}, {"name": "Openpose/MConv_Stage3_L2_5_pointwise/weights", "op": "Const", "attr": {"value": {"tensor": {"dtype": "DT_FLOAT", "tensorShape": {"dim": [{"size": "1"}, {"size": "1"}, {"size": "64"}, {"size": "19"}]}}}, "dtype": {"type": "DT_FLOAT"}}}, {"name": "Openpose/MConv_Stage3_L2_5_pointwise/Conv2D_bn_offset", "op": "Const", "attr": {"value": {"tensor": {"dtype": "DT_FLOAT", "tensorShape": {"dim": [{"size": "19"}]}}}, "dtype": {"type": "DT_FLOAT"}}}, {"name": "Openpose/MConv_Stage4_L2_1_depthwise/depthwise_weights", "op": "Const", "attr": {"value": {"tensor": {"dtype": "DT_FLOAT", "tensorShape": {"dim": [{"size": "3"}, {"size": "3"}, {"size": "921"}, {"size": "1"}]}}}, "dtype": {"type": "DT_FLOAT"}}}, {"name": "Openpose/MConv_Stage4_L2_1_pointwise/weights", "op": "Const", "attr": {"value": {"tensor": {"dtype": "DT_FLOAT", "tensorShape": {"dim": [{"size": "1"}, {"size": "1"}, {"size": "921"}, {"size": "64"}]}}}, "dtype": {"type": "DT_FLOAT"}}}, {"name": "Openpose/MConv_Stage4_L2_1_pointwise/Conv2D_bn_offset", "op": "Const", "attr": {"value": {"tensor": {"dtype": "DT_FLOAT", "tensorShape": {"dim": [{"size": "64"}]}}}, "dtype": {"type": "DT_FLOAT"}}}, {"name": "Openpose/MConv_Stage4_L2_2_depthwise/depthwise_weights", "op": "Const", "attr": {"value": {"tensor": {"dtype": "DT_FLOAT", "tensorShape": {"dim": [{"size": "3"}, {"size": "3"}, {"size": "64"}, {"size": "1"}]}}}, "dtype": {"type": "DT_FLOAT"}}}, {"name": "Openpose/MConv_Stage4_L2_2_pointwise/weights", "op": "Const", "attr": {"value": {"tensor": {"dtype": "DT_FLOAT", "tensorShape": {"dim": [{"size": "1"}, {"size": "1"}, {"size": "64"}, {"size": "64"}]}}}, "dtype": {"type": "DT_FLOAT"}}}, {"name": "Openpose/MConv_Stage4_L2_2_pointwise/Conv2D_bn_offset", "op": "Const", "attr": {"value": {"tensor": {"dtype": "DT_FLOAT", "tensorShape": {"dim": [{"size": "64"}]}}}, "dtype": {"type": "DT_FLOAT"}}}, {"name": "Openpose/MConv_Stage4_L2_3_depthwise/depthwise_weights", "op": "Const", "attr": {"value": {"tensor": {"dtype": "DT_FLOAT", "tensorShape": {"dim": [{"size": "3"}, {"size": "3"}, {"size": "64"}, {"size": "1"}]}}}, "dtype": {"type": "DT_FLOAT"}}}, {"name": "Openpose/MConv_Stage4_L2_3_pointwise/weights", "op": "Const", "attr": {"value": {"tensor": {"dtype": "DT_FLOAT", "tensorShape": {"dim": [{"size": "1"}, {"size": "1"}, {"size": "64"}, {"size": "64"}]}}}, "dtype": {"type": "DT_FLOAT"}}}, {"name": "Openpose/MConv_Stage4_L2_3_pointwise/Conv2D_bn_offset", "op": "Const", "attr": {"dtype": {"type": "DT_FLOAT"}, "value": {"tensor": {"dtype": "DT_FLOAT", "tensorShape": {"dim": [{"size": "64"}]}}}}}, {"name": "Openpose/MConv_Stage4_L2_4_depthwise/depthwise_weights", "op": "Const", "attr": {"value": {"tensor": {"dtype": "DT_FLOAT", "tensorShape": {"dim": [{"size": "1"}, {"size": "1"}, {"size": "64"}, {"size": "1"}]}}}, "dtype": {"type": "DT_FLOAT"}}}, {"name": "Openpose/MConv_Stage4_L2_4_pointwise/weights", "op": "Const", "attr": {"dtype": {"type": "DT_FLOAT"}, "value": {"tensor": {"dtype": "DT_FLOAT", "tensorShape": {"dim": [{"size": "1"}, {"size": "1"}, {"size": "64"}, {"size": "64"}]}}}}}, {"name": "Openpose/MConv_Stage4_L2_4_pointwise/Conv2D_bn_offset", "op": "Const", "attr": {"value": {"tensor": {"dtype": "DT_FLOAT", "tensorShape": {"dim": [{"size": "64"}]}}}, "dtype": {"type": "DT_FLOAT"}}}, {"name": "Openpose/MConv_Stage4_L2_5_depthwise/depthwise_weights", "op": "Const", "attr": {"value": {"tensor": {"dtype": "DT_FLOAT", "tensorShape": {"dim": [{"size": "1"}, {"size": "1"}, {"size": "64"}, {"size": "1"}]}}}, "dtype": {"type": "DT_FLOAT"}}}, {"name": "Openpose/MConv_Stage4_L2_5_pointwise/weights", "op": "Const", "attr": {"value": {"tensor": {"dtype": "DT_FLOAT", "tensorShape": {"dim": [{"size": "1"}, {"size": "1"}, {"size": "64"}, {"size": "19"}]}}}, "dtype": {"type": "DT_FLOAT"}}}, {"name": "Openpose/MConv_Stage4_L2_5_pointwise/Conv2D_bn_offset", "op": "Const", "attr": {"value": {"tensor": {"dtype": "DT_FLOAT", "tensorShape": {"dim": [{"size": "19"}]}}}, "dtype": {"type": "DT_FLOAT"}}}, {"name": "Openpose/MConv_Stage5_L2_1_depthwise/depthwise_weights", "op": "Const", "attr": {"dtype": {"type": "DT_FLOAT"}, "value": {"tensor": {"dtype": "DT_FLOAT", "tensorShape": {"dim": [{"size": "3"}, {"size": "3"}, {"size": "921"}, {"size": "1"}]}}}}}, {"name": "Openpose/MConv_Stage5_L2_1_pointwise/weights", "op": "Const", "attr": {"value": {"tensor": {"dtype": "DT_FLOAT", "tensorShape": {"dim": [{"size": "1"}, {"size": "1"}, {"size": "921"}, {"size": "64"}]}}}, "dtype": {"type": "DT_FLOAT"}}}, {"name": "Openpose/MConv_Stage5_L2_1_pointwise/Conv2D_bn_offset", "op": "Const", "attr": {"value": {"tensor": {"dtype": "DT_FLOAT", "tensorShape": {"dim": [{"size": "64"}]}}}, "dtype": {"type": "DT_FLOAT"}}}, {"name": "Openpose/MConv_Stage5_L2_2_depthwise/depthwise_weights", "op": "Const", "attr": {"value": {"tensor": {"dtype": "DT_FLOAT", "tensorShape": {"dim": [{"size": "3"}, {"size": "3"}, {"size": "64"}, {"size": "1"}]}}}, "dtype": {"type": "DT_FLOAT"}}}, {"name": "Openpose/MConv_Stage5_L2_2_pointwise/weights", "op": "Const", "attr": {"value": {"tensor": {"dtype": "DT_FLOAT", "tensorShape": {"dim": [{"size": "1"}, {"size": "1"}, {"size": "64"}, {"size": "64"}]}}}, "dtype": {"type": "DT_FLOAT"}}}, {"name": "Openpose/MConv_Stage5_L2_2_pointwise/Conv2D_bn_offset", "op": "Const", "attr": {"value": {"tensor": {"dtype": "DT_FLOAT", "tensorShape": {"dim": [{"size": "64"}]}}}, "dtype": {"type": "DT_FLOAT"}}}, {"name": "Openpose/MConv_Stage5_L2_3_depthwise/depthwise_weights", "op": "Const", "attr": {"value": {"tensor": {"dtype": "DT_FLOAT", "tensorShape": {"dim": [{"size": "3"}, {"size": "3"}, {"size": "64"}, {"size": "1"}]}}}, "dtype": {"type": "DT_FLOAT"}}}, {"name": "Openpose/MConv_Stage5_L2_3_pointwise/weights", "op": "Const", "attr": {"value": {"tensor": {"dtype": "DT_FLOAT", "tensorShape": {"dim": [{"size": "1"}, {"size": "1"}, {"size": "64"}, {"size": "64"}]}}}, "dtype": {"type": "DT_FLOAT"}}}, {"name": "Openpose/MConv_Stage5_L2_3_pointwise/Conv2D_bn_offset", "op": "Const", "attr": {"value": {"tensor": {"dtype": "DT_FLOAT", "tensorShape": {"dim": [{"size": "64"}]}}}, "dtype": {"type": "DT_FLOAT"}}}, {"name": "Openpose/MConv_Stage5_L2_4_depthwise/depthwise_weights", "op": "Const", "attr": {"value": {"tensor": {"dtype": "DT_FLOAT", "tensorShape": {"dim": [{"size": "1"}, {"size": "1"}, {"size": "64"}, {"size": "1"}]}}}, "dtype": {"type": "DT_FLOAT"}}}, {"name": "Openpose/MConv_Stage5_L2_4_pointwise/weights", "op": "Const", "attr": {"value": {"tensor": {"dtype": "DT_FLOAT", "tensorShape": {"dim": [{"size": "1"}, {"size": "1"}, {"size": "64"}, {"size": "64"}]}}}, "dtype": {"type": "DT_FLOAT"}}}, {"name": "Openpose/MConv_Stage5_L2_4_pointwise/Conv2D_bn_offset", "op": "Const", "attr": {"value": {"tensor": {"dtype": "DT_FLOAT", "tensorShape": {"dim": [{"size": "64"}]}}}, "dtype": {"type": "DT_FLOAT"}}}, {"name": "Openpose/MConv_Stage5_L2_5_depthwise/depthwise_weights", "op": "Const", "attr": {"value": {"tensor": {"dtype": "DT_FLOAT", "tensorShape": {"dim": [{"size": "1"}, {"size": "1"}, {"size": "64"}, {"size": "1"}]}}}, "dtype": {"type": "DT_FLOAT"}}}, {"name": "Openpose/MConv_Stage5_L2_5_pointwise/weights", "op": "Const", "attr": {"value": {"tensor": {"dtype": "DT_FLOAT", "tensorShape": {"dim": [{"size": "1"}, {"size": "1"}, {"size": "64"}, {"size": "19"}]}}}, "dtype": {"type": "DT_FLOAT"}}}, {"name": "Openpose/MConv_Stage5_L2_5_pointwise/Conv2D_bn_offset", "op": "Const", "attr": {"value": {"tensor": {"dtype": "DT_FLOAT", "tensorShape": {"dim": [{"size": "19"}]}}}, "dtype": {"type": "DT_FLOAT"}}}, {"name": "MobilenetV1/Conv2d_0/weights", "op": "Const", "attr": {"value": {"tensor": {"dtype": "DT_FLOAT", "tensorShape": {"dim": [{"size": "3"}, {"size": "3"}, {"size": "3"}, {"size": "24"}]}}}, "dtype": {"type": "DT_FLOAT"}}}, {"name": "MobilenetV1/Conv2d_0/Conv2D_bn_offset", "op": "Const", "attr": {"value": {"tensor": {"dtype": "DT_FLOAT", "tensorShape": {"dim": [{"size": "24"}]}}}, "dtype": {"type": "DT_FLOAT"}}}, {"name": "MobilenetV1/Conv2d_1_depthwise/depthwise_weights", "op": "Const", "attr": {"value": {"tensor": {"dtype": "DT_FLOAT", "tensorShape": {"dim": [{"size": "3"}, {"size": "3"}, {"size": "24"}, {"size": "1"}]}}}, "dtype": {"type": "DT_FLOAT"}}}, {"name": "MobilenetV1/Conv2d_1_pointwise/weights", "op": "Const", "attr": {"value": {"tensor": {"dtype": "DT_FLOAT", "tensorShape": {"dim": [{"size": "1"}, {"size": "1"}, {"size": "24"}, {"size": "48"}]}}}, "dtype": {"type": "DT_FLOAT"}}}, {"name": "MobilenetV1/Conv2d_1_pointwise/Conv2D_bn_offset", "op": "Const", "attr": {"value": {"tensor": {"dtype": "DT_FLOAT", "tensorShape": {"dim": [{"size": "48"}]}}}, "dtype": {"type": "DT_FLOAT"}}}, {"name": "MobilenetV1/Conv2d_2_depthwise/depthwise_weights", "op": "Const", "attr": {"value": {"tensor": {"dtype": "DT_FLOAT", "tensorShape": {"dim": [{"size": "3"}, {"size": "3"}, {"size": "48"}, {"size": "1"}]}}}, "dtype": {"type": "DT_FLOAT"}}}, {"name": "MobilenetV1/Conv2d_2_pointwise/weights", "op": "Const", "attr": {"value": {"tensor": {"dtype": "DT_FLOAT", "tensorShape": {"dim": [{"size": "1"}, {"size": "1"}, {"size": "48"}, {"size": "96"}]}}}, "dtype": {"type": "DT_FLOAT"}}}, {"name": "MobilenetV1/Conv2d_2_pointwise/Conv2D_bn_offset", "op": "Const", "attr": {"dtype": {"type": "DT_FLOAT"}, "value": {"tensor": {"dtype": "DT_FLOAT", "tensorShape": {"dim": [{"size": "96"}]}}}}}, {"name": "MobilenetV1/Conv2d_3_depthwise/depthwise_weights", "op": "Const", "attr": {"value": {"tensor": {"dtype": "DT_FLOAT", "tensorShape": {"dim": [{"size": "3"}, {"size": "3"}, {"size": "96"}, {"size": "1"}]}}}, "dtype": {"type": "DT_FLOAT"}}}, {"name": "MobilenetV1/Conv2d_3_pointwise/weights", "op": "Const", "attr": {"value": {"tensor": {"dtype": "DT_FLOAT", "tensorShape": {"dim": [{"size": "1"}, {"size": "1"}, {"size": "96"}, {"size": "96"}]}}}, "dtype": {"type": "DT_FLOAT"}}}, {"name": "MobilenetV1/Conv2d_3_pointwise/Conv2D_bn_offset", "op": "Const", "attr": {"dtype": {"type": "DT_FLOAT"}, "value": {"tensor": {"dtype": "DT_FLOAT", "tensorShape": {"dim": [{"size": "96"}]}}}}}, {"name": "MobilenetV1/Conv2d_4_depthwise/depthwise_weights", "op": "Const", "attr": {"value": {"tensor": {"dtype": "DT_FLOAT", "tensorShape": {"dim": [{"size": "3"}, {"size": "3"}, {"size": "96"}, {"size": "1"}]}}}, "dtype": {"type": "DT_FLOAT"}}}, {"name": "MobilenetV1/Conv2d_4_pointwise/weights", "op": "Const", "attr": {"value": {"tensor": {"dtype": "DT_FLOAT", "tensorShape": {"dim": [{"size": "1"}, {"size": "1"}, {"size": "96"}, {"size": "192"}]}}}, "dtype": {"type": "DT_FLOAT"}}}, {"name": "MobilenetV1/Conv2d_4_pointwise/Conv2D_bn_offset", "op": "Const", "attr": {"dtype": {"type": "DT_FLOAT"}, "value": {"tensor": {"dtype": "DT_FLOAT", "tensorShape": {"dim": [{"size": "192"}]}}}}}, {"name": "MobilenetV1/Conv2d_5_depthwise/depthwise_weights", "op": "Const", "attr": {"value": {"tensor": {"dtype": "DT_FLOAT", "tensorShape": {"dim": [{"size": "3"}, {"size": "3"}, {"size": "192"}, {"size": "1"}]}}}, "dtype": {"type": "DT_FLOAT"}}}, {"name": "MobilenetV1/Conv2d_5_pointwise/weights", "op": "Const", "attr": {"value": {"tensor": {"dtype": "DT_FLOAT", "tensorShape": {"dim": [{"size": "1"}, {"size": "1"}, {"size": "192"}, {"size": "192"}]}}}, "dtype": {"type": "DT_FLOAT"}}}, {"name": "MobilenetV1/Conv2d_5_pointwise/Conv2D_bn_offset", "op": "Const", "attr": {"value": {"tensor": {"dtype": "DT_FLOAT", "tensorShape": {"dim": [{"size": "192"}]}}}, "dtype": {"type": "DT_FLOAT"}}}, {"name": "MobilenetV1/Conv2d_6_depthwise/depthwise_weights", "op": "Const", "attr": {"value": {"tensor": {"dtype": "DT_FLOAT", "tensorShape": {"dim": [{"size": "3"}, {"size": "3"}, {"size": "192"}, {"size": "1"}]}}}, "dtype": {"type": "DT_FLOAT"}}}, {"name": "MobilenetV1/Conv2d_6_pointwise/weights", "op": "Const", "attr": {"value": {"tensor": {"dtype": "DT_FLOAT", "tensorShape": {"dim": [{"size": "1"}, {"size": "1"}, {"size": "192"}, {"size": "384"}]}}}, "dtype": {"type": "DT_FLOAT"}}}, {"name": "MobilenetV1/Conv2d_6_pointwise/Conv2D_bn_offset", "op": "Const", "attr": {"value": {"tensor": {"dtype": "DT_FLOAT", "tensorShape": {"dim": [{"size": "384"}]}}}, "dtype": {"type": "DT_FLOAT"}}}, {"name": "MobilenetV1/Conv2d_7_depthwise/depthwise_weights", "op": "Const", "attr": {"dtype": {"type": "DT_FLOAT"}, "value": {"tensor": {"dtype": "DT_FLOAT", "tensorShape": {"dim": [{"size": "3"}, {"size": "3"}, {"size": "384"}, {"size": "1"}]}}}}}, {"name": "MobilenetV1/Conv2d_7_pointwise/weights", "op": "Const", "attr": {"dtype": {"type": "DT_FLOAT"}, "value": {"tensor": {"dtype": "DT_FLOAT", "tensorShape": {"dim": [{"size": "1"}, {"size": "1"}, {"size": "384"}, {"size": "384"}]}}}}}, {"name": "MobilenetV1/Conv2d_7_pointwise/Conv2D_bn_offset", "op": "Const", "attr": {"value": {"tensor": {"dtype": "DT_FLOAT", "tensorShape": {"dim": [{"size": "384"}]}}}, "dtype": {"type": "DT_FLOAT"}}}, {"name": "MobilenetV1/Conv2d_8_depthwise/depthwise_weights", "op": "Const", "attr": {"value": {"tensor": {"dtype": "DT_FLOAT", "tensorShape": {"dim": [{"size": "3"}, {"size": "3"}, {"size": "384"}, {"size": "1"}]}}}, "dtype": {"type": "DT_FLOAT"}}}, {"name": "MobilenetV1/Conv2d_8_pointwise/weights", "op": "Const", "attr": {"value": {"tensor": {"dtype": "DT_FLOAT", "tensorShape": {"dim": [{"size": "1"}, {"size": "1"}, {"size": "384"}, {"size": "384"}]}}}, "dtype": {"type": "DT_FLOAT"}}}, {"name": "MobilenetV1/Conv2d_8_pointwise/Conv2D_bn_offset", "op": "Const", "attr": {"value": {"tensor": {"dtype": "DT_FLOAT", "tensorShape": {"dim": [{"size": "384"}]}}}, "dtype": {"type": "DT_FLOAT"}}}, {"name": "MobilenetV1/Conv2d_9_depthwise/depthwise_weights", "op": "Const", "attr": {"value": {"tensor": {"dtype": "DT_FLOAT", "tensorShape": {"dim": [{"size": "3"}, {"size": "3"}, {"size": "384"}, {"size": "1"}]}}}, "dtype": {"type": "DT_FLOAT"}}}, {"name": "MobilenetV1/Conv2d_9_pointwise/weights", "op": "Const", "attr": {"value": {"tensor": {"dtype": "DT_FLOAT", "tensorShape": {"dim": [{"size": "1"}, {"size": "1"}, {"size": "384"}, {"size": "384"}]}}}, "dtype": {"type": "DT_FLOAT"}}}, {"name": "MobilenetV1/Conv2d_9_pointwise/Conv2D_bn_offset", "op": "Const", "attr": {"value": {"tensor": {"dtype": "DT_FLOAT", "tensorShape": {"dim": [{"size": "384"}]}}}, "dtype": {"type": "DT_FLOAT"}}}, {"name": "MobilenetV1/Conv2d_10_depthwise/depthwise_weights", "op": "Const", "attr": {"value": {"tensor": {"dtype": "DT_FLOAT", "tensorShape": {"dim": [{"size": "3"}, {"size": "3"}, {"size": "384"}, {"size": "1"}]}}}, "dtype": {"type": "DT_FLOAT"}}}, {"name": "MobilenetV1/Conv2d_10_pointwise/weights", "op": "Const", "attr": {"value": {"tensor": {"dtype": "DT_FLOAT", "tensorShape": {"dim": [{"size": "1"}, {"size": "1"}, {"size": "384"}, {"size": "384"}]}}}, "dtype": {"type": "DT_FLOAT"}}}, {"name": "MobilenetV1/Conv2d_10_pointwise/Conv2D_bn_offset", "op": "Const", "attr": {"value": {"tensor": {"dtype": "DT_FLOAT", "tensorShape": {"dim": [{"size": "384"}]}}}, "dtype": {"type": "DT_FLOAT"}}}, {"name": "MobilenetV1/Conv2d_11_depthwise/depthwise_weights", "op": "Const", "attr": {"value": {"tensor": {"dtype": "DT_FLOAT", "tensorShape": {"dim": [{"size": "3"}, {"size": "3"}, {"size": "384"}, {"size": "1"}]}}}, "dtype": {"type": "DT_FLOAT"}}}, {"name": "MobilenetV1/Conv2d_11_pointwise/weights", "op": "Const", "attr": {"value": {"tensor": {"dtype": "DT_FLOAT", "tensorShape": {"dim": [{"size": "1"}, {"size": "1"}, {"size": "384"}, {"size": "384"}]}}}, "dtype": {"type": "DT_FLOAT"}}}, {"name": "MobilenetV1/Conv2d_11_pointwise/Conv2D_bn_offset", "op": "Const", "attr": {"value": {"tensor": {"dtype": "DT_FLOAT", "tensorShape": {"dim": [{"size": "384"}]}}}, "dtype": {"type": "DT_FLOAT"}}}, {"name": "Openpose/MConv_Stage6_L1_1_depthwise/depthwise_weights", "op": "Const", "attr": {"value": {"tensor": {"dtype": "DT_FLOAT", "tensorShape": {"dim": [{"size": "3"}, {"size": "3"}, {"size": "921"}, {"size": "1"}]}}}, "dtype": {"type": "DT_FLOAT"}}}, {"name": "Openpose/MConv_Stage6_L1_1_pointwise/weights", "op": "Const", "attr": {"dtype": {"type": "DT_FLOAT"}, "value": {"tensor": {"dtype": "DT_FLOAT", "tensorShape": {"dim": [{"size": "1"}, {"size": "1"}, {"size": "921"}, {"size": "64"}]}}}}}, {"name": "Openpose/MConv_Stage6_L1_1_pointwise/Conv2D_bn_offset", "op": "Const", "attr": {"dtype": {"type": "DT_FLOAT"}, "value": {"tensor": {"dtype": "DT_FLOAT", "tensorShape": {"dim": [{"size": "64"}]}}}}}, {"name": "Openpose/MConv_Stage6_L1_2_depthwise/depthwise_weights", "op": "Const", "attr": {"value": {"tensor": {"dtype": "DT_FLOAT", "tensorShape": {"dim": [{"size": "3"}, {"size": "3"}, {"size": "64"}, {"size": "1"}]}}}, "dtype": {"type": "DT_FLOAT"}}}, {"name": "Openpose/MConv_Stage6_L1_2_pointwise/weights", "op": "Const", "attr": {"value": {"tensor": {"dtype": "DT_FLOAT", "tensorShape": {"dim": [{"size": "1"}, {"size": "1"}, {"size": "64"}, {"size": "64"}]}}}, "dtype": {"type": "DT_FLOAT"}}}, {"name": "Openpose/MConv_Stage6_L1_2_pointwise/Conv2D_bn_offset", "op": "Const", "attr": {"value": {"tensor": {"dtype": "DT_FLOAT", "tensorShape": {"dim": [{"size": "64"}]}}}, "dtype": {"type": "DT_FLOAT"}}}, {"name": "Openpose/MConv_Stage6_L1_3_depthwise/depthwise_weights", "op": "Const", "attr": {"value": {"tensor": {"dtype": "DT_FLOAT", "tensorShape": {"dim": [{"size": "3"}, {"size": "3"}, {"size": "64"}, {"size": "1"}]}}}, "dtype": {"type": "DT_FLOAT"}}}, {"name": "Openpose/MConv_Stage6_L1_3_pointwise/weights", "op": "Const", "attr": {"value": {"tensor": {"dtype": "DT_FLOAT", "tensorShape": {"dim": [{"size": "1"}, {"size": "1"}, {"size": "64"}, {"size": "64"}]}}}, "dtype": {"type": "DT_FLOAT"}}}, {"name": "Openpose/MConv_Stage6_L1_3_pointwise/Conv2D_bn_offset", "op": "Const", "attr": {"dtype": {"type": "DT_FLOAT"}, "value": {"tensor": {"dtype": "DT_FLOAT", "tensorShape": {"dim": [{"size": "64"}]}}}}}, {"name": "Openpose/MConv_Stage6_L1_4_depthwise/depthwise_weights", "op": "Const", "attr": {"value": {"tensor": {"dtype": "DT_FLOAT", "tensorShape": {"dim": [{"size": "1"}, {"size": "1"}, {"size": "64"}, {"size": "1"}]}}}, "dtype": {"type": "DT_FLOAT"}}}, {"name": "Openpose/MConv_Stage6_L1_4_pointwise/weights", "op": "Const", "attr": {"value": {"tensor": {"dtype": "DT_FLOAT", "tensorShape": {"dim": [{"size": "1"}, {"size": "1"}, {"size": "64"}, {"size": "64"}]}}}, "dtype": {"type": "DT_FLOAT"}}}, {"name": "Openpose/MConv_Stage6_L1_4_pointwise/Conv2D_bn_offset", "op": "Const", "attr": {"value": {"tensor": {"dtype": "DT_FLOAT", "tensorShape": {"dim": [{"size": "64"}]}}}, "dtype": {"type": "DT_FLOAT"}}}, {"name": "Openpose/MConv_Stage6_L1_5_depthwise/depthwise_weights", "op": "Const", "attr": {"dtype": {"type": "DT_FLOAT"}, "value": {"tensor": {"dtype": "DT_FLOAT", "tensorShape": {"dim": [{"size": "1"}, {"size": "1"}, {"size": "64"}, {"size": "1"}]}}}}}, {"name": "Openpose/MConv_Stage6_L1_5_pointwise/weights", "op": "Const", "attr": {"value": {"tensor": {"dtype": "DT_FLOAT", "tensorShape": {"dim": [{"size": "1"}, {"size": "1"}, {"size": "64"}, {"size": "38"}]}}}, "dtype": {"type": "DT_FLOAT"}}}, {"name": "Openpose/MConv_Stage6_L1_5_pointwise/Conv2D_bn_offset", "op": "Const", "attr": {"value": {"tensor": {"dtype": "DT_FLOAT", "tensorShape": {"dim": [{"size": "38"}]}}}, "dtype": {"type": "DT_FLOAT"}}}, {"name": "Openpose/MConv_Stage2_concat/axis", "op": "Const", "attr": {"value": {"tensor": {"dtype": "DT_INT32", "tensorShape": {}}}, "dtype": {"type": "DT_INT32"}}}, {"name": "image", "op": "Placeholder", "attr": {"dtype": {"type": "DT_FLOAT"}, "shape": {"shape": {"dim": [{"size": "-1"}, {"size": "-1"}, {"size": "-1"}, {"size": "3"}]}}}}, {"name": "MobilenetV1/Conv2d_0/Conv2D", "op": "Conv2D", "input": ["image", "MobilenetV1/Conv2d_0/weights"], "attr": {"padding": {"s": "U0FNRQ=="}, "dilations": {"list": {"i": ["1", "1", "1", "1"]}}, "T": {"type": "DT_FLOAT"}, "data_format": {"s": "TkhXQw=="}, "strides": {"list": {"i": ["1", "2", "2", "1"]}}, "use_cudnn_on_gpu": {"b": true}}}, {"name": "MobilenetV1/Conv2d_0/BatchNorm/FusedBatchNorm", "op": "BiasAdd", "input": ["MobilenetV1/Conv2d_0/Conv2D", "MobilenetV1/Conv2d_0/Conv2D_bn_offset"], "attr": {"T": {"type": "DT_FLOAT"}, "data_format": {"s": "TkhXQw=="}}}, {"name": "MobilenetV1/Conv2d_0/Relu", "op": "Relu", "input": ["MobilenetV1/Conv2d_0/BatchNorm/FusedBatchNorm"], "attr": {"T": {"type": "DT_FLOAT"}}}, {"name": "MobilenetV1/Conv2d_1_depthwise/depthwise", "op": "DepthwiseConv2dNative", "input": ["MobilenetV1/Conv2d_0/Relu", "MobilenetV1/Conv2d_1_depthwise/depthwise_weights"], "attr": {"dilations": {"list": {"i": ["1", "1", "1", "1"]}}, "padding": {"s": "U0FNRQ=="}, "T": {"type": "DT_FLOAT"}, "data_format": {"s": "TkhXQw=="}, "strides": {"list": {"i": ["1", "1", "1", "1"]}}}}, {"name": "MobilenetV1/Conv2d_1_pointwise/Conv2D", "op": "Conv2D", "input": ["MobilenetV1/Conv2d_1_depthwise/depthwise", "MobilenetV1/Conv2d_1_pointwise/weights"], "attr": {"padding": {"s": "U0FNRQ=="}, "dilations": {"list": {"i": ["1", "1", "1", "1"]}}, "T": {"type": "DT_FLOAT"}, "data_format": {"s": "TkhXQw=="}, "strides": {"list": {"i": ["1", "1", "1", "1"]}}, "use_cudnn_on_gpu": {"b": true}}}, {"name": "MobilenetV1/Conv2d_1_pointwise/BatchNorm/FusedBatchNorm", "op": "BiasAdd", "input": ["MobilenetV1/Conv2d_1_pointwise/Conv2D", "MobilenetV1/Conv2d_1_pointwise/Conv2D_bn_offset"], "attr": {"data_format": {"s": "TkhXQw=="}, "T": {"type": "DT_FLOAT"}}}, {"name": "MobilenetV1/Conv2d_1_pointwise/Relu", "op": "Relu", "input": ["MobilenetV1/Conv2d_1_pointwise/BatchNorm/FusedBatchNorm"], "attr": {"T": {"type": "DT_FLOAT"}}}, {"name": "MobilenetV1/Conv2d_2_depthwise/depthwise", "op": "DepthwiseConv2dNative", "input": ["MobilenetV1/Conv2d_1_pointwise/Relu", "MobilenetV1/Conv2d_2_depthwise/depthwise_weights"], "attr": {"data_format": {"s": "TkhXQw=="}, "strides": {"list": {"i": ["1", "2", "2", "1"]}}, "dilations": {"list": {"i": ["1", "1", "1", "1"]}}, "padding": {"s": "U0FNRQ=="}, "T": {"type": "DT_FLOAT"}}}, {"name": "MobilenetV1/Conv2d_2_pointwise/Conv2D", "op": "Conv2D", "input": ["MobilenetV1/Conv2d_2_depthwise/depthwise", "MobilenetV1/Conv2d_2_pointwise/weights"], "attr": {"padding": {"s": "U0FNRQ=="}, "dilations": {"list": {"i": ["1", "1", "1", "1"]}}, "T": {"type": "DT_FLOAT"}, "strides": {"list": {"i": ["1", "1", "1", "1"]}}, "data_format": {"s": "TkhXQw=="}, "use_cudnn_on_gpu": {"b": true}}}, {"name": "MobilenetV1/Conv2d_2_pointwise/BatchNorm/FusedBatchNorm", "op": "BiasAdd", "input": ["MobilenetV1/Conv2d_2_pointwise/Conv2D", "MobilenetV1/Conv2d_2_pointwise/Conv2D_bn_offset"], "attr": {"T": {"type": "DT_FLOAT"}, "data_format": {"s": "TkhXQw=="}}}, {"name": "MobilenetV1/Conv2d_2_pointwise/Relu", "op": "Relu", "input": ["MobilenetV1/Conv2d_2_pointwise/BatchNorm/FusedBatchNorm"], "attr": {"T": {"type": "DT_FLOAT"}}}, {"name": "MobilenetV1/Conv2d_3_depthwise/depthwise", "op": "DepthwiseConv2dNative", "input": ["MobilenetV1/Conv2d_2_pointwise/Relu", "MobilenetV1/Conv2d_3_depthwise/depthwise_weights"], "attr": {"data_format": {"s": "TkhXQw=="}, "strides": {"list": {"i": ["1", "1", "1", "1"]}}, "dilations": {"list": {"i": ["1", "1", "1", "1"]}}, "padding": {"s": "U0FNRQ=="}, "T": {"type": "DT_FLOAT"}}}, {"name": "MobilenetV1/Conv2d_3_pointwise/Conv2D", "op": "Conv2D", "input": ["MobilenetV1/Conv2d_3_depthwise/depthwise", "MobilenetV1/Conv2d_3_pointwise/weights"], "attr": {"dilations": {"list": {"i": ["1", "1", "1", "1"]}}, "T": {"type": "DT_FLOAT"}, "data_format": {"s": "TkhXQw=="}, "strides": {"list": {"i": ["1", "1", "1", "1"]}}, "use_cudnn_on_gpu": {"b": true}, "padding": {"s": "U0FNRQ=="}}}, {"name": "MobilenetV1/Conv2d_3_pointwise/BatchNorm/FusedBatchNorm", "op": "BiasAdd", "input": ["MobilenetV1/Conv2d_3_pointwise/Conv2D", "MobilenetV1/Conv2d_3_pointwise/Conv2D_bn_offset"], "attr": {"T": {"type": "DT_FLOAT"}, "data_format": {"s": "TkhXQw=="}}}, {"name": "MobilenetV1/Conv2d_3_pointwise/Relu", "op": "Relu", "input": ["MobilenetV1/Conv2d_3_pointwise/BatchNorm/FusedBatchNorm"], "attr": {"T": {"type": "DT_FLOAT"}}}, {"name": "Conv2d_3_pool", "op": "MaxPool", "input": ["MobilenetV1/Conv2d_3_pointwise/Relu"], "attr": {"ksize": {"list": {"i": ["1", "2", "2", "1"]}}, "padding": {"s": "U0FNRQ=="}, "T": {"type": "DT_FLOAT"}, "data_format": {"s": "TkhXQw=="}, "strides": {"list": {"i": ["1", "2", "2", "1"]}}}}, {"name": "MobilenetV1/Conv2d_4_depthwise/depthwise", "op": "DepthwiseConv2dNative", "input": ["MobilenetV1/Conv2d_3_pointwise/Relu", "MobilenetV1/Conv2d_4_depthwise/depthwise_weights"], "attr": {"data_format": {"s": "TkhXQw=="}, "strides": {"list": {"i": ["1", "2", "2", "1"]}}, "dilations": {"list": {"i": ["1", "1", "1", "1"]}}, "padding": {"s": "U0FNRQ=="}, "T": {"type": "DT_FLOAT"}}}, {"name": "MobilenetV1/Conv2d_4_pointwise/Conv2D", "op": "Conv2D", "input": ["MobilenetV1/Conv2d_4_depthwise/depthwise", "MobilenetV1/Conv2d_4_pointwise/weights"], "attr": {"padding": {"s": "U0FNRQ=="}, "dilations": {"list": {"i": ["1", "1", "1", "1"]}}, "T": {"type": "DT_FLOAT"}, "data_format": {"s": "TkhXQw=="}, "strides": {"list": {"i": ["1", "1", "1", "1"]}}, "use_cudnn_on_gpu": {"b": true}}}, {"name": "MobilenetV1/Conv2d_4_pointwise/BatchNorm/FusedBatchNorm", "op": "BiasAdd", "input": ["MobilenetV1/Conv2d_4_pointwise/Conv2D", "MobilenetV1/Conv2d_4_pointwise/Conv2D_bn_offset"], "attr": {"data_format": {"s": "TkhXQw=="}, "T": {"type": "DT_FLOAT"}}}, {"name": "MobilenetV1/Conv2d_4_pointwise/Relu", "op": "Relu", "input": ["MobilenetV1/Conv2d_4_pointwise/BatchNorm/FusedBatchNorm"], "attr": {"T": {"type": "DT_FLOAT"}}}, {"name": "MobilenetV1/Conv2d_5_depthwise/depthwise", "op": "DepthwiseConv2dNative", "input": ["MobilenetV1/Conv2d_4_pointwise/Relu", "MobilenetV1/Conv2d_5_depthwise/depthwise_weights"], "attr": {"data_format": {"s": "TkhXQw=="}, "strides": {"list": {"i": ["1", "1", "1", "1"]}}, "dilations": {"list": {"i": ["1", "1", "1", "1"]}}, "padding": {"s": "U0FNRQ=="}, "T": {"type": "DT_FLOAT"}}}, {"name": "MobilenetV1/Conv2d_5_pointwise/Conv2D", "op": "Conv2D", "input": ["MobilenetV1/Conv2d_5_depthwise/depthwise", "MobilenetV1/Conv2d_5_pointwise/weights"], "attr": {"use_cudnn_on_gpu": {"b": true}, "padding": {"s": "U0FNRQ=="}, "dilations": {"list": {"i": ["1", "1", "1", "1"]}}, "T": {"type": "DT_FLOAT"}, "strides": {"list": {"i": ["1", "1", "1", "1"]}}, "data_format": {"s": "TkhXQw=="}}}, {"name": "MobilenetV1/Conv2d_5_pointwise/BatchNorm/FusedBatchNorm", "op": "BiasAdd", "input": ["MobilenetV1/Conv2d_5_pointwise/Conv2D", "MobilenetV1/Conv2d_5_pointwise/Conv2D_bn_offset"], "attr": {"data_format": {"s": "TkhXQw=="}, "T": {"type": "DT_FLOAT"}}}, {"name": "MobilenetV1/Conv2d_5_pointwise/Relu", "op": "Relu", "input": ["MobilenetV1/Conv2d_5_pointwise/BatchNorm/FusedBatchNorm"], "attr": {"T": {"type": "DT_FLOAT"}}}, {"name": "MobilenetV1/Conv2d_6_depthwise/depthwise", "op": "DepthwiseConv2dNative", "input": ["MobilenetV1/Conv2d_5_pointwise/Relu", "MobilenetV1/Conv2d_6_depthwise/depthwise_weights"], "attr": {"data_format": {"s": "TkhXQw=="}, "strides": {"list": {"i": ["1", "1", "1", "1"]}}, "dilations": {"list": {"i": ["1", "1", "1", "1"]}}, "padding": {"s": "U0FNRQ=="}, "T": {"type": "DT_FLOAT"}}}, {"name": "MobilenetV1/Conv2d_6_pointwise/Conv2D", "op": "Conv2D", "input": ["MobilenetV1/Conv2d_6_depthwise/depthwise", "MobilenetV1/Conv2d_6_pointwise/weights"], "attr": {"T": {"type": "DT_FLOAT"}, "strides": {"list": {"i": ["1", "1", "1", "1"]}}, "data_format": {"s": "TkhXQw=="}, "use_cudnn_on_gpu": {"b": true}, "padding": {"s": "U0FNRQ=="}, "dilations": {"list": {"i": ["1", "1", "1", "1"]}}}}, {"name": "MobilenetV1/Conv2d_6_pointwise/BatchNorm/FusedBatchNorm", "op": "BiasAdd", "input": ["MobilenetV1/Conv2d_6_pointwise/Conv2D", "MobilenetV1/Conv2d_6_pointwise/Conv2D_bn_offset"], "attr": {"T": {"type": "DT_FLOAT"}, "data_format": {"s": "TkhXQw=="}}}, {"name": "MobilenetV1/Conv2d_6_pointwise/Relu", "op": "Relu", "input": ["MobilenetV1/Conv2d_6_pointwise/BatchNorm/FusedBatchNorm"], "attr": {"T": {"type": "DT_FLOAT"}}}, {"name": "MobilenetV1/Conv2d_7_depthwise/depthwise", "op": "DepthwiseConv2dNative", "input": ["MobilenetV1/Conv2d_6_pointwise/Relu", "MobilenetV1/Conv2d_7_depthwise/depthwise_weights"], "attr": {"data_format": {"s": "TkhXQw=="}, "strides": {"list": {"i": ["1", "1", "1", "1"]}}, "dilations": {"list": {"i": ["1", "1", "1", "1"]}}, "padding": {"s": "U0FNRQ=="}, "T": {"type": "DT_FLOAT"}}}, {"name": "MobilenetV1/Conv2d_7_pointwise/Conv2D", "op": "Conv2D", "input": ["MobilenetV1/Conv2d_7_depthwise/depthwise", "MobilenetV1/Conv2d_7_pointwise/weights"], "attr": {"padding": {"s": "U0FNRQ=="}, "dilations": {"list": {"i": ["1", "1", "1", "1"]}}, "T": {"type": "DT_FLOAT"}, "data_format": {"s": "TkhXQw=="}, "strides": {"list": {"i": ["1", "1", "1", "1"]}}, "use_cudnn_on_gpu": {"b": true}}}, {"name": "MobilenetV1/Conv2d_7_pointwise/BatchNorm/FusedBatchNorm", "op": "BiasAdd", "input": ["MobilenetV1/Conv2d_7_pointwise/Conv2D", "MobilenetV1/Conv2d_7_pointwise/Conv2D_bn_offset"], "attr": {"T": {"type": "DT_FLOAT"}, "data_format": {"s": "TkhXQw=="}}}, {"name": "MobilenetV1/Conv2d_7_pointwise/Relu", "op": "Relu", "input": ["MobilenetV1/Conv2d_7_pointwise/BatchNorm/FusedBatchNorm"], "attr": {"T": {"type": "DT_FLOAT"}}}, {"name": "MobilenetV1/Conv2d_8_depthwise/depthwise", "op": "DepthwiseConv2dNative", "input": ["MobilenetV1/Conv2d_7_pointwise/Relu", "MobilenetV1/Conv2d_8_depthwise/depthwise_weights"], "attr": {"T": {"type": "DT_FLOAT"}, "data_format": {"s": "TkhXQw=="}, "strides": {"list": {"i": ["1", "1", "1", "1"]}}, "dilations": {"list": {"i": ["1", "1", "1", "1"]}}, "padding": {"s": "U0FNRQ=="}}}, {"name": "MobilenetV1/Conv2d_8_pointwise/Conv2D", "op": "Conv2D", "input": ["MobilenetV1/Conv2d_8_depthwise/depthwise", "MobilenetV1/Conv2d_8_pointwise/weights"], "attr": {"padding": {"s": "U0FNRQ=="}, "dilations": {"list": {"i": ["1", "1", "1", "1"]}}, "T": {"type": "DT_FLOAT"}, "data_format": {"s": "TkhXQw=="}, "strides": {"list": {"i": ["1", "1", "1", "1"]}}, "use_cudnn_on_gpu": {"b": true}}}, {"name": "MobilenetV1/Conv2d_8_pointwise/BatchNorm/FusedBatchNorm", "op": "BiasAdd", "input": ["MobilenetV1/Conv2d_8_pointwise/Conv2D", "MobilenetV1/Conv2d_8_pointwise/Conv2D_bn_offset"], "attr": {"T": {"type": "DT_FLOAT"}, "data_format": {"s": "TkhXQw=="}}}, {"name": "MobilenetV1/Conv2d_8_pointwise/Relu", "op": "Relu", "input": ["MobilenetV1/Conv2d_8_pointwise/BatchNorm/FusedBatchNorm"], "attr": {"T": {"type": "DT_FLOAT"}}}, {"name": "MobilenetV1/Conv2d_9_depthwise/depthwise", "op": "DepthwiseConv2dNative", "input": ["MobilenetV1/Conv2d_8_pointwise/Relu", "MobilenetV1/Conv2d_9_depthwise/depthwise_weights"], "attr": {"dilations": {"list": {"i": ["1", "1", "1", "1"]}}, "padding": {"s": "U0FNRQ=="}, "T": {"type": "DT_FLOAT"}, "data_format": {"s": "TkhXQw=="}, "strides": {"list": {"i": ["1", "1", "1", "1"]}}}}, {"name": "MobilenetV1/Conv2d_9_pointwise/Conv2D", "op": "Conv2D", "input": ["MobilenetV1/Conv2d_9_depthwise/depthwise", "MobilenetV1/Conv2d_9_pointwise/weights"], "attr": {"dilations": {"list": {"i": ["1", "1", "1", "1"]}}, "T": {"type": "DT_FLOAT"}, "strides": {"list": {"i": ["1", "1", "1", "1"]}}, "data_format": {"s": "TkhXQw=="}, "use_cudnn_on_gpu": {"b": true}, "padding": {"s": "U0FNRQ=="}}}, {"name": "MobilenetV1/Conv2d_9_pointwise/BatchNorm/FusedBatchNorm", "op": "BiasAdd", "input": ["MobilenetV1/Conv2d_9_pointwise/Conv2D", "MobilenetV1/Conv2d_9_pointwise/Conv2D_bn_offset"], "attr": {"data_format": {"s": "TkhXQw=="}, "T": {"type": "DT_FLOAT"}}}, {"name": "MobilenetV1/Conv2d_9_pointwise/Relu", "op": "Relu", "input": ["MobilenetV1/Conv2d_9_pointwise/BatchNorm/FusedBatchNorm"], "attr": {"T": {"type": "DT_FLOAT"}}}, {"name": "MobilenetV1/Conv2d_10_depthwise/depthwise", "op": "DepthwiseConv2dNative", "input": ["MobilenetV1/Conv2d_9_pointwise/Relu", "MobilenetV1/Conv2d_10_depthwise/depthwise_weights"], "attr": {"T": {"type": "DT_FLOAT"}, "data_format": {"s": "TkhXQw=="}, "strides": {"list": {"i": ["1", "1", "1", "1"]}}, "dilations": {"list": {"i": ["1", "1", "1", "1"]}}, "padding": {"s": "U0FNRQ=="}}}, {"name": "MobilenetV1/Conv2d_10_pointwise/Conv2D", "op": "Conv2D", "input": ["MobilenetV1/Conv2d_10_depthwise/depthwise", "MobilenetV1/Conv2d_10_pointwise/weights"], "attr": {"padding": {"s": "U0FNRQ=="}, "dilations": {"list": {"i": ["1", "1", "1", "1"]}}, "T": {"type": "DT_FLOAT"}, "data_format": {"s": "TkhXQw=="}, "strides": {"list": {"i": ["1", "1", "1", "1"]}}, "use_cudnn_on_gpu": {"b": true}}}, {"name": "MobilenetV1/Conv2d_10_pointwise/BatchNorm/FusedBatchNorm", "op": "BiasAdd", "input": ["MobilenetV1/Conv2d_10_pointwise/Conv2D", "MobilenetV1/Conv2d_10_pointwise/Conv2D_bn_offset"], "attr": {"T": {"type": "DT_FLOAT"}, "data_format": {"s": "TkhXQw=="}}}, {"name": "MobilenetV1/Conv2d_10_pointwise/Relu", "op": "Relu", "input": ["MobilenetV1/Conv2d_10_pointwise/BatchNorm/FusedBatchNorm"], "attr": {"T": {"type": "DT_FLOAT"}}}, {"name": "MobilenetV1/Conv2d_11_depthwise/depthwise", "op": "DepthwiseConv2dNative", "input": ["MobilenetV1/Conv2d_10_pointwise/Relu", "MobilenetV1/Conv2d_11_depthwise/depthwise_weights"], "attr": {"data_format": {"s": "TkhXQw=="}, "strides": {"list": {"i": ["1", "1", "1", "1"]}}, "dilations": {"list": {"i": ["1", "1", "1", "1"]}}, "padding": {"s": "U0FNRQ=="}, "T": {"type": "DT_FLOAT"}}}, {"name": "MobilenetV1/Conv2d_11_pointwise/Conv2D", "op": "Conv2D", "input": ["MobilenetV1/Conv2d_11_depthwise/depthwise", "MobilenetV1/Conv2d_11_pointwise/weights"], "attr": {"dilations": {"list": {"i": ["1", "1", "1", "1"]}}, "T": {"type": "DT_FLOAT"}, "data_format": {"s": "TkhXQw=="}, "strides": {"list": {"i": ["1", "1", "1", "1"]}}, "use_cudnn_on_gpu": {"b": true}, "padding": {"s": "U0FNRQ=="}}}, {"name": "MobilenetV1/Conv2d_11_pointwise/BatchNorm/FusedBatchNorm", "op": "BiasAdd", "input": ["MobilenetV1/Conv2d_11_pointwise/Conv2D", "MobilenetV1/Conv2d_11_pointwise/Conv2D_bn_offset"], "attr": {"T": {"type": "DT_FLOAT"}, "data_format": {"s": "TkhXQw=="}}}, {"name": "MobilenetV1/Conv2d_11_pointwise/Relu", "op": "Relu", "input": ["MobilenetV1/Conv2d_11_pointwise/BatchNorm/FusedBatchNorm"], "attr": {"T": {"type": "DT_FLOAT"}}}, {"name": "feat_concat", "op": "ConcatV2", "input": ["Conv2d_3_pool", "MobilenetV1/Conv2d_7_pointwise/Relu", "MobilenetV1/Conv2d_11_pointwise/Relu", "Openpose/MConv_Stage2_concat/axis"], "attr": {"T": {"type": "DT_FLOAT"}, "N": {"i": "3"}, "Tidx": {"type": "DT_INT32"}}}, {"name": "Openpose/MConv_Stage1_L1_1_depthwise/depthwise", "op": "DepthwiseConv2dNative", "input": ["feat_concat", "Openpose/MConv_Stage1_L1_1_depthwise/depthwise_weights"], "attr": {"data_format": {"s": "TkhXQw=="}, "strides": {"list": {"i": ["1", "1", "1", "1"]}}, "dilations": {"list": {"i": ["1", "1", "1", "1"]}}, "padding": {"s": "U0FNRQ=="}, "T": {"type": "DT_FLOAT"}}}, {"name": "Openpose/MConv_Stage1_L2_1_depthwise/depthwise", "op": "DepthwiseConv2dNative", "input": ["feat_concat", "Openpose/MConv_Stage1_L2_1_depthwise/depthwise_weights"], "attr": {"data_format": {"s": "TkhXQw=="}, "strides": {"list": {"i": ["1", "1", "1", "1"]}}, "dilations": {"list": {"i": ["1", "1", "1", "1"]}}, "padding": {"s": "U0FNRQ=="}, "T": {"type": "DT_FLOAT"}}}, {"name": "Openpose/MConv_Stage1_L1_1_pointwise/Conv2D", "op": "Conv2D", "input": ["Openpose/MConv_Stage1_L1_1_depthwise/depthwise", "Openpose/MConv_Stage1_L1_1_pointwise/weights"], "attr": {"use_cudnn_on_gpu": {"b": true}, "padding": {"s": "U0FNRQ=="}, "dilations": {"list": {"i": ["1", "1", "1", "1"]}}, "T": {"type": "DT_FLOAT"}, "data_format": {"s": "TkhXQw=="}, "strides": {"list": {"i": ["1", "1", "1", "1"]}}}}, {"name": "Openpose/MConv_Stage1_L2_1_pointwise/Conv2D", "op": "Conv2D", "input": ["Openpose/MConv_Stage1_L2_1_depthwise/depthwise", "Openpose/MConv_Stage1_L2_1_pointwise/weights"], "attr": {"strides": {"list": {"i": ["1", "1", "1", "1"]}}, "data_format": {"s": "TkhXQw=="}, "use_cudnn_on_gpu": {"b": true}, "padding": {"s": "U0FNRQ=="}, "dilations": {"list": {"i": ["1", "1", "1", "1"]}}, "T": {"type": "DT_FLOAT"}}}, {"name": "Openpose/MConv_Stage1_L1_1_pointwise/BatchNorm/FusedBatchNorm", "op": "BiasAdd", "input": ["Openpose/MConv_Stage1_L1_1_pointwise/Conv2D", "Openpose/MConv_Stage1_L1_1_pointwise/Conv2D_bn_offset"], "attr": {"T": {"type": "DT_FLOAT"}, "data_format": {"s": "TkhXQw=="}}}, {"name": "Openpose/MConv_Stage1_L2_1_pointwise/BatchNorm/FusedBatchNorm", "op": "BiasAdd", "input": ["Openpose/MConv_Stage1_L2_1_pointwise/Conv2D", "Openpose/MConv_Stage1_L2_1_pointwise/Conv2D_bn_offset"], "attr": {"T": {"type": "DT_FLOAT"}, "data_format": {"s": "TkhXQw=="}}}, {"name": "Openpose/MConv_Stage1_L1_1_pointwise/Relu", "op": "Relu", "input": ["Openpose/MConv_Stage1_L1_1_pointwise/BatchNorm/FusedBatchNorm"], "attr": {"T": {"type": "DT_FLOAT"}}}, {"name": "Openpose/MConv_Stage1_L2_1_pointwise/Relu", "op": "Relu", "input": ["Openpose/MConv_Stage1_L2_1_pointwise/BatchNorm/FusedBatchNorm"], "attr": {"T": {"type": "DT_FLOAT"}}}, {"name": "Openpose/MConv_Stage1_L1_2_depthwise/depthwise", "op": "DepthwiseConv2dNative", "input": ["Openpose/MConv_Stage1_L1_1_pointwise/Relu", "Openpose/MConv_Stage1_L1_2_depthwise/depthwise_weights"], "attr": {"data_format": {"s": "TkhXQw=="}, "strides": {"list": {"i": ["1", "1", "1", "1"]}}, "dilations": {"list": {"i": ["1", "1", "1", "1"]}}, "padding": {"s": "U0FNRQ=="}, "T": {"type": "DT_FLOAT"}}}, {"name": "Openpose/MConv_Stage1_L2_2_depthwise/depthwise", "op": "DepthwiseConv2dNative", "input": ["Openpose/MConv_Stage1_L2_1_pointwise/Relu", "Openpose/MConv_Stage1_L2_2_depthwise/depthwise_weights"], "attr": {"data_format": {"s": "TkhXQw=="}, "strides": {"list": {"i": ["1", "1", "1", "1"]}}, "dilations": {"list": {"i": ["1", "1", "1", "1"]}}, "padding": {"s": "U0FNRQ=="}, "T": {"type": "DT_FLOAT"}}}, {"name": "Openpose/MConv_Stage1_L1_2_pointwise/Conv2D", "op": "Conv2D", "input": ["Openpose/MConv_Stage1_L1_2_depthwise/depthwise", "Openpose/MConv_Stage1_L1_2_pointwise/weights"], "attr": {"padding": {"s": "U0FNRQ=="}, "dilations": {"list": {"i": ["1", "1", "1", "1"]}}, "T": {"type": "DT_FLOAT"}, "strides": {"list": {"i": ["1", "1", "1", "1"]}}, "data_format": {"s": "TkhXQw=="}, "use_cudnn_on_gpu": {"b": true}}}, {"name": "Openpose/MConv_Stage1_L2_2_pointwise/Conv2D", "op": "Conv2D", "input": ["Openpose/MConv_Stage1_L2_2_depthwise/depthwise", "Openpose/MConv_Stage1_L2_2_pointwise/weights"], "attr": {"dilations": {"list": {"i": ["1", "1", "1", "1"]}}, "T": {"type": "DT_FLOAT"}, "data_format": {"s": "TkhXQw=="}, "strides": {"list": {"i": ["1", "1", "1", "1"]}}, "use_cudnn_on_gpu": {"b": true}, "padding": {"s": "U0FNRQ=="}}}, {"name": "Openpose/MConv_Stage1_L1_2_pointwise/BatchNorm/FusedBatchNorm", "op": "BiasAdd", "input": ["Openpose/MConv_Stage1_L1_2_pointwise/Conv2D", "Openpose/MConv_Stage1_L1_2_pointwise/Conv2D_bn_offset"], "attr": {"T": {"type": "DT_FLOAT"}, "data_format": {"s": "TkhXQw=="}}}, {"name": "Openpose/MConv_Stage1_L2_2_pointwise/BatchNorm/FusedBatchNorm", "op": "BiasAdd", "input": ["Openpose/MConv_Stage1_L2_2_pointwise/Conv2D", "Openpose/MConv_Stage1_L2_2_pointwise/Conv2D_bn_offset"], "attr": {"T": {"type": "DT_FLOAT"}, "data_format": {"s": "TkhXQw=="}}}, {"name": "Openpose/MConv_Stage1_L1_2_pointwise/Relu", "op": "Relu", "input": ["Openpose/MConv_Stage1_L1_2_pointwise/BatchNorm/FusedBatchNorm"], "attr": {"T": {"type": "DT_FLOAT"}}}, {"name": "Openpose/MConv_Stage1_L2_2_pointwise/Relu", "op": "Relu", "input": ["Openpose/MConv_Stage1_L2_2_pointwise/BatchNorm/FusedBatchNorm"], "attr": {"T": {"type": "DT_FLOAT"}}}, {"name": "Openpose/MConv_Stage1_L1_3_depthwise/depthwise", "op": "DepthwiseConv2dNative", "input": ["Openpose/MConv_Stage1_L1_2_pointwise/Relu", "Openpose/MConv_Stage1_L1_3_depthwise/depthwise_weights"], "attr": {"dilations": {"list": {"i": ["1", "1", "1", "1"]}}, "padding": {"s": "U0FNRQ=="}, "T": {"type": "DT_FLOAT"}, "data_format": {"s": "TkhXQw=="}, "strides": {"list": {"i": ["1", "1", "1", "1"]}}}}, {"name": "Openpose/MConv_Stage1_L2_3_depthwise/depthwise", "op": "DepthwiseConv2dNative", "input": ["Openpose/MConv_Stage1_L2_2_pointwise/Relu", "Openpose/MConv_Stage1_L2_3_depthwise/depthwise_weights"], "attr": {"dilations": {"list": {"i": ["1", "1", "1", "1"]}}, "padding": {"s": "U0FNRQ=="}, "T": {"type": "DT_FLOAT"}, "data_format": {"s": "TkhXQw=="}, "strides": {"list": {"i": ["1", "1", "1", "1"]}}}}, {"name": "Openpose/MConv_Stage1_L1_3_pointwise/Conv2D", "op": "Conv2D", "input": ["Openpose/MConv_Stage1_L1_3_depthwise/depthwise", "Openpose/MConv_Stage1_L1_3_pointwise/weights"], "attr": {"padding": {"s": "U0FNRQ=="}, "dilations": {"list": {"i": ["1", "1", "1", "1"]}}, "T": {"type": "DT_FLOAT"}, "strides": {"list": {"i": ["1", "1", "1", "1"]}}, "data_format": {"s": "TkhXQw=="}, "use_cudnn_on_gpu": {"b": true}}}, {"name": "Openpose/MConv_Stage1_L2_3_pointwise/Conv2D", "op": "Conv2D", "input": ["Openpose/MConv_Stage1_L2_3_depthwise/depthwise", "Openpose/MConv_Stage1_L2_3_pointwise/weights"], "attr": {"padding": {"s": "U0FNRQ=="}, "dilations": {"list": {"i": ["1", "1", "1", "1"]}}, "T": {"type": "DT_FLOAT"}, "data_format": {"s": "TkhXQw=="}, "strides": {"list": {"i": ["1", "1", "1", "1"]}}, "use_cudnn_on_gpu": {"b": true}}}, {"name": "Openpose/MConv_Stage1_L1_3_pointwise/BatchNorm/FusedBatchNorm", "op": "BiasAdd", "input": ["Openpose/MConv_Stage1_L1_3_pointwise/Conv2D", "Openpose/MConv_Stage1_L1_3_pointwise/Conv2D_bn_offset"], "attr": {"T": {"type": "DT_FLOAT"}, "data_format": {"s": "TkhXQw=="}}}, {"name": "Openpose/MConv_Stage1_L2_3_pointwise/BatchNorm/FusedBatchNorm", "op": "BiasAdd", "input": ["Openpose/MConv_Stage1_L2_3_pointwise/Conv2D", "Openpose/MConv_Stage1_L2_3_pointwise/Conv2D_bn_offset"], "attr": {"T": {"type": "DT_FLOAT"}, "data_format": {"s": "TkhXQw=="}}}, {"name": "Openpose/MConv_Stage1_L1_3_pointwise/Relu", "op": "Relu", "input": ["Openpose/MConv_Stage1_L1_3_pointwise/BatchNorm/FusedBatchNorm"], "attr": {"T": {"type": "DT_FLOAT"}}}, {"name": "Openpose/MConv_Stage1_L2_3_pointwise/Relu", "op": "Relu", "input": ["Openpose/MConv_Stage1_L2_3_pointwise/BatchNorm/FusedBatchNorm"], "attr": {"T": {"type": "DT_FLOAT"}}}, {"name": "Openpose/MConv_Stage1_L1_4_depthwise/depthwise", "op": "DepthwiseConv2dNative", "input": ["Openpose/MConv_Stage1_L1_3_pointwise/Relu", "Openpose/MConv_Stage1_L1_4_depthwise/depthwise_weights"], "attr": {"dilations": {"list": {"i": ["1", "1", "1", "1"]}}, "padding": {"s": "U0FNRQ=="}, "T": {"type": "DT_FLOAT"}, "data_format": {"s": "TkhXQw=="}, "strides": {"list": {"i": ["1", "1", "1", "1"]}}}}, {"name": "Openpose/MConv_Stage1_L2_4_depthwise/depthwise", "op": "DepthwiseConv2dNative", "input": ["Openpose/MConv_Stage1_L2_3_pointwise/Relu", "Openpose/MConv_Stage1_L2_4_depthwise/depthwise_weights"], "attr": {"dilations": {"list": {"i": ["1", "1", "1", "1"]}}, "padding": {"s": "U0FNRQ=="}, "T": {"type": "DT_FLOAT"}, "data_format": {"s": "TkhXQw=="}, "strides": {"list": {"i": ["1", "1", "1", "1"]}}}}, {"name": "Openpose/MConv_Stage1_L1_4_pointwise/Conv2D", "op": "Conv2D", "input": ["Openpose/MConv_Stage1_L1_4_depthwise/depthwise", "Openpose/MConv_Stage1_L1_4_pointwise/weights"], "attr": {"dilations": {"list": {"i": ["1", "1", "1", "1"]}}, "T": {"type": "DT_FLOAT"}, "data_format": {"s": "TkhXQw=="}, "strides": {"list": {"i": ["1", "1", "1", "1"]}}, "use_cudnn_on_gpu": {"b": true}, "padding": {"s": "U0FNRQ=="}}}, {"name": "Openpose/MConv_Stage1_L2_4_pointwise/Conv2D", "op": "Conv2D", "input": ["Openpose/MConv_Stage1_L2_4_depthwise/depthwise", "Openpose/MConv_Stage1_L2_4_pointwise/weights"], "attr": {"dilations": {"list": {"i": ["1", "1", "1", "1"]}}, "T": {"type": "DT_FLOAT"}, "strides": {"list": {"i": ["1", "1", "1", "1"]}}, "data_format": {"s": "TkhXQw=="}, "use_cudnn_on_gpu": {"b": true}, "padding": {"s": "U0FNRQ=="}}}, {"name": "Openpose/MConv_Stage1_L1_4_pointwise/BatchNorm/FusedBatchNorm", "op": "BiasAdd", "input": ["Openpose/MConv_Stage1_L1_4_pointwise/Conv2D", "Openpose/MConv_Stage1_L1_4_pointwise/Conv2D_bn_offset"], "attr": {"data_format": {"s": "TkhXQw=="}, "T": {"type": "DT_FLOAT"}}}, {"name": "Openpose/MConv_Stage1_L2_4_pointwise/BatchNorm/FusedBatchNorm", "op": "BiasAdd", "input": ["Openpose/MConv_Stage1_L2_4_pointwise/Conv2D", "Openpose/MConv_Stage1_L2_4_pointwise/Conv2D_bn_offset"], "attr": {"T": {"type": "DT_FLOAT"}, "data_format": {"s": "TkhXQw=="}}}, {"name": "Openpose/MConv_Stage1_L1_4_pointwise/Relu", "op": "Relu", "input": ["Openpose/MConv_Stage1_L1_4_pointwise/BatchNorm/FusedBatchNorm"], "attr": {"T": {"type": "DT_FLOAT"}}}, {"name": "Openpose/MConv_Stage1_L2_4_pointwise/Relu", "op": "Relu", "input": ["Openpose/MConv_Stage1_L2_4_pointwise/BatchNorm/FusedBatchNorm"], "attr": {"T": {"type": "DT_FLOAT"}}}, {"name": "Openpose/MConv_Stage1_L1_5_depthwise/depthwise", "op": "DepthwiseConv2dNative", "input": ["Openpose/MConv_Stage1_L1_4_pointwise/Relu", "Openpose/MConv_Stage1_L1_5_depthwise/depthwise_weights"], "attr": {"dilations": {"list": {"i": ["1", "1", "1", "1"]}}, "padding": {"s": "U0FNRQ=="}, "T": {"type": "DT_FLOAT"}, "data_format": {"s": "TkhXQw=="}, "strides": {"list": {"i": ["1", "1", "1", "1"]}}}}, {"name": "Openpose/MConv_Stage1_L2_5_depthwise/depthwise", "op": "DepthwiseConv2dNative", "input": ["Openpose/MConv_Stage1_L2_4_pointwise/Relu", "Openpose/MConv_Stage1_L2_5_depthwise/depthwise_weights"], "attr": {"dilations": {"list": {"i": ["1", "1", "1", "1"]}}, "padding": {"s": "U0FNRQ=="}, "T": {"type": "DT_FLOAT"}, "data_format": {"s": "TkhXQw=="}, "strides": {"list": {"i": ["1", "1", "1", "1"]}}}}, {"name": "Openpose/MConv_Stage1_L1_5_pointwise/Conv2D", "op": "Conv2D", "input": ["Openpose/MConv_Stage1_L1_5_depthwise/depthwise", "Openpose/MConv_Stage1_L1_5_pointwise/weights"], "attr": {"T": {"type": "DT_FLOAT"}, "data_format": {"s": "TkhXQw=="}, "strides": {"list": {"i": ["1", "1", "1", "1"]}}, "use_cudnn_on_gpu": {"b": true}, "padding": {"s": "U0FNRQ=="}, "dilations": {"list": {"i": ["1", "1", "1", "1"]}}}}, {"name": "Openpose/MConv_Stage1_L2_5_pointwise/Conv2D", "op": "Conv2D", "input": ["Openpose/MConv_Stage1_L2_5_depthwise/depthwise", "Openpose/MConv_Stage1_L2_5_pointwise/weights"], "attr": {"dilations": {"list": {"i": ["1", "1", "1", "1"]}}, "T": {"type": "DT_FLOAT"}, "data_format": {"s": "TkhXQw=="}, "strides": {"list": {"i": ["1", "1", "1", "1"]}}, "use_cudnn_on_gpu": {"b": true}, "padding": {"s": "U0FNRQ=="}}}, {"name": "Openpose/MConv_Stage1_L1_5_pointwise/BatchNorm/FusedBatchNorm", "op": "BiasAdd", "input": ["Openpose/MConv_Stage1_L1_5_pointwise/Conv2D", "Openpose/MConv_Stage1_L1_5_pointwise/Conv2D_bn_offset"], "attr": {"data_format": {"s": "TkhXQw=="}, "T": {"type": "DT_FLOAT"}}}, {"name": "Openpose/MConv_Stage1_L2_5_pointwise/BatchNorm/FusedBatchNorm", "op": "BiasAdd", "input": ["Openpose/MConv_Stage1_L2_5_pointwise/Conv2D", "Openpose/MConv_Stage1_L2_5_pointwise/Conv2D_bn_offset"], "attr": {"data_format": {"s": "TkhXQw=="}, "T": {"type": "DT_FLOAT"}}}, {"name": "Openpose/MConv_Stage2_concat", "op": "ConcatV2", "input": ["Openpose/MConv_Stage1_L1_5_pointwise/BatchNorm/FusedBatchNorm", "Openpose/MConv_Stage1_L2_5_pointwise/BatchNorm/FusedBatchNorm", "feat_concat", "Openpose/MConv_Stage2_concat/axis"], "attr": {"Tidx": {"type": "DT_INT32"}, "T": {"type": "DT_FLOAT"}, "N": {"i": "3"}}}, {"name": "Openpose/MConv_Stage2_L1_1_depthwise/depthwise", "op": "DepthwiseConv2dNative", "input": ["Openpose/MConv_Stage2_concat", "Openpose/MConv_Stage2_L1_1_depthwise/depthwise_weights"], "attr": {"T": {"type": "DT_FLOAT"}, "data_format": {"s": "TkhXQw=="}, "strides": {"list": {"i": ["1", "1", "1", "1"]}}, "dilations": {"list": {"i": ["1", "1", "1", "1"]}}, "padding": {"s": "U0FNRQ=="}}}, {"name": "Openpose/MConv_Stage2_L2_1_depthwise/depthwise", "op": "DepthwiseConv2dNative", "input": ["Openpose/MConv_Stage2_concat", "Openpose/MConv_Stage2_L2_1_depthwise/depthwise_weights"], "attr": {"dilations": {"list": {"i": ["1", "1", "1", "1"]}}, "padding": {"s": "U0FNRQ=="}, "T": {"type": "DT_FLOAT"}, "data_format": {"s": "TkhXQw=="}, "strides": {"list": {"i": ["1", "1", "1", "1"]}}}}, {"name": "Openpose/MConv_Stage2_L1_1_pointwise/Conv2D", "op": "Conv2D", "input": ["Openpose/MConv_Stage2_L1_1_depthwise/depthwise", "Openpose/MConv_Stage2_L1_1_pointwise/weights"], "attr": {"padding": {"s": "U0FNRQ=="}, "dilations": {"list": {"i": ["1", "1", "1", "1"]}}, "T": {"type": "DT_FLOAT"}, "data_format": {"s": "TkhXQw=="}, "strides": {"list": {"i": ["1", "1", "1", "1"]}}, "use_cudnn_on_gpu": {"b": true}}}, {"name": "Openpose/MConv_Stage2_L2_1_pointwise/Conv2D", "op": "Conv2D", "input": ["Openpose/MConv_Stage2_L2_1_depthwise/depthwise", "Openpose/MConv_Stage2_L2_1_pointwise/weights"], "attr": {"use_cudnn_on_gpu": {"b": true}, "padding": {"s": "U0FNRQ=="}, "dilations": {"list": {"i": ["1", "1", "1", "1"]}}, "T": {"type": "DT_FLOAT"}, "strides": {"list": {"i": ["1", "1", "1", "1"]}}, "data_format": {"s": "TkhXQw=="}}}, {"name": "Openpose/MConv_Stage2_L1_1_pointwise/BatchNorm/FusedBatchNorm", "op": "BiasAdd", "input": ["Openpose/MConv_Stage2_L1_1_pointwise/Conv2D", "Openpose/MConv_Stage2_L1_1_pointwise/Conv2D_bn_offset"], "attr": {"T": {"type": "DT_FLOAT"}, "data_format": {"s": "TkhXQw=="}}}, {"name": "Openpose/MConv_Stage2_L2_1_pointwise/BatchNorm/FusedBatchNorm", "op": "BiasAdd", "input": ["Openpose/MConv_Stage2_L2_1_pointwise/Conv2D", "Openpose/MConv_Stage2_L2_1_pointwise/Conv2D_bn_offset"], "attr": {"T": {"type": "DT_FLOAT"}, "data_format": {"s": "TkhXQw=="}}}, {"name": "Openpose/MConv_Stage2_L1_1_pointwise/Relu", "op": "Relu", "input": ["Openpose/MConv_Stage2_L1_1_pointwise/BatchNorm/FusedBatchNorm"], "attr": {"T": {"type": "DT_FLOAT"}}}, {"name": "Openpose/MConv_Stage2_L2_1_pointwise/Relu", "op": "Relu", "input": ["Openpose/MConv_Stage2_L2_1_pointwise/BatchNorm/FusedBatchNorm"], "attr": {"T": {"type": "DT_FLOAT"}}}, {"name": "Openpose/MConv_Stage2_L1_2_depthwise/depthwise", "op": "DepthwiseConv2dNative", "input": ["Openpose/MConv_Stage2_L1_1_pointwise/Relu", "Openpose/MConv_Stage2_L1_2_depthwise/depthwise_weights"], "attr": {"data_format": {"s": "TkhXQw=="}, "strides": {"list": {"i": ["1", "1", "1", "1"]}}, "dilations": {"list": {"i": ["1", "1", "1", "1"]}}, "padding": {"s": "U0FNRQ=="}, "T": {"type": "DT_FLOAT"}}}, {"name": "Openpose/MConv_Stage2_L2_2_depthwise/depthwise", "op": "DepthwiseConv2dNative", "input": ["Openpose/MConv_Stage2_L2_1_pointwise/Relu", "Openpose/MConv_Stage2_L2_2_depthwise/depthwise_weights"], "attr": {"dilations": {"list": {"i": ["1", "1", "1", "1"]}}, "padding": {"s": "U0FNRQ=="}, "T": {"type": "DT_FLOAT"}, "data_format": {"s": "TkhXQw=="}, "strides": {"list": {"i": ["1", "1", "1", "1"]}}}}, {"name": "Openpose/MConv_Stage2_L1_2_pointwise/Conv2D", "op": "Conv2D", "input": ["Openpose/MConv_Stage2_L1_2_depthwise/depthwise", "Openpose/MConv_Stage2_L1_2_pointwise/weights"], "attr": {"padding": {"s": "U0FNRQ=="}, "dilations": {"list": {"i": ["1", "1", "1", "1"]}}, "T": {"type": "DT_FLOAT"}, "strides": {"list": {"i": ["1", "1", "1", "1"]}}, "data_format": {"s": "TkhXQw=="}, "use_cudnn_on_gpu": {"b": true}}}, {"name": "Openpose/MConv_Stage2_L2_2_pointwise/Conv2D", "op": "Conv2D", "input": ["Openpose/MConv_Stage2_L2_2_depthwise/depthwise", "Openpose/MConv_Stage2_L2_2_pointwise/weights"], "attr": {"strides": {"list": {"i": ["1", "1", "1", "1"]}}, "data_format": {"s": "TkhXQw=="}, "use_cudnn_on_gpu": {"b": true}, "padding": {"s": "U0FNRQ=="}, "dilations": {"list": {"i": ["1", "1", "1", "1"]}}, "T": {"type": "DT_FLOAT"}}}, {"name": "Openpose/MConv_Stage2_L1_2_pointwise/BatchNorm/FusedBatchNorm", "op": "BiasAdd", "input": ["Openpose/MConv_Stage2_L1_2_pointwise/Conv2D", "Openpose/MConv_Stage2_L1_2_pointwise/Conv2D_bn_offset"], "attr": {"data_format": {"s": "TkhXQw=="}, "T": {"type": "DT_FLOAT"}}}, {"name": "Openpose/MConv_Stage2_L2_2_pointwise/BatchNorm/FusedBatchNorm", "op": "BiasAdd", "input": ["Openpose/MConv_Stage2_L2_2_pointwise/Conv2D", "Openpose/MConv_Stage2_L2_2_pointwise/Conv2D_bn_offset"], "attr": {"T": {"type": "DT_FLOAT"}, "data_format": {"s": "TkhXQw=="}}}, {"name": "Openpose/MConv_Stage2_L1_2_pointwise/Relu", "op": "Relu", "input": ["Openpose/MConv_Stage2_L1_2_pointwise/BatchNorm/FusedBatchNorm"], "attr": {"T": {"type": "DT_FLOAT"}}}, {"name": "Openpose/MConv_Stage2_L2_2_pointwise/Relu", "op": "Relu", "input": ["Openpose/MConv_Stage2_L2_2_pointwise/BatchNorm/FusedBatchNorm"], "attr": {"T": {"type": "DT_FLOAT"}}}, {"name": "Openpose/MConv_Stage2_L1_3_depthwise/depthwise", "op": "DepthwiseConv2dNative", "input": ["Openpose/MConv_Stage2_L1_2_pointwise/Relu", "Openpose/MConv_Stage2_L1_3_depthwise/depthwise_weights"], "attr": {"data_format": {"s": "TkhXQw=="}, "strides": {"list": {"i": ["1", "1", "1", "1"]}}, "dilations": {"list": {"i": ["1", "1", "1", "1"]}}, "padding": {"s": "U0FNRQ=="}, "T": {"type": "DT_FLOAT"}}}, {"name": "Openpose/MConv_Stage2_L2_3_depthwise/depthwise", "op": "DepthwiseConv2dNative", "input": ["Openpose/MConv_Stage2_L2_2_pointwise/Relu", "Openpose/MConv_Stage2_L2_3_depthwise/depthwise_weights"], "attr": {"dilations": {"list": {"i": ["1", "1", "1", "1"]}}, "padding": {"s": "U0FNRQ=="}, "T": {"type": "DT_FLOAT"}, "data_format": {"s": "TkhXQw=="}, "strides": {"list": {"i": ["1", "1", "1", "1"]}}}}, {"name": "Openpose/MConv_Stage2_L1_3_pointwise/Conv2D", "op": "Conv2D", "input": ["Openpose/MConv_Stage2_L1_3_depthwise/depthwise", "Openpose/MConv_Stage2_L1_3_pointwise/weights"], "attr": {"dilations": {"list": {"i": ["1", "1", "1", "1"]}}, "T": {"type": "DT_FLOAT"}, "strides": {"list": {"i": ["1", "1", "1", "1"]}}, "data_format": {"s": "TkhXQw=="}, "use_cudnn_on_gpu": {"b": true}, "padding": {"s": "U0FNRQ=="}}}, {"name": "Openpose/MConv_Stage2_L2_3_pointwise/Conv2D", "op": "Conv2D", "input": ["Openpose/MConv_Stage2_L2_3_depthwise/depthwise", "Openpose/MConv_Stage2_L2_3_pointwise/weights"], "attr": {"padding": {"s": "U0FNRQ=="}, "dilations": {"list": {"i": ["1", "1", "1", "1"]}}, "T": {"type": "DT_FLOAT"}, "data_format": {"s": "TkhXQw=="}, "strides": {"list": {"i": ["1", "1", "1", "1"]}}, "use_cudnn_on_gpu": {"b": true}}}, {"name": "Openpose/MConv_Stage2_L1_3_pointwise/BatchNorm/FusedBatchNorm", "op": "BiasAdd", "input": ["Openpose/MConv_Stage2_L1_3_pointwise/Conv2D", "Openpose/MConv_Stage2_L1_3_pointwise/Conv2D_bn_offset"], "attr": {"T": {"type": "DT_FLOAT"}, "data_format": {"s": "TkhXQw=="}}}, {"name": "Openpose/MConv_Stage2_L2_3_pointwise/BatchNorm/FusedBatchNorm", "op": "BiasAdd", "input": ["Openpose/MConv_Stage2_L2_3_pointwise/Conv2D", "Openpose/MConv_Stage2_L2_3_pointwise/Conv2D_bn_offset"], "attr": {"T": {"type": "DT_FLOAT"}, "data_format": {"s": "TkhXQw=="}}}, {"name": "Openpose/MConv_Stage2_L1_3_pointwise/Relu", "op": "Relu", "input": ["Openpose/MConv_Stage2_L1_3_pointwise/BatchNorm/FusedBatchNorm"], "attr": {"T": {"type": "DT_FLOAT"}}}, {"name": "Openpose/MConv_Stage2_L2_3_pointwise/Relu", "op": "Relu", "input": ["Openpose/MConv_Stage2_L2_3_pointwise/BatchNorm/FusedBatchNorm"], "attr": {"T": {"type": "DT_FLOAT"}}}, {"name": "Openpose/MConv_Stage2_L1_4_depthwise/depthwise", "op": "DepthwiseConv2dNative", "input": ["Openpose/MConv_Stage2_L1_3_pointwise/Relu", "Openpose/MConv_Stage2_L1_4_depthwise/depthwise_weights"], "attr": {"dilations": {"list": {"i": ["1", "1", "1", "1"]}}, "padding": {"s": "U0FNRQ=="}, "T": {"type": "DT_FLOAT"}, "data_format": {"s": "TkhXQw=="}, "strides": {"list": {"i": ["1", "1", "1", "1"]}}}}, {"name": "Openpose/MConv_Stage2_L2_4_depthwise/depthwise", "op": "DepthwiseConv2dNative", "input": ["Openpose/MConv_Stage2_L2_3_pointwise/Relu", "Openpose/MConv_Stage2_L2_4_depthwise/depthwise_weights"], "attr": {"dilations": {"list": {"i": ["1", "1", "1", "1"]}}, "padding": {"s": "U0FNRQ=="}, "T": {"type": "DT_FLOAT"}, "data_format": {"s": "TkhXQw=="}, "strides": {"list": {"i": ["1", "1", "1", "1"]}}}}, {"name": "Openpose/MConv_Stage2_L1_4_pointwise/Conv2D", "op": "Conv2D", "input": ["Openpose/MConv_Stage2_L1_4_depthwise/depthwise", "Openpose/MConv_Stage2_L1_4_pointwise/weights"], "attr": {"dilations": {"list": {"i": ["1", "1", "1", "1"]}}, "T": {"type": "DT_FLOAT"}, "strides": {"list": {"i": ["1", "1", "1", "1"]}}, "data_format": {"s": "TkhXQw=="}, "use_cudnn_on_gpu": {"b": true}, "padding": {"s": "U0FNRQ=="}}}, {"name": "Openpose/MConv_Stage2_L2_4_pointwise/Conv2D", "op": "Conv2D", "input": ["Openpose/MConv_Stage2_L2_4_depthwise/depthwise", "Openpose/MConv_Stage2_L2_4_pointwise/weights"], "attr": {"dilations": {"list": {"i": ["1", "1", "1", "1"]}}, "T": {"type": "DT_FLOAT"}, "strides": {"list": {"i": ["1", "1", "1", "1"]}}, "data_format": {"s": "TkhXQw=="}, "use_cudnn_on_gpu": {"b": true}, "padding": {"s": "U0FNRQ=="}}}, {"name": "Openpose/MConv_Stage2_L1_4_pointwise/BatchNorm/FusedBatchNorm", "op": "BiasAdd", "input": ["Openpose/MConv_Stage2_L1_4_pointwise/Conv2D", "Openpose/MConv_Stage2_L1_4_pointwise/Conv2D_bn_offset"], "attr": {"T": {"type": "DT_FLOAT"}, "data_format": {"s": "TkhXQw=="}}}, {"name": "Openpose/MConv_Stage2_L2_4_pointwise/BatchNorm/FusedBatchNorm", "op": "BiasAdd", "input": ["Openpose/MConv_Stage2_L2_4_pointwise/Conv2D", "Openpose/MConv_Stage2_L2_4_pointwise/Conv2D_bn_offset"], "attr": {"T": {"type": "DT_FLOAT"}, "data_format": {"s": "TkhXQw=="}}}, {"name": "Openpose/MConv_Stage2_L1_4_pointwise/Relu", "op": "Relu", "input": ["Openpose/MConv_Stage2_L1_4_pointwise/BatchNorm/FusedBatchNorm"], "attr": {"T": {"type": "DT_FLOAT"}}}, {"name": "Openpose/MConv_Stage2_L2_4_pointwise/Relu", "op": "Relu", "input": ["Openpose/MConv_Stage2_L2_4_pointwise/BatchNorm/FusedBatchNorm"], "attr": {"T": {"type": "DT_FLOAT"}}}, {"name": "Openpose/MConv_Stage2_L1_5_depthwise/depthwise", "op": "DepthwiseConv2dNative", "input": ["Openpose/MConv_Stage2_L1_4_pointwise/Relu", "Openpose/MConv_Stage2_L1_5_depthwise/depthwise_weights"], "attr": {"dilations": {"list": {"i": ["1", "1", "1", "1"]}}, "padding": {"s": "U0FNRQ=="}, "T": {"type": "DT_FLOAT"}, "data_format": {"s": "TkhXQw=="}, "strides": {"list": {"i": ["1", "1", "1", "1"]}}}}, {"name": "Openpose/MConv_Stage2_L2_5_depthwise/depthwise", "op": "DepthwiseConv2dNative", "input": ["Openpose/MConv_Stage2_L2_4_pointwise/Relu", "Openpose/MConv_Stage2_L2_5_depthwise/depthwise_weights"], "attr": {"data_format": {"s": "TkhXQw=="}, "strides": {"list": {"i": ["1", "1", "1", "1"]}}, "dilations": {"list": {"i": ["1", "1", "1", "1"]}}, "padding": {"s": "U0FNRQ=="}, "T": {"type": "DT_FLOAT"}}}, {"name": "Openpose/MConv_Stage2_L1_5_pointwise/Conv2D", "op": "Conv2D", "input": ["Openpose/MConv_Stage2_L1_5_depthwise/depthwise", "Openpose/MConv_Stage2_L1_5_pointwise/weights"], "attr": {"dilations": {"list": {"i": ["1", "1", "1", "1"]}}, "T": {"type": "DT_FLOAT"}, "data_format": {"s": "TkhXQw=="}, "strides": {"list": {"i": ["1", "1", "1", "1"]}}, "use_cudnn_on_gpu": {"b": true}, "padding": {"s": "U0FNRQ=="}}}, {"name": "Openpose/MConv_Stage2_L2_5_pointwise/Conv2D", "op": "Conv2D", "input": ["Openpose/MConv_Stage2_L2_5_depthwise/depthwise", "Openpose/MConv_Stage2_L2_5_pointwise/weights"], "attr": {"dilations": {"list": {"i": ["1", "1", "1", "1"]}}, "T": {"type": "DT_FLOAT"}, "data_format": {"s": "TkhXQw=="}, "strides": {"list": {"i": ["1", "1", "1", "1"]}}, "use_cudnn_on_gpu": {"b": true}, "padding": {"s": "U0FNRQ=="}}}, {"name": "Openpose/MConv_Stage2_L1_5_pointwise/BatchNorm/FusedBatchNorm", "op": "BiasAdd", "input": ["Openpose/MConv_Stage2_L1_5_pointwise/Conv2D", "Openpose/MConv_Stage2_L1_5_pointwise/Conv2D_bn_offset"], "attr": {"T": {"type": "DT_FLOAT"}, "data_format": {"s": "TkhXQw=="}}}, {"name": "Openpose/MConv_Stage2_L2_5_pointwise/BatchNorm/FusedBatchNorm", "op": "BiasAdd", "input": ["Openpose/MConv_Stage2_L2_5_pointwise/Conv2D", "Openpose/MConv_Stage2_L2_5_pointwise/Conv2D_bn_offset"], "attr": {"data_format": {"s": "TkhXQw=="}, "T": {"type": "DT_FLOAT"}}}, {"name": "Openpose/MConv_Stage3_concat", "op": "ConcatV2", "input": ["Openpose/MConv_Stage2_L1_5_pointwise/BatchNorm/FusedBatchNorm", "Openpose/MConv_Stage2_L2_5_pointwise/BatchNorm/FusedBatchNorm", "feat_concat", "Openpose/MConv_Stage2_concat/axis"], "attr": {"Tidx": {"type": "DT_INT32"}, "T": {"type": "DT_FLOAT"}, "N": {"i": "3"}}}, {"name": "Openpose/MConv_Stage3_L1_1_depthwise/depthwise", "op": "DepthwiseConv2dNative", "input": ["Openpose/MConv_Stage3_concat", "Openpose/MConv_Stage3_L1_1_depthwise/depthwise_weights"], "attr": {"data_format": {"s": "TkhXQw=="}, "strides": {"list": {"i": ["1", "1", "1", "1"]}}, "dilations": {"list": {"i": ["1", "1", "1", "1"]}}, "padding": {"s": "U0FNRQ=="}, "T": {"type": "DT_FLOAT"}}}, {"name": "Openpose/MConv_Stage3_L2_1_depthwise/depthwise", "op": "DepthwiseConv2dNative", "input": ["Openpose/MConv_Stage3_concat", "Openpose/MConv_Stage3_L2_1_depthwise/depthwise_weights"], "attr": {"dilations": {"list": {"i": ["1", "1", "1", "1"]}}, "padding": {"s": "U0FNRQ=="}, "T": {"type": "DT_FLOAT"}, "data_format": {"s": "TkhXQw=="}, "strides": {"list": {"i": ["1", "1", "1", "1"]}}}}, {"name": "Openpose/MConv_Stage3_L1_1_pointwise/Conv2D", "op": "Conv2D", "input": ["Openpose/MConv_Stage3_L1_1_depthwise/depthwise", "Openpose/MConv_Stage3_L1_1_pointwise/weights"], "attr": {"dilations": {"list": {"i": ["1", "1", "1", "1"]}}, "T": {"type": "DT_FLOAT"}, "strides": {"list": {"i": ["1", "1", "1", "1"]}}, "data_format": {"s": "TkhXQw=="}, "use_cudnn_on_gpu": {"b": true}, "padding": {"s": "U0FNRQ=="}}}, {"name": "Openpose/MConv_Stage3_L2_1_pointwise/Conv2D", "op": "Conv2D", "input": ["Openpose/MConv_Stage3_L2_1_depthwise/depthwise", "Openpose/MConv_Stage3_L2_1_pointwise/weights"], "attr": {"dilations": {"list": {"i": ["1", "1", "1", "1"]}}, "T": {"type": "DT_FLOAT"}, "data_format": {"s": "TkhXQw=="}, "strides": {"list": {"i": ["1", "1", "1", "1"]}}, "use_cudnn_on_gpu": {"b": true}, "padding": {"s": "U0FNRQ=="}}}, {"name": "Openpose/MConv_Stage3_L1_1_pointwise/BatchNorm/FusedBatchNorm", "op": "BiasAdd", "input": ["Openpose/MConv_Stage3_L1_1_pointwise/Conv2D", "Openpose/MConv_Stage3_L1_1_pointwise/Conv2D_bn_offset"], "attr": {"data_format": {"s": "TkhXQw=="}, "T": {"type": "DT_FLOAT"}}}, {"name": "Openpose/MConv_Stage3_L2_1_pointwise/BatchNorm/FusedBatchNorm", "op": "BiasAdd", "input": ["Openpose/MConv_Stage3_L2_1_pointwise/Conv2D", "Openpose/MConv_Stage3_L2_1_pointwise/Conv2D_bn_offset"], "attr": {"data_format": {"s": "TkhXQw=="}, "T": {"type": "DT_FLOAT"}}}, {"name": "Openpose/MConv_Stage3_L1_1_pointwise/Relu", "op": "Relu", "input": ["Openpose/MConv_Stage3_L1_1_pointwise/BatchNorm/FusedBatchNorm"], "attr": {"T": {"type": "DT_FLOAT"}}}, {"name": "Openpose/MConv_Stage3_L2_1_pointwise/Relu", "op": "Relu", "input": ["Openpose/MConv_Stage3_L2_1_pointwise/BatchNorm/FusedBatchNorm"], "attr": {"T": {"type": "DT_FLOAT"}}}, {"name": "Openpose/MConv_Stage3_L1_2_depthwise/depthwise", "op": "DepthwiseConv2dNative", "input": ["Openpose/MConv_Stage3_L1_1_pointwise/Relu", "Openpose/MConv_Stage3_L1_2_depthwise/depthwise_weights"], "attr": {"dilations": {"list": {"i": ["1", "1", "1", "1"]}}, "padding": {"s": "U0FNRQ=="}, "T": {"type": "DT_FLOAT"}, "data_format": {"s": "TkhXQw=="}, "strides": {"list": {"i": ["1", "1", "1", "1"]}}}}, {"name": "Openpose/MConv_Stage3_L2_2_depthwise/depthwise", "op": "DepthwiseConv2dNative", "input": ["Openpose/MConv_Stage3_L2_1_pointwise/Relu", "Openpose/MConv_Stage3_L2_2_depthwise/depthwise_weights"], "attr": {"dilations": {"list": {"i": ["1", "1", "1", "1"]}}, "padding": {"s": "U0FNRQ=="}, "T": {"type": "DT_FLOAT"}, "data_format": {"s": "TkhXQw=="}, "strides": {"list": {"i": ["1", "1", "1", "1"]}}}}, {"name": "Openpose/MConv_Stage3_L1_2_pointwise/Conv2D", "op": "Conv2D", "input": ["Openpose/MConv_Stage3_L1_2_depthwise/depthwise", "Openpose/MConv_Stage3_L1_2_pointwise/weights"], "attr": {"dilations": {"list": {"i": ["1", "1", "1", "1"]}}, "T": {"type": "DT_FLOAT"}, "data_format": {"s": "TkhXQw=="}, "strides": {"list": {"i": ["1", "1", "1", "1"]}}, "use_cudnn_on_gpu": {"b": true}, "padding": {"s": "U0FNRQ=="}}}, {"name": "Openpose/MConv_Stage3_L2_2_pointwise/Conv2D", "op": "Conv2D", "input": ["Openpose/MConv_Stage3_L2_2_depthwise/depthwise", "Openpose/MConv_Stage3_L2_2_pointwise/weights"], "attr": {"dilations": {"list": {"i": ["1", "1", "1", "1"]}}, "T": {"type": "DT_FLOAT"}, "strides": {"list": {"i": ["1", "1", "1", "1"]}}, "data_format": {"s": "TkhXQw=="}, "use_cudnn_on_gpu": {"b": true}, "padding": {"s": "U0FNRQ=="}}}, {"name": "Openpose/MConv_Stage3_L1_2_pointwise/BatchNorm/FusedBatchNorm", "op": "BiasAdd", "input": ["Openpose/MConv_Stage3_L1_2_pointwise/Conv2D", "Openpose/MConv_Stage3_L1_2_pointwise/Conv2D_bn_offset"], "attr": {"T": {"type": "DT_FLOAT"}, "data_format": {"s": "TkhXQw=="}}}, {"name": "Openpose/MConv_Stage3_L2_2_pointwise/BatchNorm/FusedBatchNorm", "op": "BiasAdd", "input": ["Openpose/MConv_Stage3_L2_2_pointwise/Conv2D", "Openpose/MConv_Stage3_L2_2_pointwise/Conv2D_bn_offset"], "attr": {"T": {"type": "DT_FLOAT"}, "data_format": {"s": "TkhXQw=="}}}, {"name": "Openpose/MConv_Stage3_L1_2_pointwise/Relu", "op": "Relu", "input": ["Openpose/MConv_Stage3_L1_2_pointwise/BatchNorm/FusedBatchNorm"], "attr": {"T": {"type": "DT_FLOAT"}}}, {"name": "Openpose/MConv_Stage3_L2_2_pointwise/Relu", "op": "Relu", "input": ["Openpose/MConv_Stage3_L2_2_pointwise/BatchNorm/FusedBatchNorm"], "attr": {"T": {"type": "DT_FLOAT"}}}, {"name": "Openpose/MConv_Stage3_L1_3_depthwise/depthwise", "op": "DepthwiseConv2dNative", "input": ["Openpose/MConv_Stage3_L1_2_pointwise/Relu", "Openpose/MConv_Stage3_L1_3_depthwise/depthwise_weights"], "attr": {"dilations": {"list": {"i": ["1", "1", "1", "1"]}}, "padding": {"s": "U0FNRQ=="}, "T": {"type": "DT_FLOAT"}, "data_format": {"s": "TkhXQw=="}, "strides": {"list": {"i": ["1", "1", "1", "1"]}}}}, {"name": "Openpose/MConv_Stage3_L2_3_depthwise/depthwise", "op": "DepthwiseConv2dNative", "input": ["Openpose/MConv_Stage3_L2_2_pointwise/Relu", "Openpose/MConv_Stage3_L2_3_depthwise/depthwise_weights"], "attr": {"dilations": {"list": {"i": ["1", "1", "1", "1"]}}, "padding": {"s": "U0FNRQ=="}, "T": {"type": "DT_FLOAT"}, "data_format": {"s": "TkhXQw=="}, "strides": {"list": {"i": ["1", "1", "1", "1"]}}}}, {"name": "Openpose/MConv_Stage3_L1_3_pointwise/Conv2D", "op": "Conv2D", "input": ["Openpose/MConv_Stage3_L1_3_depthwise/depthwise", "Openpose/MConv_Stage3_L1_3_pointwise/weights"], "attr": {"padding": {"s": "U0FNRQ=="}, "dilations": {"list": {"i": ["1", "1", "1", "1"]}}, "T": {"type": "DT_FLOAT"}, "data_format": {"s": "TkhXQw=="}, "strides": {"list": {"i": ["1", "1", "1", "1"]}}, "use_cudnn_on_gpu": {"b": true}}}, {"name": "Openpose/MConv_Stage3_L2_3_pointwise/Conv2D", "op": "Conv2D", "input": ["Openpose/MConv_Stage3_L2_3_depthwise/depthwise", "Openpose/MConv_Stage3_L2_3_pointwise/weights"], "attr": {"dilations": {"list": {"i": ["1", "1", "1", "1"]}}, "T": {"type": "DT_FLOAT"}, "strides": {"list": {"i": ["1", "1", "1", "1"]}}, "data_format": {"s": "TkhXQw=="}, "use_cudnn_on_gpu": {"b": true}, "padding": {"s": "U0FNRQ=="}}}, {"name": "Openpose/MConv_Stage3_L1_3_pointwise/BatchNorm/FusedBatchNorm", "op": "BiasAdd", "input": ["Openpose/MConv_Stage3_L1_3_pointwise/Conv2D", "Openpose/MConv_Stage3_L1_3_pointwise/Conv2D_bn_offset"], "attr": {"data_format": {"s": "TkhXQw=="}, "T": {"type": "DT_FLOAT"}}}, {"name": "Openpose/MConv_Stage3_L2_3_pointwise/BatchNorm/FusedBatchNorm", "op": "BiasAdd", "input": ["Openpose/MConv_Stage3_L2_3_pointwise/Conv2D", "Openpose/MConv_Stage3_L2_3_pointwise/Conv2D_bn_offset"], "attr": {"T": {"type": "DT_FLOAT"}, "data_format": {"s": "TkhXQw=="}}}, {"name": "Openpose/MConv_Stage3_L1_3_pointwise/Relu", "op": "Relu", "input": ["Openpose/MConv_Stage3_L1_3_pointwise/BatchNorm/FusedBatchNorm"], "attr": {"T": {"type": "DT_FLOAT"}}}, {"name": "Openpose/MConv_Stage3_L2_3_pointwise/Relu", "op": "Relu", "input": ["Openpose/MConv_Stage3_L2_3_pointwise/BatchNorm/FusedBatchNorm"], "attr": {"T": {"type": "DT_FLOAT"}}}, {"name": "Openpose/MConv_Stage3_L1_4_depthwise/depthwise", "op": "DepthwiseConv2dNative", "input": ["Openpose/MConv_Stage3_L1_3_pointwise/Relu", "Openpose/MConv_Stage3_L1_4_depthwise/depthwise_weights"], "attr": {"data_format": {"s": "TkhXQw=="}, "strides": {"list": {"i": ["1", "1", "1", "1"]}}, "dilations": {"list": {"i": ["1", "1", "1", "1"]}}, "padding": {"s": "U0FNRQ=="}, "T": {"type": "DT_FLOAT"}}}, {"name": "Openpose/MConv_Stage3_L2_4_depthwise/depthwise", "op": "DepthwiseConv2dNative", "input": ["Openpose/MConv_Stage3_L2_3_pointwise/Relu", "Openpose/MConv_Stage3_L2_4_depthwise/depthwise_weights"], "attr": {"dilations": {"list": {"i": ["1", "1", "1", "1"]}}, "padding": {"s": "U0FNRQ=="}, "T": {"type": "DT_FLOAT"}, "data_format": {"s": "TkhXQw=="}, "strides": {"list": {"i": ["1", "1", "1", "1"]}}}}, {"name": "Openpose/MConv_Stage3_L1_4_pointwise/Conv2D", "op": "Conv2D", "input": ["Openpose/MConv_Stage3_L1_4_depthwise/depthwise", "Openpose/MConv_Stage3_L1_4_pointwise/weights"], "attr": {"use_cudnn_on_gpu": {"b": true}, "padding": {"s": "U0FNRQ=="}, "dilations": {"list": {"i": ["1", "1", "1", "1"]}}, "T": {"type": "DT_FLOAT"}, "data_format": {"s": "TkhXQw=="}, "strides": {"list": {"i": ["1", "1", "1", "1"]}}}}, {"name": "Openpose/MConv_Stage3_L2_4_pointwise/Conv2D", "op": "Conv2D", "input": ["Openpose/MConv_Stage3_L2_4_depthwise/depthwise", "Openpose/MConv_Stage3_L2_4_pointwise/weights"], "attr": {"dilations": {"list": {"i": ["1", "1", "1", "1"]}}, "T": {"type": "DT_FLOAT"}, "strides": {"list": {"i": ["1", "1", "1", "1"]}}, "data_format": {"s": "TkhXQw=="}, "use_cudnn_on_gpu": {"b": true}, "padding": {"s": "U0FNRQ=="}}}, {"name": "Openpose/MConv_Stage3_L1_4_pointwise/BatchNorm/FusedBatchNorm", "op": "BiasAdd", "input": ["Openpose/MConv_Stage3_L1_4_pointwise/Conv2D", "Openpose/MConv_Stage3_L1_4_pointwise/Conv2D_bn_offset"], "attr": {"T": {"type": "DT_FLOAT"}, "data_format": {"s": "TkhXQw=="}}}, {"name": "Openpose/MConv_Stage3_L2_4_pointwise/BatchNorm/FusedBatchNorm", "op": "BiasAdd", "input": ["Openpose/MConv_Stage3_L2_4_pointwise/Conv2D", "Openpose/MConv_Stage3_L2_4_pointwise/Conv2D_bn_offset"], "attr": {"T": {"type": "DT_FLOAT"}, "data_format": {"s": "TkhXQw=="}}}, {"name": "Openpose/MConv_Stage3_L1_4_pointwise/Relu", "op": "Relu", "input": ["Openpose/MConv_Stage3_L1_4_pointwise/BatchNorm/FusedBatchNorm"], "attr": {"T": {"type": "DT_FLOAT"}}}, {"name": "Openpose/MConv_Stage3_L2_4_pointwise/Relu", "op": "Relu", "input": ["Openpose/MConv_Stage3_L2_4_pointwise/BatchNorm/FusedBatchNorm"], "attr": {"T": {"type": "DT_FLOAT"}}}, {"name": "Openpose/MConv_Stage3_L1_5_depthwise/depthwise", "op": "DepthwiseConv2dNative", "input": ["Openpose/MConv_Stage3_L1_4_pointwise/Relu", "Openpose/MConv_Stage3_L1_5_depthwise/depthwise_weights"], "attr": {"dilations": {"list": {"i": ["1", "1", "1", "1"]}}, "padding": {"s": "U0FNRQ=="}, "T": {"type": "DT_FLOAT"}, "data_format": {"s": "TkhXQw=="}, "strides": {"list": {"i": ["1", "1", "1", "1"]}}}}, {"name": "Openpose/MConv_Stage3_L2_5_depthwise/depthwise", "op": "DepthwiseConv2dNative", "input": ["Openpose/MConv_Stage3_L2_4_pointwise/Relu", "Openpose/MConv_Stage3_L2_5_depthwise/depthwise_weights"], "attr": {"data_format": {"s": "TkhXQw=="}, "strides": {"list": {"i": ["1", "1", "1", "1"]}}, "dilations": {"list": {"i": ["1", "1", "1", "1"]}}, "padding": {"s": "U0FNRQ=="}, "T": {"type": "DT_FLOAT"}}}, {"name": "Openpose/MConv_Stage3_L1_5_pointwise/Conv2D", "op": "Conv2D", "input": ["Openpose/MConv_Stage3_L1_5_depthwise/depthwise", "Openpose/MConv_Stage3_L1_5_pointwise/weights"], "attr": {"dilations": {"list": {"i": ["1", "1", "1", "1"]}}, "T": {"type": "DT_FLOAT"}, "data_format": {"s": "TkhXQw=="}, "strides": {"list": {"i": ["1", "1", "1", "1"]}}, "use_cudnn_on_gpu": {"b": true}, "padding": {"s": "U0FNRQ=="}}}, {"name": "Openpose/MConv_Stage3_L2_5_pointwise/Conv2D", "op": "Conv2D", "input": ["Openpose/MConv_Stage3_L2_5_depthwise/depthwise", "Openpose/MConv_Stage3_L2_5_pointwise/weights"], "attr": {"dilations": {"list": {"i": ["1", "1", "1", "1"]}}, "T": {"type": "DT_FLOAT"}, "data_format": {"s": "TkhXQw=="}, "strides": {"list": {"i": ["1", "1", "1", "1"]}}, "use_cudnn_on_gpu": {"b": true}, "padding": {"s": "U0FNRQ=="}}}, {"name": "Openpose/MConv_Stage3_L1_5_pointwise/BatchNorm/FusedBatchNorm", "op": "BiasAdd", "input": ["Openpose/MConv_Stage3_L1_5_pointwise/Conv2D", "Openpose/MConv_Stage3_L1_5_pointwise/Conv2D_bn_offset"], "attr": {"data_format": {"s": "TkhXQw=="}, "T": {"type": "DT_FLOAT"}}}, {"name": "Openpose/MConv_Stage3_L2_5_pointwise/BatchNorm/FusedBatchNorm", "op": "BiasAdd", "input": ["Openpose/MConv_Stage3_L2_5_pointwise/Conv2D", "Openpose/MConv_Stage3_L2_5_pointwise/Conv2D_bn_offset"], "attr": {"T": {"type": "DT_FLOAT"}, "data_format": {"s": "TkhXQw=="}}}, {"name": "Openpose/MConv_Stage4_concat", "op": "ConcatV2", "input": ["Openpose/MConv_Stage3_L1_5_pointwise/BatchNorm/FusedBatchNorm", "Openpose/MConv_Stage3_L2_5_pointwise/BatchNorm/FusedBatchNorm", "feat_concat", "Openpose/MConv_Stage2_concat/axis"], "attr": {"N": {"i": "3"}, "Tidx": {"type": "DT_INT32"}, "T": {"type": "DT_FLOAT"}}}, {"name": "Openpose/MConv_Stage4_L1_1_depthwise/depthwise", "op": "DepthwiseConv2dNative", "input": ["Openpose/MConv_Stage4_concat", "Openpose/MConv_Stage4_L1_1_depthwise/depthwise_weights"], "attr": {"dilations": {"list": {"i": ["1", "1", "1", "1"]}}, "padding": {"s": "U0FNRQ=="}, "T": {"type": "DT_FLOAT"}, "data_format": {"s": "TkhXQw=="}, "strides": {"list": {"i": ["1", "1", "1", "1"]}}}}, {"name": "Openpose/MConv_Stage4_L2_1_depthwise/depthwise", "op": "DepthwiseConv2dNative", "input": ["Openpose/MConv_Stage4_concat", "Openpose/MConv_Stage4_L2_1_depthwise/depthwise_weights"], "attr": {"dilations": {"list": {"i": ["1", "1", "1", "1"]}}, "padding": {"s": "U0FNRQ=="}, "T": {"type": "DT_FLOAT"}, "data_format": {"s": "TkhXQw=="}, "strides": {"list": {"i": ["1", "1", "1", "1"]}}}}, {"name": "Openpose/MConv_Stage4_L1_1_pointwise/Conv2D", "op": "Conv2D", "input": ["Openpose/MConv_Stage4_L1_1_depthwise/depthwise", "Openpose/MConv_Stage4_L1_1_pointwise/weights"], "attr": {"strides": {"list": {"i": ["1", "1", "1", "1"]}}, "data_format": {"s": "TkhXQw=="}, "use_cudnn_on_gpu": {"b": true}, "padding": {"s": "U0FNRQ=="}, "dilations": {"list": {"i": ["1", "1", "1", "1"]}}, "T": {"type": "DT_FLOAT"}}}, {"name": "Openpose/MConv_Stage4_L2_1_pointwise/Conv2D", "op": "Conv2D", "input": ["Openpose/MConv_Stage4_L2_1_depthwise/depthwise", "Openpose/MConv_Stage4_L2_1_pointwise/weights"], "attr": {"use_cudnn_on_gpu": {"b": true}, "padding": {"s": "U0FNRQ=="}, "dilations": {"list": {"i": ["1", "1", "1", "1"]}}, "T": {"type": "DT_FLOAT"}, "strides": {"list": {"i": ["1", "1", "1", "1"]}}, "data_format": {"s": "TkhXQw=="}}}, {"name": "Openpose/MConv_Stage4_L1_1_pointwise/BatchNorm/FusedBatchNorm", "op": "BiasAdd", "input": ["Openpose/MConv_Stage4_L1_1_pointwise/Conv2D", "Openpose/MConv_Stage4_L1_1_pointwise/Conv2D_bn_offset"], "attr": {"data_format": {"s": "TkhXQw=="}, "T": {"type": "DT_FLOAT"}}}, {"name": "Openpose/MConv_Stage4_L2_1_pointwise/BatchNorm/FusedBatchNorm", "op": "BiasAdd", "input": ["Openpose/MConv_Stage4_L2_1_pointwise/Conv2D", "Openpose/MConv_Stage4_L2_1_pointwise/Conv2D_bn_offset"], "attr": {"T": {"type": "DT_FLOAT"}, "data_format": {"s": "TkhXQw=="}}}, {"name": "Openpose/MConv_Stage4_L1_1_pointwise/Relu", "op": "Relu", "input": ["Openpose/MConv_Stage4_L1_1_pointwise/BatchNorm/FusedBatchNorm"], "attr": {"T": {"type": "DT_FLOAT"}}}, {"name": "Openpose/MConv_Stage4_L2_1_pointwise/Relu", "op": "Relu", "input": ["Openpose/MConv_Stage4_L2_1_pointwise/BatchNorm/FusedBatchNorm"], "attr": {"T": {"type": "DT_FLOAT"}}}, {"name": "Openpose/MConv_Stage4_L1_2_depthwise/depthwise", "op": "DepthwiseConv2dNative", "input": ["Openpose/MConv_Stage4_L1_1_pointwise/Relu", "Openpose/MConv_Stage4_L1_2_depthwise/depthwise_weights"], "attr": {"dilations": {"list": {"i": ["1", "1", "1", "1"]}}, "padding": {"s": "U0FNRQ=="}, "T": {"type": "DT_FLOAT"}, "data_format": {"s": "TkhXQw=="}, "strides": {"list": {"i": ["1", "1", "1", "1"]}}}}, {"name": "Openpose/MConv_Stage4_L2_2_depthwise/depthwise", "op": "DepthwiseConv2dNative", "input": ["Openpose/MConv_Stage4_L2_1_pointwise/Relu", "Openpose/MConv_Stage4_L2_2_depthwise/depthwise_weights"], "attr": {"T": {"type": "DT_FLOAT"}, "data_format": {"s": "TkhXQw=="}, "strides": {"list": {"i": ["1", "1", "1", "1"]}}, "dilations": {"list": {"i": ["1", "1", "1", "1"]}}, "padding": {"s": "U0FNRQ=="}}}, {"name": "Openpose/MConv_Stage4_L1_2_pointwise/Conv2D", "op": "Conv2D", "input": ["Openpose/MConv_Stage4_L1_2_depthwise/depthwise", "Openpose/MConv_Stage4_L1_2_pointwise/weights"], "attr": {"padding": {"s": "U0FNRQ=="}, "dilations": {"list": {"i": ["1", "1", "1", "1"]}}, "T": {"type": "DT_FLOAT"}, "data_format": {"s": "TkhXQw=="}, "strides": {"list": {"i": ["1", "1", "1", "1"]}}, "use_cudnn_on_gpu": {"b": true}}}, {"name": "Openpose/MConv_Stage4_L2_2_pointwise/Conv2D", "op": "Conv2D", "input": ["Openpose/MConv_Stage4_L2_2_depthwise/depthwise", "Openpose/MConv_Stage4_L2_2_pointwise/weights"], "attr": {"dilations": {"list": {"i": ["1", "1", "1", "1"]}}, "T": {"type": "DT_FLOAT"}, "data_format": {"s": "TkhXQw=="}, "strides": {"list": {"i": ["1", "1", "1", "1"]}}, "use_cudnn_on_gpu": {"b": true}, "padding": {"s": "U0FNRQ=="}}}, {"name": "Openpose/MConv_Stage4_L1_2_pointwise/BatchNorm/FusedBatchNorm", "op": "BiasAdd", "input": ["Openpose/MConv_Stage4_L1_2_pointwise/Conv2D", "Openpose/MConv_Stage4_L1_2_pointwise/Conv2D_bn_offset"], "attr": {"T": {"type": "DT_FLOAT"}, "data_format": {"s": "TkhXQw=="}}}, {"name": "Openpose/MConv_Stage4_L2_2_pointwise/BatchNorm/FusedBatchNorm", "op": "BiasAdd", "input": ["Openpose/MConv_Stage4_L2_2_pointwise/Conv2D", "Openpose/MConv_Stage4_L2_2_pointwise/Conv2D_bn_offset"], "attr": {"T": {"type": "DT_FLOAT"}, "data_format": {"s": "TkhXQw=="}}}, {"name": "Openpose/MConv_Stage4_L1_2_pointwise/Relu", "op": "Relu", "input": ["Openpose/MConv_Stage4_L1_2_pointwise/BatchNorm/FusedBatchNorm"], "attr": {"T": {"type": "DT_FLOAT"}}}, {"name": "Openpose/MConv_Stage4_L2_2_pointwise/Relu", "op": "Relu", "input": ["Openpose/MConv_Stage4_L2_2_pointwise/BatchNorm/FusedBatchNorm"], "attr": {"T": {"type": "DT_FLOAT"}}}, {"name": "Openpose/MConv_Stage4_L1_3_depthwise/depthwise", "op": "DepthwiseConv2dNative", "input": ["Openpose/MConv_Stage4_L1_2_pointwise/Relu", "Openpose/MConv_Stage4_L1_3_depthwise/depthwise_weights"], "attr": {"dilations": {"list": {"i": ["1", "1", "1", "1"]}}, "padding": {"s": "U0FNRQ=="}, "T": {"type": "DT_FLOAT"}, "data_format": {"s": "TkhXQw=="}, "strides": {"list": {"i": ["1", "1", "1", "1"]}}}}, {"name": "Openpose/MConv_Stage4_L2_3_depthwise/depthwise", "op": "DepthwiseConv2dNative", "input": ["Openpose/MConv_Stage4_L2_2_pointwise/Relu", "Openpose/MConv_Stage4_L2_3_depthwise/depthwise_weights"], "attr": {"dilations": {"list": {"i": ["1", "1", "1", "1"]}}, "padding": {"s": "U0FNRQ=="}, "T": {"type": "DT_FLOAT"}, "data_format": {"s": "TkhXQw=="}, "strides": {"list": {"i": ["1", "1", "1", "1"]}}}}, {"name": "Openpose/MConv_Stage4_L1_3_pointwise/Conv2D", "op": "Conv2D", "input": ["Openpose/MConv_Stage4_L1_3_depthwise/depthwise", "Openpose/MConv_Stage4_L1_3_pointwise/weights"], "attr": {"padding": {"s": "U0FNRQ=="}, "dilations": {"list": {"i": ["1", "1", "1", "1"]}}, "T": {"type": "DT_FLOAT"}, "strides": {"list": {"i": ["1", "1", "1", "1"]}}, "data_format": {"s": "TkhXQw=="}, "use_cudnn_on_gpu": {"b": true}}}, {"name": "Openpose/MConv_Stage4_L2_3_pointwise/Conv2D", "op": "Conv2D", "input": ["Openpose/MConv_Stage4_L2_3_depthwise/depthwise", "Openpose/MConv_Stage4_L2_3_pointwise/weights"], "attr": {"use_cudnn_on_gpu": {"b": true}, "padding": {"s": "U0FNRQ=="}, "dilations": {"list": {"i": ["1", "1", "1", "1"]}}, "T": {"type": "DT_FLOAT"}, "data_format": {"s": "TkhXQw=="}, "strides": {"list": {"i": ["1", "1", "1", "1"]}}}}, {"name": "Openpose/MConv_Stage4_L1_3_pointwise/BatchNorm/FusedBatchNorm", "op": "BiasAdd", "input": ["Openpose/MConv_Stage4_L1_3_pointwise/Conv2D", "Openpose/MConv_Stage4_L1_3_pointwise/Conv2D_bn_offset"], "attr": {"T": {"type": "DT_FLOAT"}, "data_format": {"s": "TkhXQw=="}}}, {"name": "Openpose/MConv_Stage4_L2_3_pointwise/BatchNorm/FusedBatchNorm", "op": "BiasAdd", "input": ["Openpose/MConv_Stage4_L2_3_pointwise/Conv2D", "Openpose/MConv_Stage4_L2_3_pointwise/Conv2D_bn_offset"], "attr": {"T": {"type": "DT_FLOAT"}, "data_format": {"s": "TkhXQw=="}}}, {"name": "Openpose/MConv_Stage4_L1_3_pointwise/Relu", "op": "Relu", "input": ["Openpose/MConv_Stage4_L1_3_pointwise/BatchNorm/FusedBatchNorm"], "attr": {"T": {"type": "DT_FLOAT"}}}, {"name": "Openpose/MConv_Stage4_L2_3_pointwise/Relu", "op": "Relu", "input": ["Openpose/MConv_Stage4_L2_3_pointwise/BatchNorm/FusedBatchNorm"], "attr": {"T": {"type": "DT_FLOAT"}}}, {"name": "Openpose/MConv_Stage4_L1_4_depthwise/depthwise", "op": "DepthwiseConv2dNative", "input": ["Openpose/MConv_Stage4_L1_3_pointwise/Relu", "Openpose/MConv_Stage4_L1_4_depthwise/depthwise_weights"], "attr": {"dilations": {"list": {"i": ["1", "1", "1", "1"]}}, "padding": {"s": "U0FNRQ=="}, "T": {"type": "DT_FLOAT"}, "data_format": {"s": "TkhXQw=="}, "strides": {"list": {"i": ["1", "1", "1", "1"]}}}}, {"name": "Openpose/MConv_Stage4_L2_4_depthwise/depthwise", "op": "DepthwiseConv2dNative", "input": ["Openpose/MConv_Stage4_L2_3_pointwise/Relu", "Openpose/MConv_Stage4_L2_4_depthwise/depthwise_weights"], "attr": {"T": {"type": "DT_FLOAT"}, "data_format": {"s": "TkhXQw=="}, "strides": {"list": {"i": ["1", "1", "1", "1"]}}, "dilations": {"list": {"i": ["1", "1", "1", "1"]}}, "padding": {"s": "U0FNRQ=="}}}, {"name": "Openpose/MConv_Stage4_L1_4_pointwise/Conv2D", "op": "Conv2D", "input": ["Openpose/MConv_Stage4_L1_4_depthwise/depthwise", "Openpose/MConv_Stage4_L1_4_pointwise/weights"], "attr": {"use_cudnn_on_gpu": {"b": true}, "padding": {"s": "U0FNRQ=="}, "dilations": {"list": {"i": ["1", "1", "1", "1"]}}, "T": {"type": "DT_FLOAT"}, "strides": {"list": {"i": ["1", "1", "1", "1"]}}, "data_format": {"s": "TkhXQw=="}}}, {"name": "Openpose/MConv_Stage4_L2_4_pointwise/Conv2D", "op": "Conv2D", "input": ["Openpose/MConv_Stage4_L2_4_depthwise/depthwise", "Openpose/MConv_Stage4_L2_4_pointwise/weights"], "attr": {"dilations": {"list": {"i": ["1", "1", "1", "1"]}}, "T": {"type": "DT_FLOAT"}, "strides": {"list": {"i": ["1", "1", "1", "1"]}}, "data_format": {"s": "TkhXQw=="}, "use_cudnn_on_gpu": {"b": true}, "padding": {"s": "U0FNRQ=="}}}, {"name": "Openpose/MConv_Stage4_L1_4_pointwise/BatchNorm/FusedBatchNorm", "op": "BiasAdd", "input": ["Openpose/MConv_Stage4_L1_4_pointwise/Conv2D", "Openpose/MConv_Stage4_L1_4_pointwise/Conv2D_bn_offset"], "attr": {"T": {"type": "DT_FLOAT"}, "data_format": {"s": "TkhXQw=="}}}, {"name": "Openpose/MConv_Stage4_L2_4_pointwise/BatchNorm/FusedBatchNorm", "op": "BiasAdd", "input": ["Openpose/MConv_Stage4_L2_4_pointwise/Conv2D", "Openpose/MConv_Stage4_L2_4_pointwise/Conv2D_bn_offset"], "attr": {"data_format": {"s": "TkhXQw=="}, "T": {"type": "DT_FLOAT"}}}, {"name": "Openpose/MConv_Stage4_L1_4_pointwise/Relu", "op": "Relu", "input": ["Openpose/MConv_Stage4_L1_4_pointwise/BatchNorm/FusedBatchNorm"], "attr": {"T": {"type": "DT_FLOAT"}}}, {"name": "Openpose/MConv_Stage4_L2_4_pointwise/Relu", "op": "Relu", "input": ["Openpose/MConv_Stage4_L2_4_pointwise/BatchNorm/FusedBatchNorm"], "attr": {"T": {"type": "DT_FLOAT"}}}, {"name": "Openpose/MConv_Stage4_L1_5_depthwise/depthwise", "op": "DepthwiseConv2dNative", "input": ["Openpose/MConv_Stage4_L1_4_pointwise/Relu", "Openpose/MConv_Stage4_L1_5_depthwise/depthwise_weights"], "attr": {"dilations": {"list": {"i": ["1", "1", "1", "1"]}}, "padding": {"s": "U0FNRQ=="}, "T": {"type": "DT_FLOAT"}, "data_format": {"s": "TkhXQw=="}, "strides": {"list": {"i": ["1", "1", "1", "1"]}}}}, {"name": "Openpose/MConv_Stage4_L2_5_depthwise/depthwise", "op": "DepthwiseConv2dNative", "input": ["Openpose/MConv_Stage4_L2_4_pointwise/Relu", "Openpose/MConv_Stage4_L2_5_depthwise/depthwise_weights"], "attr": {"T": {"type": "DT_FLOAT"}, "data_format": {"s": "TkhXQw=="}, "strides": {"list": {"i": ["1", "1", "1", "1"]}}, "dilations": {"list": {"i": ["1", "1", "1", "1"]}}, "padding": {"s": "U0FNRQ=="}}}, {"name": "Openpose/MConv_Stage4_L1_5_pointwise/Conv2D", "op": "Conv2D", "input": ["Openpose/MConv_Stage4_L1_5_depthwise/depthwise", "Openpose/MConv_Stage4_L1_5_pointwise/weights"], "attr": {"padding": {"s": "U0FNRQ=="}, "dilations": {"list": {"i": ["1", "1", "1", "1"]}}, "T": {"type": "DT_FLOAT"}, "data_format": {"s": "TkhXQw=="}, "strides": {"list": {"i": ["1", "1", "1", "1"]}}, "use_cudnn_on_gpu": {"b": true}}}, {"name": "Openpose/MConv_Stage4_L2_5_pointwise/Conv2D", "op": "Conv2D", "input": ["Openpose/MConv_Stage4_L2_5_depthwise/depthwise", "Openpose/MConv_Stage4_L2_5_pointwise/weights"], "attr": {"dilations": {"list": {"i": ["1", "1", "1", "1"]}}, "T": {"type": "DT_FLOAT"}, "data_format": {"s": "TkhXQw=="}, "strides": {"list": {"i": ["1", "1", "1", "1"]}}, "use_cudnn_on_gpu": {"b": true}, "padding": {"s": "U0FNRQ=="}}}, {"name": "Openpose/MConv_Stage4_L1_5_pointwise/BatchNorm/FusedBatchNorm", "op": "BiasAdd", "input": ["Openpose/MConv_Stage4_L1_5_pointwise/Conv2D", "Openpose/MConv_Stage4_L1_5_pointwise/Conv2D_bn_offset"], "attr": {"data_format": {"s": "TkhXQw=="}, "T": {"type": "DT_FLOAT"}}}, {"name": "Openpose/MConv_Stage4_L2_5_pointwise/BatchNorm/FusedBatchNorm", "op": "BiasAdd", "input": ["Openpose/MConv_Stage4_L2_5_pointwise/Conv2D", "Openpose/MConv_Stage4_L2_5_pointwise/Conv2D_bn_offset"], "attr": {"T": {"type": "DT_FLOAT"}, "data_format": {"s": "TkhXQw=="}}}, {"name": "Openpose/MConv_Stage5_concat", "op": "ConcatV2", "input": ["Openpose/MConv_Stage4_L1_5_pointwise/BatchNorm/FusedBatchNorm", "Openpose/MConv_Stage4_L2_5_pointwise/BatchNorm/FusedBatchNorm", "feat_concat", "Openpose/MConv_Stage2_concat/axis"], "attr": {"N": {"i": "3"}, "Tidx": {"type": "DT_INT32"}, "T": {"type": "DT_FLOAT"}}}, {"name": "Openpose/MConv_Stage5_L1_1_depthwise/depthwise", "op": "DepthwiseConv2dNative", "input": ["Openpose/MConv_Stage5_concat", "Openpose/MConv_Stage5_L1_1_depthwise/depthwise_weights"], "attr": {"data_format": {"s": "TkhXQw=="}, "strides": {"list": {"i": ["1", "1", "1", "1"]}}, "dilations": {"list": {"i": ["1", "1", "1", "1"]}}, "padding": {"s": "U0FNRQ=="}, "T": {"type": "DT_FLOAT"}}}, {"name": "Openpose/MConv_Stage5_L2_1_depthwise/depthwise", "op": "DepthwiseConv2dNative", "input": ["Openpose/MConv_Stage5_concat", "Openpose/MConv_Stage5_L2_1_depthwise/depthwise_weights"], "attr": {"dilations": {"list": {"i": ["1", "1", "1", "1"]}}, "padding": {"s": "U0FNRQ=="}, "T": {"type": "DT_FLOAT"}, "data_format": {"s": "TkhXQw=="}, "strides": {"list": {"i": ["1", "1", "1", "1"]}}}}, {"name": "Openpose/MConv_Stage5_L1_1_pointwise/Conv2D", "op": "Conv2D", "input": ["Openpose/MConv_Stage5_L1_1_depthwise/depthwise", "Openpose/MConv_Stage5_L1_1_pointwise/weights"], "attr": {"dilations": {"list": {"i": ["1", "1", "1", "1"]}}, "T": {"type": "DT_FLOAT"}, "strides": {"list": {"i": ["1", "1", "1", "1"]}}, "data_format": {"s": "TkhXQw=="}, "use_cudnn_on_gpu": {"b": true}, "padding": {"s": "U0FNRQ=="}}}, {"name": "Openpose/MConv_Stage5_L2_1_pointwise/Conv2D", "op": "Conv2D", "input": ["Openpose/MConv_Stage5_L2_1_depthwise/depthwise", "Openpose/MConv_Stage5_L2_1_pointwise/weights"], "attr": {"dilations": {"list": {"i": ["1", "1", "1", "1"]}}, "T": {"type": "DT_FLOAT"}, "data_format": {"s": "TkhXQw=="}, "strides": {"list": {"i": ["1", "1", "1", "1"]}}, "use_cudnn_on_gpu": {"b": true}, "padding": {"s": "U0FNRQ=="}}}, {"name": "Openpose/MConv_Stage5_L1_1_pointwise/BatchNorm/FusedBatchNorm", "op": "BiasAdd", "input": ["Openpose/MConv_Stage5_L1_1_pointwise/Conv2D", "Openpose/MConv_Stage5_L1_1_pointwise/Conv2D_bn_offset"], "attr": {"data_format": {"s": "TkhXQw=="}, "T": {"type": "DT_FLOAT"}}}, {"name": "Openpose/MConv_Stage5_L2_1_pointwise/BatchNorm/FusedBatchNorm", "op": "BiasAdd", "input": ["Openpose/MConv_Stage5_L2_1_pointwise/Conv2D", "Openpose/MConv_Stage5_L2_1_pointwise/Conv2D_bn_offset"], "attr": {"T": {"type": "DT_FLOAT"}, "data_format": {"s": "TkhXQw=="}}}, {"name": "Openpose/MConv_Stage5_L1_1_pointwise/Relu", "op": "Relu", "input": ["Openpose/MConv_Stage5_L1_1_pointwise/BatchNorm/FusedBatchNorm"], "attr": {"T": {"type": "DT_FLOAT"}}}, {"name": "Openpose/MConv_Stage5_L2_1_pointwise/Relu", "op": "Relu", "input": ["Openpose/MConv_Stage5_L2_1_pointwise/BatchNorm/FusedBatchNorm"], "attr": {"T": {"type": "DT_FLOAT"}}}, {"name": "Openpose/MConv_Stage5_L1_2_depthwise/depthwise", "op": "DepthwiseConv2dNative", "input": ["Openpose/MConv_Stage5_L1_1_pointwise/Relu", "Openpose/MConv_Stage5_L1_2_depthwise/depthwise_weights"], "attr": {"data_format": {"s": "TkhXQw=="}, "strides": {"list": {"i": ["1", "1", "1", "1"]}}, "dilations": {"list": {"i": ["1", "1", "1", "1"]}}, "padding": {"s": "U0FNRQ=="}, "T": {"type": "DT_FLOAT"}}}, {"name": "Openpose/MConv_Stage5_L2_2_depthwise/depthwise", "op": "DepthwiseConv2dNative", "input": ["Openpose/MConv_Stage5_L2_1_pointwise/Relu", "Openpose/MConv_Stage5_L2_2_depthwise/depthwise_weights"], "attr": {"T": {"type": "DT_FLOAT"}, "data_format": {"s": "TkhXQw=="}, "strides": {"list": {"i": ["1", "1", "1", "1"]}}, "dilations": {"list": {"i": ["1", "1", "1", "1"]}}, "padding": {"s": "U0FNRQ=="}}}, {"name": "Openpose/MConv_Stage5_L1_2_pointwise/Conv2D", "op": "Conv2D", "input": ["Openpose/MConv_Stage5_L1_2_depthwise/depthwise", "Openpose/MConv_Stage5_L1_2_pointwise/weights"], "attr": {"dilations": {"list": {"i": ["1", "1", "1", "1"]}}, "T": {"type": "DT_FLOAT"}, "strides": {"list": {"i": ["1", "1", "1", "1"]}}, "data_format": {"s": "TkhXQw=="}, "use_cudnn_on_gpu": {"b": true}, "padding": {"s": "U0FNRQ=="}}}, {"name": "Openpose/MConv_Stage5_L2_2_pointwise/Conv2D", "op": "Conv2D", "input": ["Openpose/MConv_Stage5_L2_2_depthwise/depthwise", "Openpose/MConv_Stage5_L2_2_pointwise/weights"], "attr": {"dilations": {"list": {"i": ["1", "1", "1", "1"]}}, "T": {"type": "DT_FLOAT"}, "strides": {"list": {"i": ["1", "1", "1", "1"]}}, "data_format": {"s": "TkhXQw=="}, "use_cudnn_on_gpu": {"b": true}, "padding": {"s": "U0FNRQ=="}}}, {"name": "Openpose/MConv_Stage5_L1_2_pointwise/BatchNorm/FusedBatchNorm", "op": "BiasAdd", "input": ["Openpose/MConv_Stage5_L1_2_pointwise/Conv2D", "Openpose/MConv_Stage5_L1_2_pointwise/Conv2D_bn_offset"], "attr": {"T": {"type": "DT_FLOAT"}, "data_format": {"s": "TkhXQw=="}}}, {"name": "Openpose/MConv_Stage5_L2_2_pointwise/BatchNorm/FusedBatchNorm", "op": "BiasAdd", "input": ["Openpose/MConv_Stage5_L2_2_pointwise/Conv2D", "Openpose/MConv_Stage5_L2_2_pointwise/Conv2D_bn_offset"], "attr": {"T": {"type": "DT_FLOAT"}, "data_format": {"s": "TkhXQw=="}}}, {"name": "Openpose/MConv_Stage5_L1_2_pointwise/Relu", "op": "Relu", "input": ["Openpose/MConv_Stage5_L1_2_pointwise/BatchNorm/FusedBatchNorm"], "attr": {"T": {"type": "DT_FLOAT"}}}, {"name": "Openpose/MConv_Stage5_L2_2_pointwise/Relu", "op": "Relu", "input": ["Openpose/MConv_Stage5_L2_2_pointwise/BatchNorm/FusedBatchNorm"], "attr": {"T": {"type": "DT_FLOAT"}}}, {"name": "Openpose/MConv_Stage5_L1_3_depthwise/depthwise", "op": "DepthwiseConv2dNative", "input": ["Openpose/MConv_Stage5_L1_2_pointwise/Relu", "Openpose/MConv_Stage5_L1_3_depthwise/depthwise_weights"], "attr": {"dilations": {"list": {"i": ["1", "1", "1", "1"]}}, "padding": {"s": "U0FNRQ=="}, "T": {"type": "DT_FLOAT"}, "data_format": {"s": "TkhXQw=="}, "strides": {"list": {"i": ["1", "1", "1", "1"]}}}}, {"name": "Openpose/MConv_Stage5_L2_3_depthwise/depthwise", "op": "DepthwiseConv2dNative", "input": ["Openpose/MConv_Stage5_L2_2_pointwise/Relu", "Openpose/MConv_Stage5_L2_3_depthwise/depthwise_weights"], "attr": {"dilations": {"list": {"i": ["1", "1", "1", "1"]}}, "padding": {"s": "U0FNRQ=="}, "T": {"type": "DT_FLOAT"}, "data_format": {"s": "TkhXQw=="}, "strides": {"list": {"i": ["1", "1", "1", "1"]}}}}, {"name": "Openpose/MConv_Stage5_L1_3_pointwise/Conv2D", "op": "Conv2D", "input": ["Openpose/MConv_Stage5_L1_3_depthwise/depthwise", "Openpose/MConv_Stage5_L1_3_pointwise/weights"], "attr": {"dilations": {"list": {"i": ["1", "1", "1", "1"]}}, "T": {"type": "DT_FLOAT"}, "strides": {"list": {"i": ["1", "1", "1", "1"]}}, "data_format": {"s": "TkhXQw=="}, "use_cudnn_on_gpu": {"b": true}, "padding": {"s": "U0FNRQ=="}}}, {"name": "Openpose/MConv_Stage5_L2_3_pointwise/Conv2D", "op": "Conv2D", "input": ["Openpose/MConv_Stage5_L2_3_depthwise/depthwise", "Openpose/MConv_Stage5_L2_3_pointwise/weights"], "attr": {"dilations": {"list": {"i": ["1", "1", "1", "1"]}}, "T": {"type": "DT_FLOAT"}, "strides": {"list": {"i": ["1", "1", "1", "1"]}}, "data_format": {"s": "TkhXQw=="}, "use_cudnn_on_gpu": {"b": true}, "padding": {"s": "U0FNRQ=="}}}, {"name": "Openpose/MConv_Stage5_L1_3_pointwise/BatchNorm/FusedBatchNorm", "op": "BiasAdd", "input": ["Openpose/MConv_Stage5_L1_3_pointwise/Conv2D", "Openpose/MConv_Stage5_L1_3_pointwise/Conv2D_bn_offset"], "attr": {"T": {"type": "DT_FLOAT"}, "data_format": {"s": "TkhXQw=="}}}, {"name": "Openpose/MConv_Stage5_L2_3_pointwise/BatchNorm/FusedBatchNorm", "op": "BiasAdd", "input": ["Openpose/MConv_Stage5_L2_3_pointwise/Conv2D", "Openpose/MConv_Stage5_L2_3_pointwise/Conv2D_bn_offset"], "attr": {"T": {"type": "DT_FLOAT"}, "data_format": {"s": "TkhXQw=="}}}, {"name": "Openpose/MConv_Stage5_L1_3_pointwise/Relu", "op": "Relu", "input": ["Openpose/MConv_Stage5_L1_3_pointwise/BatchNorm/FusedBatchNorm"], "attr": {"T": {"type": "DT_FLOAT"}}}, {"name": "Openpose/MConv_Stage5_L2_3_pointwise/Relu", "op": "Relu", "input": ["Openpose/MConv_Stage5_L2_3_pointwise/BatchNorm/FusedBatchNorm"], "attr": {"T": {"type": "DT_FLOAT"}}}, {"name": "Openpose/MConv_Stage5_L1_4_depthwise/depthwise", "op": "DepthwiseConv2dNative", "input": ["Openpose/MConv_Stage5_L1_3_pointwise/Relu", "Openpose/MConv_Stage5_L1_4_depthwise/depthwise_weights"], "attr": {"dilations": {"list": {"i": ["1", "1", "1", "1"]}}, "padding": {"s": "U0FNRQ=="}, "T": {"type": "DT_FLOAT"}, "data_format": {"s": "TkhXQw=="}, "strides": {"list": {"i": ["1", "1", "1", "1"]}}}}, {"name": "Openpose/MConv_Stage5_L2_4_depthwise/depthwise", "op": "DepthwiseConv2dNative", "input": ["Openpose/MConv_Stage5_L2_3_pointwise/Relu", "Openpose/MConv_Stage5_L2_4_depthwise/depthwise_weights"], "attr": {"data_format": {"s": "TkhXQw=="}, "strides": {"list": {"i": ["1", "1", "1", "1"]}}, "dilations": {"list": {"i": ["1", "1", "1", "1"]}}, "padding": {"s": "U0FNRQ=="}, "T": {"type": "DT_FLOAT"}}}, {"name": "Openpose/MConv_Stage5_L1_4_pointwise/Conv2D", "op": "Conv2D", "input": ["Openpose/MConv_Stage5_L1_4_depthwise/depthwise", "Openpose/MConv_Stage5_L1_4_pointwise/weights"], "attr": {"dilations": {"list": {"i": ["1", "1", "1", "1"]}}, "T": {"type": "DT_FLOAT"}, "data_format": {"s": "TkhXQw=="}, "strides": {"list": {"i": ["1", "1", "1", "1"]}}, "use_cudnn_on_gpu": {"b": true}, "padding": {"s": "U0FNRQ=="}}}, {"name": "Openpose/MConv_Stage5_L2_4_pointwise/Conv2D", "op": "Conv2D", "input": ["Openpose/MConv_Stage5_L2_4_depthwise/depthwise", "Openpose/MConv_Stage5_L2_4_pointwise/weights"], "attr": {"strides": {"list": {"i": ["1", "1", "1", "1"]}}, "data_format": {"s": "TkhXQw=="}, "use_cudnn_on_gpu": {"b": true}, "padding": {"s": "U0FNRQ=="}, "dilations": {"list": {"i": ["1", "1", "1", "1"]}}, "T": {"type": "DT_FLOAT"}}}, {"name": "Openpose/MConv_Stage5_L1_4_pointwise/BatchNorm/FusedBatchNorm", "op": "BiasAdd", "input": ["Openpose/MConv_Stage5_L1_4_pointwise/Conv2D", "Openpose/MConv_Stage5_L1_4_pointwise/Conv2D_bn_offset"], "attr": {"T": {"type": "DT_FLOAT"}, "data_format": {"s": "TkhXQw=="}}}, {"name": "Openpose/MConv_Stage5_L2_4_pointwise/BatchNorm/FusedBatchNorm", "op": "BiasAdd", "input": ["Openpose/MConv_Stage5_L2_4_pointwise/Conv2D", "Openpose/MConv_Stage5_L2_4_pointwise/Conv2D_bn_offset"], "attr": {"data_format": {"s": "TkhXQw=="}, "T": {"type": "DT_FLOAT"}}}, {"name": "Openpose/MConv_Stage5_L1_4_pointwise/Relu", "op": "Relu", "input": ["Openpose/MConv_Stage5_L1_4_pointwise/BatchNorm/FusedBatchNorm"], "attr": {"T": {"type": "DT_FLOAT"}}}, {"name": "Openpose/MConv_Stage5_L2_4_pointwise/Relu", "op": "Relu", "input": ["Openpose/MConv_Stage5_L2_4_pointwise/BatchNorm/FusedBatchNorm"], "attr": {"T": {"type": "DT_FLOAT"}}}, {"name": "Openpose/MConv_Stage5_L1_5_depthwise/depthwise", "op": "DepthwiseConv2dNative", "input": ["Openpose/MConv_Stage5_L1_4_pointwise/Relu", "Openpose/MConv_Stage5_L1_5_depthwise/depthwise_weights"], "attr": {"dilations": {"list": {"i": ["1", "1", "1", "1"]}}, "padding": {"s": "U0FNRQ=="}, "T": {"type": "DT_FLOAT"}, "data_format": {"s": "TkhXQw=="}, "strides": {"list": {"i": ["1", "1", "1", "1"]}}}}, {"name": "Openpose/MConv_Stage5_L2_5_depthwise/depthwise", "op": "DepthwiseConv2dNative", "input": ["Openpose/MConv_Stage5_L2_4_pointwise/Relu", "Openpose/MConv_Stage5_L2_5_depthwise/depthwise_weights"], "attr": {"data_format": {"s": "TkhXQw=="}, "strides": {"list": {"i": ["1", "1", "1", "1"]}}, "dilations": {"list": {"i": ["1", "1", "1", "1"]}}, "padding": {"s": "U0FNRQ=="}, "T": {"type": "DT_FLOAT"}}}, {"name": "Openpose/MConv_Stage5_L1_5_pointwise/Conv2D", "op": "Conv2D", "input": ["Openpose/MConv_Stage5_L1_5_depthwise/depthwise", "Openpose/MConv_Stage5_L1_5_pointwise/weights"], "attr": {"dilations": {"list": {"i": ["1", "1", "1", "1"]}}, "T": {"type": "DT_FLOAT"}, "data_format": {"s": "TkhXQw=="}, "strides": {"list": {"i": ["1", "1", "1", "1"]}}, "use_cudnn_on_gpu": {"b": true}, "padding": {"s": "U0FNRQ=="}}}, {"name": "Openpose/MConv_Stage5_L2_5_pointwise/Conv2D", "op": "Conv2D", "input": ["Openpose/MConv_Stage5_L2_5_depthwise/depthwise", "Openpose/MConv_Stage5_L2_5_pointwise/weights"], "attr": {"T": {"type": "DT_FLOAT"}, "data_format": {"s": "TkhXQw=="}, "strides": {"list": {"i": ["1", "1", "1", "1"]}}, "use_cudnn_on_gpu": {"b": true}, "padding": {"s": "U0FNRQ=="}, "dilations": {"list": {"i": ["1", "1", "1", "1"]}}}}, {"name": "Openpose/MConv_Stage5_L1_5_pointwise/BatchNorm/FusedBatchNorm", "op": "BiasAdd", "input": ["Openpose/MConv_Stage5_L1_5_pointwise/Conv2D", "Openpose/MConv_Stage5_L1_5_pointwise/Conv2D_bn_offset"], "attr": {"T": {"type": "DT_FLOAT"}, "data_format": {"s": "TkhXQw=="}}}, {"name": "Openpose/MConv_Stage5_L2_5_pointwise/BatchNorm/FusedBatchNorm", "op": "BiasAdd", "input": ["Openpose/MConv_Stage5_L2_5_pointwise/Conv2D", "Openpose/MConv_Stage5_L2_5_pointwise/Conv2D_bn_offset"], "attr": {"T": {"type": "DT_FLOAT"}, "data_format": {"s": "TkhXQw=="}}}, {"name": "Openpose/MConv_Stage6_concat", "op": "ConcatV2", "input": ["Openpose/MConv_Stage5_L1_5_pointwise/BatchNorm/FusedBatchNorm", "Openpose/MConv_Stage5_L2_5_pointwise/BatchNorm/FusedBatchNorm", "feat_concat", "Openpose/MConv_Stage2_concat/axis"], "attr": {"T": {"type": "DT_FLOAT"}, "N": {"i": "3"}, "Tidx": {"type": "DT_INT32"}}}, {"name": "Openpose/MConv_Stage6_L2_1_depthwise/depthwise", "op": "DepthwiseConv2dNative", "input": ["Openpose/MConv_Stage6_concat", "Openpose/MConv_Stage6_L2_1_depthwise/depthwise_weights"], "attr": {"data_format": {"s": "TkhXQw=="}, "strides": {"list": {"i": ["1", "1", "1", "1"]}}, "dilations": {"list": {"i": ["1", "1", "1", "1"]}}, "padding": {"s": "U0FNRQ=="}, "T": {"type": "DT_FLOAT"}}}, {"name": "Openpose/MConv_Stage6_L1_1_depthwise/depthwise", "op": "DepthwiseConv2dNative", "input": ["Openpose/MConv_Stage6_concat", "Openpose/MConv_Stage6_L1_1_depthwise/depthwise_weights"], "attr": {"dilations": {"list": {"i": ["1", "1", "1", "1"]}}, "padding": {"s": "U0FNRQ=="}, "T": {"type": "DT_FLOAT"}, "data_format": {"s": "TkhXQw=="}, "strides": {"list": {"i": ["1", "1", "1", "1"]}}}}, {"name": "Openpose/MConv_Stage6_L2_1_pointwise/Conv2D", "op": "Conv2D", "input": ["Openpose/MConv_Stage6_L2_1_depthwise/depthwise", "Openpose/MConv_Stage6_L2_1_pointwise/weights"], "attr": {"dilations": {"list": {"i": ["1", "1", "1", "1"]}}, "T": {"type": "DT_FLOAT"}, "strides": {"list": {"i": ["1", "1", "1", "1"]}}, "data_format": {"s": "TkhXQw=="}, "use_cudnn_on_gpu": {"b": true}, "padding": {"s": "U0FNRQ=="}}}, {"name": "Openpose/MConv_Stage6_L1_1_pointwise/Conv2D", "op": "Conv2D", "input": ["Openpose/MConv_Stage6_L1_1_depthwise/depthwise", "Openpose/MConv_Stage6_L1_1_pointwise/weights"], "attr": {"padding": {"s": "U0FNRQ=="}, "dilations": {"list": {"i": ["1", "1", "1", "1"]}}, "T": {"type": "DT_FLOAT"}, "strides": {"list": {"i": ["1", "1", "1", "1"]}}, "data_format": {"s": "TkhXQw=="}, "use_cudnn_on_gpu": {"b": true}}}, {"name": "Openpose/MConv_Stage6_L2_1_pointwise/BatchNorm/FusedBatchNorm", "op": "BiasAdd", "input": ["Openpose/MConv_Stage6_L2_1_pointwise/Conv2D", "Openpose/MConv_Stage6_L2_1_pointwise/Conv2D_bn_offset"], "attr": {"T": {"type": "DT_FLOAT"}, "data_format": {"s": "TkhXQw=="}}}, {"name": "Openpose/MConv_Stage6_L1_1_pointwise/BatchNorm/FusedBatchNorm", "op": "BiasAdd", "input": ["Openpose/MConv_Stage6_L1_1_pointwise/Conv2D", "Openpose/MConv_Stage6_L1_1_pointwise/Conv2D_bn_offset"], "attr": {"T": {"type": "DT_FLOAT"}, "data_format": {"s": "TkhXQw=="}}}, {"name": "Openpose/MConv_Stage6_L2_1_pointwise/Relu", "op": "Relu", "input": ["Openpose/MConv_Stage6_L2_1_pointwise/BatchNorm/FusedBatchNorm"], "attr": {"T": {"type": "DT_FLOAT"}}}, {"name": "Openpose/MConv_Stage6_L1_1_pointwise/Relu", "op": "Relu", "input": ["Openpose/MConv_Stage6_L1_1_pointwise/BatchNorm/FusedBatchNorm"], "attr": {"T": {"type": "DT_FLOAT"}}}, {"name": "Openpose/MConv_Stage6_L2_2_depthwise/depthwise", "op": "DepthwiseConv2dNative", "input": ["Openpose/MConv_Stage6_L2_1_pointwise/Relu", "Openpose/MConv_Stage6_L2_2_depthwise/depthwise_weights"], "attr": {"dilations": {"list": {"i": ["1", "1", "1", "1"]}}, "padding": {"s": "U0FNRQ=="}, "T": {"type": "DT_FLOAT"}, "data_format": {"s": "TkhXQw=="}, "strides": {"list": {"i": ["1", "1", "1", "1"]}}}}, {"name": "Openpose/MConv_Stage6_L1_2_depthwise/depthwise", "op": "DepthwiseConv2dNative", "input": ["Openpose/MConv_Stage6_L1_1_pointwise/Relu", "Openpose/MConv_Stage6_L1_2_depthwise/depthwise_weights"], "attr": {"dilations": {"list": {"i": ["1", "1", "1", "1"]}}, "padding": {"s": "U0FNRQ=="}, "T": {"type": "DT_FLOAT"}, "data_format": {"s": "TkhXQw=="}, "strides": {"list": {"i": ["1", "1", "1", "1"]}}}}, {"name": "Openpose/MConv_Stage6_L2_2_pointwise/Conv2D", "op": "Conv2D", "input": ["Openpose/MConv_Stage6_L2_2_depthwise/depthwise", "Openpose/MConv_Stage6_L2_2_pointwise/weights"], "attr": {"T": {"type": "DT_FLOAT"}, "data_format": {"s": "TkhXQw=="}, "strides": {"list": {"i": ["1", "1", "1", "1"]}}, "use_cudnn_on_gpu": {"b": true}, "padding": {"s": "U0FNRQ=="}, "dilations": {"list": {"i": ["1", "1", "1", "1"]}}}}, {"name": "Openpose/MConv_Stage6_L1_2_pointwise/Conv2D", "op": "Conv2D", "input": ["Openpose/MConv_Stage6_L1_2_depthwise/depthwise", "Openpose/MConv_Stage6_L1_2_pointwise/weights"], "attr": {"dilations": {"list": {"i": ["1", "1", "1", "1"]}}, "T": {"type": "DT_FLOAT"}, "data_format": {"s": "TkhXQw=="}, "strides": {"list": {"i": ["1", "1", "1", "1"]}}, "use_cudnn_on_gpu": {"b": true}, "padding": {"s": "U0FNRQ=="}}}, {"name": "Openpose/MConv_Stage6_L2_2_pointwise/BatchNorm/FusedBatchNorm", "op": "BiasAdd", "input": ["Openpose/MConv_Stage6_L2_2_pointwise/Conv2D", "Openpose/MConv_Stage6_L2_2_pointwise/Conv2D_bn_offset"], "attr": {"data_format": {"s": "TkhXQw=="}, "T": {"type": "DT_FLOAT"}}}, {"name": "Openpose/MConv_Stage6_L1_2_pointwise/BatchNorm/FusedBatchNorm", "op": "BiasAdd", "input": ["Openpose/MConv_Stage6_L1_2_pointwise/Conv2D", "Openpose/MConv_Stage6_L1_2_pointwise/Conv2D_bn_offset"], "attr": {"data_format": {"s": "TkhXQw=="}, "T": {"type": "DT_FLOAT"}}}, {"name": "Openpose/MConv_Stage6_L2_2_pointwise/Relu", "op": "Relu", "input": ["Openpose/MConv_Stage6_L2_2_pointwise/BatchNorm/FusedBatchNorm"], "attr": {"T": {"type": "DT_FLOAT"}}}, {"name": "Openpose/MConv_Stage6_L1_2_pointwise/Relu", "op": "Relu", "input": ["Openpose/MConv_Stage6_L1_2_pointwise/BatchNorm/FusedBatchNorm"], "attr": {"T": {"type": "DT_FLOAT"}}}, {"name": "Openpose/MConv_Stage6_L2_3_depthwise/depthwise", "op": "DepthwiseConv2dNative", "input": ["Openpose/MConv_Stage6_L2_2_pointwise/Relu", "Openpose/MConv_Stage6_L2_3_depthwise/depthwise_weights"], "attr": {"dilations": {"list": {"i": ["1", "1", "1", "1"]}}, "padding": {"s": "U0FNRQ=="}, "T": {"type": "DT_FLOAT"}, "data_format": {"s": "TkhXQw=="}, "strides": {"list": {"i": ["1", "1", "1", "1"]}}}}, {"name": "Openpose/MConv_Stage6_L1_3_depthwise/depthwise", "op": "DepthwiseConv2dNative", "input": ["Openpose/MConv_Stage6_L1_2_pointwise/Relu", "Openpose/MConv_Stage6_L1_3_depthwise/depthwise_weights"], "attr": {"dilations": {"list": {"i": ["1", "1", "1", "1"]}}, "padding": {"s": "U0FNRQ=="}, "T": {"type": "DT_FLOAT"}, "data_format": {"s": "TkhXQw=="}, "strides": {"list": {"i": ["1", "1", "1", "1"]}}}}, {"name": "Openpose/MConv_Stage6_L2_3_pointwise/Conv2D", "op": "Conv2D", "input": ["Openpose/MConv_Stage6_L2_3_depthwise/depthwise", "Openpose/MConv_Stage6_L2_3_pointwise/weights"], "attr": {"strides": {"list": {"i": ["1", "1", "1", "1"]}}, "data_format": {"s": "TkhXQw=="}, "use_cudnn_on_gpu": {"b": true}, "padding": {"s": "U0FNRQ=="}, "dilations": {"list": {"i": ["1", "1", "1", "1"]}}, "T": {"type": "DT_FLOAT"}}}, {"name": "Openpose/MConv_Stage6_L1_3_pointwise/Conv2D", "op": "Conv2D", "input": ["Openpose/MConv_Stage6_L1_3_depthwise/depthwise", "Openpose/MConv_Stage6_L1_3_pointwise/weights"], "attr": {"padding": {"s": "U0FNRQ=="}, "dilations": {"list": {"i": ["1", "1", "1", "1"]}}, "T": {"type": "DT_FLOAT"}, "data_format": {"s": "TkhXQw=="}, "strides": {"list": {"i": ["1", "1", "1", "1"]}}, "use_cudnn_on_gpu": {"b": true}}}, {"name": "Openpose/MConv_Stage6_L2_3_pointwise/BatchNorm/FusedBatchNorm", "op": "BiasAdd", "input": ["Openpose/MConv_Stage6_L2_3_pointwise/Conv2D", "Openpose/MConv_Stage6_L2_3_pointwise/Conv2D_bn_offset"], "attr": {"T": {"type": "DT_FLOAT"}, "data_format": {"s": "TkhXQw=="}}}, {"name": "Openpose/MConv_Stage6_L1_3_pointwise/BatchNorm/FusedBatchNorm", "op": "BiasAdd", "input": ["Openpose/MConv_Stage6_L1_3_pointwise/Conv2D", "Openpose/MConv_Stage6_L1_3_pointwise/Conv2D_bn_offset"], "attr": {"T": {"type": "DT_FLOAT"}, "data_format": {"s": "TkhXQw=="}}}, {"name": "Openpose/MConv_Stage6_L2_3_pointwise/Relu", "op": "Relu", "input": ["Openpose/MConv_Stage6_L2_3_pointwise/BatchNorm/FusedBatchNorm"], "attr": {"T": {"type": "DT_FLOAT"}}}, {"name": "Openpose/MConv_Stage6_L1_3_pointwise/Relu", "op": "Relu", "input": ["Openpose/MConv_Stage6_L1_3_pointwise/BatchNorm/FusedBatchNorm"], "attr": {"T": {"type": "DT_FLOAT"}}}, {"name": "Openpose/MConv_Stage6_L2_4_depthwise/depthwise", "op": "DepthwiseConv2dNative", "input": ["Openpose/MConv_Stage6_L2_3_pointwise/Relu", "Openpose/MConv_Stage6_L2_4_depthwise/depthwise_weights"], "attr": {"dilations": {"list": {"i": ["1", "1", "1", "1"]}}, "padding": {"s": "U0FNRQ=="}, "T": {"type": "DT_FLOAT"}, "data_format": {"s": "TkhXQw=="}, "strides": {"list": {"i": ["1", "1", "1", "1"]}}}}, {"name": "Openpose/MConv_Stage6_L1_4_depthwise/depthwise", "op": "DepthwiseConv2dNative", "input": ["Openpose/MConv_Stage6_L1_3_pointwise/Relu", "Openpose/MConv_Stage6_L1_4_depthwise/depthwise_weights"], "attr": {"dilations": {"list": {"i": ["1", "1", "1", "1"]}}, "padding": {"s": "U0FNRQ=="}, "T": {"type": "DT_FLOAT"}, "data_format": {"s": "TkhXQw=="}, "strides": {"list": {"i": ["1", "1", "1", "1"]}}}}, {"name": "Openpose/MConv_Stage6_L2_4_pointwise/Conv2D", "op": "Conv2D", "input": ["Openpose/MConv_Stage6_L2_4_depthwise/depthwise", "Openpose/MConv_Stage6_L2_4_pointwise/weights"], "attr": {"dilations": {"list": {"i": ["1", "1", "1", "1"]}}, "T": {"type": "DT_FLOAT"}, "strides": {"list": {"i": ["1", "1", "1", "1"]}}, "data_format": {"s": "TkhXQw=="}, "use_cudnn_on_gpu": {"b": true}, "padding": {"s": "U0FNRQ=="}}}, {"name": "Openpose/MConv_Stage6_L1_4_pointwise/Conv2D", "op": "Conv2D", "input": ["Openpose/MConv_Stage6_L1_4_depthwise/depthwise", "Openpose/MConv_Stage6_L1_4_pointwise/weights"], "attr": {"padding": {"s": "U0FNRQ=="}, "dilations": {"list": {"i": ["1", "1", "1", "1"]}}, "T": {"type": "DT_FLOAT"}, "strides": {"list": {"i": ["1", "1", "1", "1"]}}, "data_format": {"s": "TkhXQw=="}, "use_cudnn_on_gpu": {"b": true}}}, {"name": "Openpose/MConv_Stage6_L2_4_pointwise/BatchNorm/FusedBatchNorm", "op": "BiasAdd", "input": ["Openpose/MConv_Stage6_L2_4_pointwise/Conv2D", "Openpose/MConv_Stage6_L2_4_pointwise/Conv2D_bn_offset"], "attr": {"T": {"type": "DT_FLOAT"}, "data_format": {"s": "TkhXQw=="}}}, {"name": "Openpose/MConv_Stage6_L1_4_pointwise/BatchNorm/FusedBatchNorm", "op": "BiasAdd", "input": ["Openpose/MConv_Stage6_L1_4_pointwise/Conv2D", "Openpose/MConv_Stage6_L1_4_pointwise/Conv2D_bn_offset"], "attr": {"data_format": {"s": "TkhXQw=="}, "T": {"type": "DT_FLOAT"}}}, {"name": "Openpose/MConv_Stage6_L2_4_pointwise/Relu", "op": "Relu", "input": ["Openpose/MConv_Stage6_L2_4_pointwise/BatchNorm/FusedBatchNorm"], "attr": {"T": {"type": "DT_FLOAT"}}}, {"name": "Openpose/MConv_Stage6_L1_4_pointwise/Relu", "op": "Relu", "input": ["Openpose/MConv_Stage6_L1_4_pointwise/BatchNorm/FusedBatchNorm"], "attr": {"T": {"type": "DT_FLOAT"}}}, {"name": "Openpose/MConv_Stage6_L2_5_depthwise/depthwise", "op": "DepthwiseConv2dNative", "input": ["Openpose/MConv_Stage6_L2_4_pointwise/Relu", "Openpose/MConv_Stage6_L2_5_depthwise/depthwise_weights"], "attr": {"data_format": {"s": "TkhXQw=="}, "strides": {"list": {"i": ["1", "1", "1", "1"]}}, "dilations": {"list": {"i": ["1", "1", "1", "1"]}}, "padding": {"s": "U0FNRQ=="}, "T": {"type": "DT_FLOAT"}}}, {"name": "Openpose/MConv_Stage6_L1_5_depthwise/depthwise", "op": "DepthwiseConv2dNative", "input": ["Openpose/MConv_Stage6_L1_4_pointwise/Relu", "Openpose/MConv_Stage6_L1_5_depthwise/depthwise_weights"], "attr": {"dilations": {"list": {"i": ["1", "1", "1", "1"]}}, "padding": {"s": "U0FNRQ=="}, "T": {"type": "DT_FLOAT"}, "data_format": {"s": "TkhXQw=="}, "strides": {"list": {"i": ["1", "1", "1", "1"]}}}}, {"name": "Openpose/MConv_Stage6_L2_5_pointwise/Conv2D", "op": "Conv2D", "input": ["Openpose/MConv_Stage6_L2_5_depthwise/depthwise", "Openpose/MConv_Stage6_L2_5_pointwise/weights"], "attr": {"T": {"type": "DT_FLOAT"}, "data_format": {"s": "TkhXQw=="}, "strides": {"list": {"i": ["1", "1", "1", "1"]}}, "use_cudnn_on_gpu": {"b": true}, "padding": {"s": "U0FNRQ=="}, "dilations": {"list": {"i": ["1", "1", "1", "1"]}}}}, {"name": "Openpose/MConv_Stage6_L1_5_pointwise/Conv2D", "op": "Conv2D", "input": ["Openpose/MConv_Stage6_L1_5_depthwise/depthwise", "Openpose/MConv_Stage6_L1_5_pointwise/weights"], "attr": {"padding": {"s": "U0FNRQ=="}, "dilations": {"list": {"i": ["1", "1", "1", "1"]}}, "T": {"type": "DT_FLOAT"}, "data_format": {"s": "TkhXQw=="}, "strides": {"list": {"i": ["1", "1", "1", "1"]}}, "use_cudnn_on_gpu": {"b": true}}}, {"name": "Openpose/MConv_Stage6_L2_5_pointwise/BatchNorm/FusedBatchNorm", "op": "BiasAdd", "input": ["Openpose/MConv_Stage6_L2_5_pointwise/Conv2D", "Openpose/MConv_Stage6_L2_5_pointwise/Conv2D_bn_offset"], "attr": {"T": {"type": "DT_FLOAT"}, "data_format": {"s": "TkhXQw=="}}}, {"name": "Openpose/MConv_Stage6_L1_5_pointwise/BatchNorm/FusedBatchNorm", "op": "BiasAdd", "input": ["Openpose/MConv_Stage6_L1_5_pointwise/Conv2D", "Openpose/MConv_Stage6_L1_5_pointwise/Conv2D_bn_offset"], "attr": {"T": {"type": "DT_FLOAT"}, "data_format": {"s": "TkhXQw=="}}}, {"name": "Openpose/concat_stage7", "op": "ConcatV2", "input": ["Openpose/MConv_Stage6_L2_5_pointwise/BatchNorm/FusedBatchNorm", "Openpose/MConv_Stage6_L1_5_pointwise/BatchNorm/FusedBatchNorm", "Openpose/MConv_Stage2_concat/axis"], "attr": {"T": {"type": "DT_FLOAT"}, "N": {"i": "2"}, "Tidx": {"type": "DT_INT32"}}}], "library": {}, "versions": {}}, "weightsManifest": [{"paths": ["group1-shard1of2", "group1-shard2of2"], "weights": [{"name": "Openpose/MConv_Stage6_L2_1_depthwise/depthwise_weights", "shape": [3, 3, 921, 1], "dtype": "float32"}, {"name": "Openpose/MConv_Stage6_L2_1_pointwise/weights", "shape": [1, 1, 921, 64], "dtype": "float32"}, {"name": "Openpose/MConv_Stage6_L2_1_pointwise/Conv2D_bn_offset", "shape": [64], "dtype": "float32"}, {"name": "Openpose/MConv_Stage6_L2_2_depthwise/depthwise_weights", "shape": [3, 3, 64, 1], "dtype": "float32"}, {"name": "Openpose/MConv_Stage6_L2_2_pointwise/weights", "shape": [1, 1, 64, 64], "dtype": "float32"}, {"name": "Openpose/MConv_Stage6_L2_2_pointwise/Conv2D_bn_offset", "shape": [64], "dtype": "float32"}, {"name": "Openpose/MConv_Stage6_L2_3_depthwise/depthwise_weights", "shape": [3, 3, 64, 1], "dtype": "float32"}, {"name": "Openpose/MConv_Stage6_L2_3_pointwise/weights", "shape": [1, 1, 64, 64], "dtype": "float32"}, {"name": "Openpose/MConv_Stage6_L2_3_pointwise/Conv2D_bn_offset", "shape": [64], "dtype": "float32"}, {"name": "Openpose/MConv_Stage6_L2_4_depthwise/depthwise_weights", "shape": [1, 1, 64, 1], "dtype": "float32"}, {"name": "Openpose/MConv_Stage6_L2_4_pointwise/weights", "shape": [1, 1, 64, 64], "dtype": "float32"}, {"name": "Openpose/MConv_Stage6_L2_4_pointwise/Conv2D_bn_offset", "shape": [64], "dtype": "float32"}, {"name": "Openpose/MConv_Stage6_L2_5_depthwise/depthwise_weights", "shape": [1, 1, 64, 1], "dtype": "float32"}, {"name": "Openpose/MConv_Stage6_L2_5_pointwise/weights", "shape": [1, 1, 64, 19], "dtype": "float32"}, {"name": "Openpose/MConv_Stage6_L2_5_pointwise/Conv2D_bn_offset", "shape": [19], "dtype": "float32"}, {"name": "Openpose/MConv_Stage5_L1_1_depthwise/depthwise_weights", "shape": [3, 3, 921, 1], "dtype": "float32"}, {"name": "Openpose/MConv_Stage5_L1_1_pointwise/weights", "shape": [1, 1, 921, 64], "dtype": "float32"}, {"name": "Openpose/MConv_Stage5_L1_1_pointwise/Conv2D_bn_offset", "shape": [64], "dtype": "float32"}, {"name": "Openpose/MConv_Stage5_L1_2_depthwise/depthwise_weights", "shape": [3, 3, 64, 1], "dtype": "float32"}, {"name": "Openpose/MConv_Stage5_L1_2_pointwise/weights", "shape": [1, 1, 64, 64], "dtype": "float32"}, {"name": "Openpose/MConv_Stage5_L1_2_pointwise/Conv2D_bn_offset", "shape": [64], "dtype": "float32"}, {"name": "Openpose/MConv_Stage5_L1_3_depthwise/depthwise_weights", "shape": [3, 3, 64, 1], "dtype": "float32"}, {"name": "Openpose/MConv_Stage5_L1_3_pointwise/weights", "shape": [1, 1, 64, 64], "dtype": "float32"}, {"name": "Openpose/MConv_Stage5_L1_3_pointwise/Conv2D_bn_offset", "shape": [64], "dtype": "float32"}, {"name": "Openpose/MConv_Stage5_L1_4_depthwise/depthwise_weights", "shape": [1, 1, 64, 1], "dtype": "float32"}, {"name": "Openpose/MConv_Stage5_L1_4_pointwise/weights", "shape": [1, 1, 64, 64], "dtype": "float32"}, {"name": "Openpose/MConv_Stage5_L1_4_pointwise/Conv2D_bn_offset", "shape": [64], "dtype": "float32"}, {"name": "Openpose/MConv_Stage5_L1_5_depthwise/depthwise_weights", "shape": [1, 1, 64, 1], "dtype": "float32"}, {"name": "Openpose/MConv_Stage5_L1_5_pointwise/weights", "shape": [1, 1, 64, 38], "dtype": "float32"}, {"name": "Openpose/MConv_Stage5_L1_5_pointwise/Conv2D_bn_offset", "shape": [38], "dtype": "float32"}, {"name": "Openpose/MConv_Stage4_L1_1_depthwise/depthwise_weights", "shape": [3, 3, 921, 1], "dtype": "float32"}, {"name": "Openpose/MConv_Stage4_L1_1_pointwise/weights", "shape": [1, 1, 921, 64], "dtype": "float32"}, {"name": "Openpose/MConv_Stage4_L1_1_pointwise/Conv2D_bn_offset", "shape": [64], "dtype": "float32"}, {"name": "Openpose/MConv_Stage4_L1_2_depthwise/depthwise_weights", "shape": [3, 3, 64, 1], "dtype": "float32"}, {"name": "Openpose/MConv_Stage4_L1_2_pointwise/weights", "shape": [1, 1, 64, 64], "dtype": "float32"}, {"name": "Openpose/MConv_Stage4_L1_2_pointwise/Conv2D_bn_offset", "shape": [64], "dtype": "float32"}, {"name": "Openpose/MConv_Stage4_L1_3_depthwise/depthwise_weights", "shape": [3, 3, 64, 1], "dtype": "float32"}, {"name": "Openpose/MConv_Stage4_L1_3_pointwise/weights", "shape": [1, 1, 64, 64], "dtype": "float32"}, {"name": "Openpose/MConv_Stage4_L1_3_pointwise/Conv2D_bn_offset", "shape": [64], "dtype": "float32"}, {"name": "Openpose/MConv_Stage4_L1_4_depthwise/depthwise_weights", "shape": [1, 1, 64, 1], "dtype": "float32"}, {"name": "Openpose/MConv_Stage4_L1_4_pointwise/weights", "shape": [1, 1, 64, 64], "dtype": "float32"}, {"name": "Openpose/MConv_Stage4_L1_4_pointwise/Conv2D_bn_offset", "shape": [64], "dtype": "float32"}, {"name": "Openpose/MConv_Stage4_L1_5_depthwise/depthwise_weights", "shape": [1, 1, 64, 1], "dtype": "float32"}, {"name": "Openpose/MConv_Stage4_L1_5_pointwise/weights", "shape": [1, 1, 64, 38], "dtype": "float32"}, {"name": "Openpose/MConv_Stage4_L1_5_pointwise/Conv2D_bn_offset", "shape": [38], "dtype": "float32"}, {"name": "Openpose/MConv_Stage3_L1_1_depthwise/depthwise_weights", "shape": [3, 3, 921, 1], "dtype": "float32"}, {"name": "Openpose/MConv_Stage3_L1_1_pointwise/weights", "shape": [1, 1, 921, 64], "dtype": "float32"}, {"name": "Openpose/MConv_Stage3_L1_1_pointwise/Conv2D_bn_offset", "shape": [64], "dtype": "float32"}, {"name": "Openpose/MConv_Stage3_L1_2_depthwise/depthwise_weights", "shape": [3, 3, 64, 1], "dtype": "float32"}, {"name": "Openpose/MConv_Stage3_L1_2_pointwise/weights", "shape": [1, 1, 64, 64], "dtype": "float32"}, {"name": "Openpose/MConv_Stage3_L1_2_pointwise/Conv2D_bn_offset", "shape": [64], "dtype": "float32"}, {"name": "Openpose/MConv_Stage3_L1_3_depthwise/depthwise_weights", "shape": [3, 3, 64, 1], "dtype": "float32"}, {"name": "Openpose/MConv_Stage3_L1_3_pointwise/weights", "shape": [1, 1, 64, 64], "dtype": "float32"}, {"name": "Openpose/MConv_Stage3_L1_3_pointwise/Conv2D_bn_offset", "shape": [64], "dtype": "float32"}, {"name": "Openpose/MConv_Stage3_L1_4_depthwise/depthwise_weights", "shape": [1, 1, 64, 1], "dtype": "float32"}, {"name": "Openpose/MConv_Stage3_L1_4_pointwise/weights", "shape": [1, 1, 64, 64], "dtype": "float32"}, {"name": "Openpose/MConv_Stage3_L1_4_pointwise/Conv2D_bn_offset", "shape": [64], "dtype": "float32"}, {"name": "Openpose/MConv_Stage3_L1_5_depthwise/depthwise_weights", "shape": [1, 1, 64, 1], "dtype": "float32"}, {"name": "Openpose/MConv_Stage3_L1_5_pointwise/weights", "shape": [1, 1, 64, 38], "dtype": "float32"}, {"name": "Openpose/MConv_Stage3_L1_5_pointwise/Conv2D_bn_offset", "shape": [38], "dtype": "float32"}, {"name": "Openpose/MConv_Stage2_L1_1_depthwise/depthwise_weights", "shape": [3, 3, 921, 1], "dtype": "float32"}, {"name": "Openpose/MConv_Stage2_L1_1_pointwise/weights", "shape": [1, 1, 921, 64], "dtype": "float32"}, {"name": "Openpose/MConv_Stage2_L1_1_pointwise/Conv2D_bn_offset", "shape": [64], "dtype": "float32"}, {"name": "Openpose/MConv_Stage2_L1_2_depthwise/depthwise_weights", "shape": [3, 3, 64, 1], "dtype": "float32"}, {"name": "Openpose/MConv_Stage2_L1_2_pointwise/weights", "shape": [1, 1, 64, 64], "dtype": "float32"}, {"name": "Openpose/MConv_Stage2_L1_2_pointwise/Conv2D_bn_offset", "shape": [64], "dtype": "float32"}, {"name": "Openpose/MConv_Stage2_L1_3_depthwise/depthwise_weights", "shape": [3, 3, 64, 1], "dtype": "float32"}, {"name": "Openpose/MConv_Stage2_L1_3_pointwise/weights", "shape": [1, 1, 64, 64], "dtype": "float32"}, {"name": "Openpose/MConv_Stage2_L1_3_pointwise/Conv2D_bn_offset", "shape": [64], "dtype": "float32"}, {"name": "Openpose/MConv_Stage2_L1_4_depthwise/depthwise_weights", "shape": [1, 1, 64, 1], "dtype": "float32"}, {"name": "Openpose/MConv_Stage2_L1_4_pointwise/weights", "shape": [1, 1, 64, 64], "dtype": "float32"}, {"name": "Openpose/MConv_Stage2_L1_4_pointwise/Conv2D_bn_offset", "shape": [64], "dtype": "float32"}, {"name": "Openpose/MConv_Stage2_L1_5_depthwise/depthwise_weights", "shape": [1, 1, 64, 1], "dtype": "float32"}, {"name": "Openpose/MConv_Stage2_L1_5_pointwise/weights", "shape": [1, 1, 64, 38], "dtype": "float32"}, {"name": "Openpose/MConv_Stage2_L1_5_pointwise/Conv2D_bn_offset", "shape": [38], "dtype": "float32"}, {"name": "Openpose/MConv_Stage1_L1_1_depthwise/depthwise_weights", "shape": [3, 3, 864, 1], "dtype": "float32"}, {"name": "Openpose/MConv_Stage1_L1_1_pointwise/weights", "shape": [1, 1, 864, 64], "dtype": "float32"}, {"name": "Openpose/MConv_Stage1_L1_1_pointwise/Conv2D_bn_offset", "shape": [64], "dtype": "float32"}, {"name": "Openpose/MConv_Stage1_L1_2_depthwise/depthwise_weights", "shape": [3, 3, 64, 1], "dtype": "float32"}, {"name": "Openpose/MConv_Stage1_L1_2_pointwise/weights", "shape": [1, 1, 64, 64], "dtype": "float32"}, {"name": "Openpose/MConv_Stage1_L1_2_pointwise/Conv2D_bn_offset", "shape": [64], "dtype": "float32"}, {"name": "Openpose/MConv_Stage1_L1_3_depthwise/depthwise_weights", "shape": [3, 3, 64, 1], "dtype": "float32"}, {"name": "Openpose/MConv_Stage1_L1_3_pointwise/weights", "shape": [1, 1, 64, 64], "dtype": "float32"}, {"name": "Openpose/MConv_Stage1_L1_3_pointwise/Conv2D_bn_offset", "shape": [64], "dtype": "float32"}, {"name": "Openpose/MConv_Stage1_L1_4_depthwise/depthwise_weights", "shape": [1, 1, 64, 1], "dtype": "float32"}, {"name": "Openpose/MConv_Stage1_L1_4_pointwise/weights", "shape": [1, 1, 64, 256], "dtype": "float32"}, {"name": "Openpose/MConv_Stage1_L1_4_pointwise/Conv2D_bn_offset", "shape": [256], "dtype": "float32"}, {"name": "Openpose/MConv_Stage1_L1_5_depthwise/depthwise_weights", "shape": [1, 1, 256, 1], "dtype": "float32"}, {"name": "Openpose/MConv_Stage1_L1_5_pointwise/weights", "shape": [1, 1, 256, 38], "dtype": "float32"}, {"name": "Openpose/MConv_Stage1_L1_5_pointwise/Conv2D_bn_offset", "shape": [38], "dtype": "float32"}, {"name": "Openpose/MConv_Stage1_L2_1_depthwise/depthwise_weights", "shape": [3, 3, 864, 1], "dtype": "float32"}, {"name": "Openpose/MConv_Stage1_L2_1_pointwise/weights", "shape": [1, 1, 864, 64], "dtype": "float32"}, {"name": "Openpose/MConv_Stage1_L2_1_pointwise/Conv2D_bn_offset", "shape": [64], "dtype": "float32"}, {"name": "Openpose/MConv_Stage1_L2_2_depthwise/depthwise_weights", "shape": [3, 3, 64, 1], "dtype": "float32"}, {"name": "Openpose/MConv_Stage1_L2_2_pointwise/weights", "shape": [1, 1, 64, 64], "dtype": "float32"}, {"name": "Openpose/MConv_Stage1_L2_2_pointwise/Conv2D_bn_offset", "shape": [64], "dtype": "float32"}, {"name": "Openpose/MConv_Stage1_L2_3_depthwise/depthwise_weights", "shape": [3, 3, 64, 1], "dtype": "float32"}, {"name": "Openpose/MConv_Stage1_L2_3_pointwise/weights", "shape": [1, 1, 64, 64], "dtype": "float32"}, {"name": "Openpose/MConv_Stage1_L2_3_pointwise/Conv2D_bn_offset", "shape": [64], "dtype": "float32"}, {"name": "Openpose/MConv_Stage1_L2_4_depthwise/depthwise_weights", "shape": [1, 1, 64, 1], "dtype": "float32"}, {"name": "Openpose/MConv_Stage1_L2_4_pointwise/weights", "shape": [1, 1, 64, 256], "dtype": "float32"}, {"name": "Openpose/MConv_Stage1_L2_4_pointwise/Conv2D_bn_offset", "shape": [256], "dtype": "float32"}, {"name": "Openpose/MConv_Stage1_L2_5_depthwise/depthwise_weights", "shape": [1, 1, 256, 1], "dtype": "float32"}, {"name": "Openpose/MConv_Stage1_L2_5_pointwise/weights", "shape": [1, 1, 256, 19], "dtype": "float32"}, {"name": "Openpose/MConv_Stage1_L2_5_pointwise/Conv2D_bn_offset", "shape": [19], "dtype": "float32"}, {"name": "Openpose/MConv_Stage2_L2_1_depthwise/depthwise_weights", "shape": [3, 3, 921, 1], "dtype": "float32"}, {"name": "Openpose/MConv_Stage2_L2_1_pointwise/weights", "shape": [1, 1, 921, 64], "dtype": "float32"}, {"name": "Openpose/MConv_Stage2_L2_1_pointwise/Conv2D_bn_offset", "shape": [64], "dtype": "float32"}, {"name": "Openpose/MConv_Stage2_L2_2_depthwise/depthwise_weights", "shape": [3, 3, 64, 1], "dtype": "float32"}, {"name": "Openpose/MConv_Stage2_L2_2_pointwise/weights", "shape": [1, 1, 64, 64], "dtype": "float32"}, {"name": "Openpose/MConv_Stage2_L2_2_pointwise/Conv2D_bn_offset", "shape": [64], "dtype": "float32"}, {"name": "Openpose/MConv_Stage2_L2_3_depthwise/depthwise_weights", "shape": [3, 3, 64, 1], "dtype": "float32"}, {"name": "Openpose/MConv_Stage2_L2_3_pointwise/weights", "shape": [1, 1, 64, 64], "dtype": "float32"}, {"name": "Openpose/MConv_Stage2_L2_3_pointwise/Conv2D_bn_offset", "shape": [64], "dtype": "float32"}, {"name": "Openpose/MConv_Stage2_L2_4_depthwise/depthwise_weights", "shape": [1, 1, 64, 1], "dtype": "float32"}, {"name": "Openpose/MConv_Stage2_L2_4_pointwise/weights", "shape": [1, 1, 64, 64], "dtype": "float32"}, {"name": "Openpose/MConv_Stage2_L2_4_pointwise/Conv2D_bn_offset", "shape": [64], "dtype": "float32"}, {"name": "Openpose/MConv_Stage2_L2_5_depthwise/depthwise_weights", "shape": [1, 1, 64, 1], "dtype": "float32"}, {"name": "Openpose/MConv_Stage2_L2_5_pointwise/weights", "shape": [1, 1, 64, 19], "dtype": "float32"}, {"name": "Openpose/MConv_Stage2_L2_5_pointwise/Conv2D_bn_offset", "shape": [19], "dtype": "float32"}, {"name": "Openpose/MConv_Stage3_L2_1_depthwise/depthwise_weights", "shape": [3, 3, 921, 1], "dtype": "float32"}, {"name": "Openpose/MConv_Stage3_L2_1_pointwise/weights", "shape": [1, 1, 921, 64], "dtype": "float32"}, {"name": "Openpose/MConv_Stage3_L2_1_pointwise/Conv2D_bn_offset", "shape": [64], "dtype": "float32"}, {"name": "Openpose/MConv_Stage3_L2_2_depthwise/depthwise_weights", "shape": [3, 3, 64, 1], "dtype": "float32"}, {"name": "Openpose/MConv_Stage3_L2_2_pointwise/weights", "shape": [1, 1, 64, 64], "dtype": "float32"}, {"name": "Openpose/MConv_Stage3_L2_2_pointwise/Conv2D_bn_offset", "shape": [64], "dtype": "float32"}, {"name": "Openpose/MConv_Stage3_L2_3_depthwise/depthwise_weights", "shape": [3, 3, 64, 1], "dtype": "float32"}, {"name": "Openpose/MConv_Stage3_L2_3_pointwise/weights", "shape": [1, 1, 64, 64], "dtype": "float32"}, {"name": "Openpose/MConv_Stage3_L2_3_pointwise/Conv2D_bn_offset", "shape": [64], "dtype": "float32"}, {"name": "Openpose/MConv_Stage3_L2_4_depthwise/depthwise_weights", "shape": [1, 1, 64, 1], "dtype": "float32"}, {"name": "Openpose/MConv_Stage3_L2_4_pointwise/weights", "shape": [1, 1, 64, 64], "dtype": "float32"}, {"name": "Openpose/MConv_Stage3_L2_4_pointwise/Conv2D_bn_offset", "shape": [64], "dtype": "float32"}, {"name": "Openpose/MConv_Stage3_L2_5_depthwise/depthwise_weights", "shape": [1, 1, 64, 1], "dtype": "float32"}, {"name": "Openpose/MConv_Stage3_L2_5_pointwise/weights", "shape": [1, 1, 64, 19], "dtype": "float32"}, {"name": "Openpose/MConv_Stage3_L2_5_pointwise/Conv2D_bn_offset", "shape": [19], "dtype": "float32"}, {"name": "Openpose/MConv_Stage4_L2_1_depthwise/depthwise_weights", "shape": [3, 3, 921, 1], "dtype": "float32"}, {"name": "Openpose/MConv_Stage4_L2_1_pointwise/weights", "shape": [1, 1, 921, 64], "dtype": "float32"}, {"name": "Openpose/MConv_Stage4_L2_1_pointwise/Conv2D_bn_offset", "shape": [64], "dtype": "float32"}, {"name": "Openpose/MConv_Stage4_L2_2_depthwise/depthwise_weights", "shape": [3, 3, 64, 1], "dtype": "float32"}, {"name": "Openpose/MConv_Stage4_L2_2_pointwise/weights", "shape": [1, 1, 64, 64], "dtype": "float32"}, {"name": "Openpose/MConv_Stage4_L2_2_pointwise/Conv2D_bn_offset", "shape": [64], "dtype": "float32"}, {"name": "Openpose/MConv_Stage4_L2_3_depthwise/depthwise_weights", "shape": [3, 3, 64, 1], "dtype": "float32"}, {"name": "Openpose/MConv_Stage4_L2_3_pointwise/weights", "shape": [1, 1, 64, 64], "dtype": "float32"}, {"name": "Openpose/MConv_Stage4_L2_3_pointwise/Conv2D_bn_offset", "shape": [64], "dtype": "float32"}, {"name": "Openpose/MConv_Stage4_L2_4_depthwise/depthwise_weights", "shape": [1, 1, 64, 1], "dtype": "float32"}, {"name": "Openpose/MConv_Stage4_L2_4_pointwise/weights", "shape": [1, 1, 64, 64], "dtype": "float32"}, {"name": "Openpose/MConv_Stage4_L2_4_pointwise/Conv2D_bn_offset", "shape": [64], "dtype": "float32"}, {"name": "Openpose/MConv_Stage4_L2_5_depthwise/depthwise_weights", "shape": [1, 1, 64, 1], "dtype": "float32"}, {"name": "Openpose/MConv_Stage4_L2_5_pointwise/weights", "shape": [1, 1, 64, 19], "dtype": "float32"}, {"name": "Openpose/MConv_Stage4_L2_5_pointwise/Conv2D_bn_offset", "shape": [19], "dtype": "float32"}, {"name": "Openpose/MConv_Stage5_L2_1_depthwise/depthwise_weights", "shape": [3, 3, 921, 1], "dtype": "float32"}, {"name": "Openpose/MConv_Stage5_L2_1_pointwise/weights", "shape": [1, 1, 921, 64], "dtype": "float32"}, {"name": "Openpose/MConv_Stage5_L2_1_pointwise/Conv2D_bn_offset", "shape": [64], "dtype": "float32"}, {"name": "Openpose/MConv_Stage5_L2_2_depthwise/depthwise_weights", "shape": [3, 3, 64, 1], "dtype": "float32"}, {"name": "Openpose/MConv_Stage5_L2_2_pointwise/weights", "shape": [1, 1, 64, 64], "dtype": "float32"}, {"name": "Openpose/MConv_Stage5_L2_2_pointwise/Conv2D_bn_offset", "shape": [64], "dtype": "float32"}, {"name": "Openpose/MConv_Stage5_L2_3_depthwise/depthwise_weights", "shape": [3, 3, 64, 1], "dtype": "float32"}, {"name": "Openpose/MConv_Stage5_L2_3_pointwise/weights", "shape": [1, 1, 64, 64], "dtype": "float32"}, {"name": "Openpose/MConv_Stage5_L2_3_pointwise/Conv2D_bn_offset", "shape": [64], "dtype": "float32"}, {"name": "Openpose/MConv_Stage5_L2_4_depthwise/depthwise_weights", "shape": [1, 1, 64, 1], "dtype": "float32"}, {"name": "Openpose/MConv_Stage5_L2_4_pointwise/weights", "shape": [1, 1, 64, 64], "dtype": "float32"}, {"name": "Openpose/MConv_Stage5_L2_4_pointwise/Conv2D_bn_offset", "shape": [64], "dtype": "float32"}, {"name": "Openpose/MConv_Stage5_L2_5_depthwise/depthwise_weights", "shape": [1, 1, 64, 1], "dtype": "float32"}, {"name": "Openpose/MConv_Stage5_L2_5_pointwise/weights", "shape": [1, 1, 64, 19], "dtype": "float32"}, {"name": "Openpose/MConv_Stage5_L2_5_pointwise/Conv2D_bn_offset", "shape": [19], "dtype": "float32"}, {"name": "MobilenetV1/Conv2d_0/weights", "shape": [3, 3, 3, 24], "dtype": "float32"}, {"name": "MobilenetV1/Conv2d_0/Conv2D_bn_offset", "shape": [24], "dtype": "float32"}, {"name": "MobilenetV1/Conv2d_1_depthwise/depthwise_weights", "shape": [3, 3, 24, 1], "dtype": "float32"}, {"name": "MobilenetV1/Conv2d_1_pointwise/weights", "shape": [1, 1, 24, 48], "dtype": "float32"}, {"name": "MobilenetV1/Conv2d_1_pointwise/Conv2D_bn_offset", "shape": [48], "dtype": "float32"}, {"name": "MobilenetV1/Conv2d_2_depthwise/depthwise_weights", "shape": [3, 3, 48, 1], "dtype": "float32"}, {"name": "MobilenetV1/Conv2d_2_pointwise/weights", "shape": [1, 1, 48, 96], "dtype": "float32"}, {"name": "MobilenetV1/Conv2d_2_pointwise/Conv2D_bn_offset", "shape": [96], "dtype": "float32"}, {"name": "MobilenetV1/Conv2d_3_depthwise/depthwise_weights", "shape": [3, 3, 96, 1], "dtype": "float32"}, {"name": "MobilenetV1/Conv2d_3_pointwise/weights", "shape": [1, 1, 96, 96], "dtype": "float32"}, {"name": "MobilenetV1/Conv2d_3_pointwise/Conv2D_bn_offset", "shape": [96], "dtype": "float32"}, {"name": "MobilenetV1/Conv2d_4_depthwise/depthwise_weights", "shape": [3, 3, 96, 1], "dtype": "float32"}, {"name": "MobilenetV1/Conv2d_4_pointwise/weights", "shape": [1, 1, 96, 192], "dtype": "float32"}, {"name": "MobilenetV1/Conv2d_4_pointwise/Conv2D_bn_offset", "shape": [192], "dtype": "float32"}, {"name": "MobilenetV1/Conv2d_5_depthwise/depthwise_weights", "shape": [3, 3, 192, 1], "dtype": "float32"}, {"name": "MobilenetV1/Conv2d_5_pointwise/weights", "shape": [1, 1, 192, 192], "dtype": "float32"}, {"name": "MobilenetV1/Conv2d_5_pointwise/Conv2D_bn_offset", "shape": [192], "dtype": "float32"}, {"name": "MobilenetV1/Conv2d_6_depthwise/depthwise_weights", "shape": [3, 3, 192, 1], "dtype": "float32"}, {"name": "MobilenetV1/Conv2d_6_pointwise/weights", "shape": [1, 1, 192, 384], "dtype": "float32"}, {"name": "MobilenetV1/Conv2d_6_pointwise/Conv2D_bn_offset", "shape": [384], "dtype": "float32"}, {"name": "MobilenetV1/Conv2d_7_depthwise/depthwise_weights", "shape": [3, 3, 384, 1], "dtype": "float32"}, {"name": "MobilenetV1/Conv2d_7_pointwise/weights", "shape": [1, 1, 384, 384], "dtype": "float32"}, {"name": "MobilenetV1/Conv2d_7_pointwise/Conv2D_bn_offset", "shape": [384], "dtype": "float32"}, {"name": "MobilenetV1/Conv2d_8_depthwise/depthwise_weights", "shape": [3, 3, 384, 1], "dtype": "float32"}, {"name": "MobilenetV1/Conv2d_8_pointwise/weights", "shape": [1, 1, 384, 384], "dtype": "float32"}, {"name": "MobilenetV1/Conv2d_8_pointwise/Conv2D_bn_offset", "shape": [384], "dtype": "float32"}, {"name": "MobilenetV1/Conv2d_9_depthwise/depthwise_weights", "shape": [3, 3, 384, 1], "dtype": "float32"}, {"name": "MobilenetV1/Conv2d_9_pointwise/weights", "shape": [1, 1, 384, 384], "dtype": "float32"}, {"name": "MobilenetV1/Conv2d_9_pointwise/Conv2D_bn_offset", "shape": [384], "dtype": "float32"}, {"name": "MobilenetV1/Conv2d_10_depthwise/depthwise_weights", "shape": [3, 3, 384, 1], "dtype": "float32"}, {"name": "MobilenetV1/Conv2d_10_pointwise/weights", "shape": [1, 1, 384, 384], "dtype": "float32"}, {"name": "MobilenetV1/Conv2d_10_pointwise/Conv2D_bn_offset", "shape": [384], "dtype": "float32"}, {"name": "MobilenetV1/Conv2d_11_depthwise/depthwise_weights", "shape": [3, 3, 384, 1], "dtype": "float32"}, {"name": "MobilenetV1/Conv2d_11_pointwise/weights", "shape": [1, 1, 384, 384], "dtype": "float32"}, {"name": "MobilenetV1/Conv2d_11_pointwise/Conv2D_bn_offset", "shape": [384], "dtype": "float32"}, {"name": "Openpose/MConv_Stage6_L1_1_depthwise/depthwise_weights", "shape": [3, 3, 921, 1], "dtype": "float32"}, {"name": "Openpose/MConv_Stage6_L1_1_pointwise/weights", "shape": [1, 1, 921, 64], "dtype": "float32"}, {"name": "Openpose/MConv_Stage6_L1_1_pointwise/Conv2D_bn_offset", "shape": [64], "dtype": "float32"}, {"name": "Openpose/MConv_Stage6_L1_2_depthwise/depthwise_weights", "shape": [3, 3, 64, 1], "dtype": "float32"}, {"name": "Openpose/MConv_Stage6_L1_2_pointwise/weights", "shape": [1, 1, 64, 64], "dtype": "float32"}, {"name": "Openpose/MConv_Stage6_L1_2_pointwise/Conv2D_bn_offset", "shape": [64], "dtype": "float32"}, {"name": "Openpose/MConv_Stage6_L1_3_depthwise/depthwise_weights", "shape": [3, 3, 64, 1], "dtype": "float32"}, {"name": "Openpose/MConv_Stage6_L1_3_pointwise/weights", "shape": [1, 1, 64, 64], "dtype": "float32"}, {"name": "Openpose/MConv_Stage6_L1_3_pointwise/Conv2D_bn_offset", "shape": [64], "dtype": "float32"}, {"name": "Openpose/MConv_Stage6_L1_4_depthwise/depthwise_weights", "shape": [1, 1, 64, 1], "dtype": "float32"}, {"name": "Openpose/MConv_Stage6_L1_4_pointwise/weights", "shape": [1, 1, 64, 64], "dtype": "float32"}, {"name": "Openpose/MConv_Stage6_L1_4_pointwise/Conv2D_bn_offset", "shape": [64], "dtype": "float32"}, {"name": "Openpose/MConv_Stage6_L1_5_depthwise/depthwise_weights", "shape": [1, 1, 64, 1], "dtype": "float32"}, {"name": "Openpose/MConv_Stage6_L1_5_pointwise/weights", "shape": [1, 1, 64, 38], "dtype": "float32"}, {"name": "Openpose/MConv_Stage6_L1_5_pointwise/Conv2D_bn_offset", "shape": [38], "dtype": "float32"}, {"name": "Openpose/MConv_Stage2_concat/axis", "shape": [], "dtype": "int32"}]}]}