{"modelTopology":{"node":[{"input":[],"attr":{"value":{"tensor":{"floatVal":[],"doubleVal":[],"intVal":[],"stringVal":[],"scomplexVal":[],"int64Val":[],"boolVal":[],"uint32Val":[],"uint64Val":[],"dtype":1,"tensorShape":{"dim":[{"size":"1"},{"size":"1"},{"size":"320"},{"size":"256"}]}}},"dtype":{"type":1}},"name":"image_pooling/weights","op":"Const"},{"input":[],"attr":{"value":{"tensor":{"floatVal":[],"doubleVal":[],"intVal":[],"stringVal":[],"scomplexVal":[],"int64Val":[],"boolVal":[],"uint32Val":[],"uint64Val":[],"dtype":1,"tensorShape":{"dim":[{"size":"256"}]}}},"dtype":{"type":1}},"name":"image_pooling/BatchNorm/gamma","op":"Const"},{"input":[],"attr":{"value":{"tensor":{"floatVal":[],"doubleVal":[],"intVal":[],"stringVal":[],"scomplexVal":[],"int64Val":[],"boolVal":[],"uint32Val":[],"uint64Val":[],"dtype":1,"tensorShape":{"dim":[{"size":"256"}]}}},"dtype":{"type":1}},"name":"image_pooling/BatchNorm/beta","op":"Const"},{"input":[],"attr":{"value":{"tensor":{"floatVal":[],"doubleVal":[],"intVal":[],"stringVal":[],"scomplexVal":[],"int64Val":[],"boolVal":[],"uint32Val":[],"uint64Val":[],"dtype":1,"tensorShape":{"dim":[{"size":"256"}]}}},"dtype":{"type":1}},"name":"image_pooling/BatchNorm/moving_mean","op":"Const"},{"input":[],"attr":{"value":{"tensor":{"floatVal":[],"doubleVal":[],"intVal":[],"stringVal":[],"scomplexVal":[],"int64Val":[],"boolVal":[],"uint32Val":[],"uint64Val":[],"dtype":1,"tensorShape":{"dim":[{"size":"256"}]}}},"dtype":{"type":1}},"name":"image_pooling/BatchNorm/moving_variance","op":"Const"},{"input":[],"attr":{"value":{"tensor":{"floatVal":[0.007843137718737125],"doubleVal":[],"intVal":[],"stringVal":[],"scomplexVal":[],"int64Val":[],"boolVal":[],"uint32Val":[],"uint64Val":[],"dtype":1,"tensorShape":{"dim":[]}}},"dtype":{"type":1}},"name":"mul_1/x","op":"Const"},{"input":[],"attr":{"dtype":{"type":3},"value":{"tensor":{"floatVal":[],"doubleVal":[],"intVal":[513],"stringVal":[],"scomplexVal":[],"int64Val":[],"boolVal":[],"uint32Val":[],"uint64Val":[],"dtype":3,"tensorShape":{"dim":[]}}}},"name":"sub_1/x","op":"Const"},{"input":[],"attr":{"dtype":{"type":3},"value":{"tensor":{"floatVal":[],"doubleVal":[],"intVal":[],"stringVal":[],"scomplexVal":[],"int64Val":[],"boolVal":[],"uint32Val":[],"uint64Val":[],"dtype":3,"tensorShape":{"dim":[{"size":"2"}]}}}},"name":"stack_2","op":"Const"},{"input":[],"attr":{"value":{"tensor":{"floatVal":[],"doubleVal":[],"intVal":[],"stringVal":[],"scomplexVal":[],"int64Val":[],"boolVal":[],"uint32Val":[],"uint64Val":[],"dtype":1,"tensorShape":{"dim":[{"size":"1"},{"size":"1"},{"size":"3"}]}}},"dtype":{"type":1}},"name":"Reshape","op":"Const"},{"input":[],"attr":{"value":{"tensor":{"floatVal":[],"doubleVal":[],"intVal":[0],"stringVal":[],"scomplexVal":[],"int64Val":[],"boolVal":[],"uint32Val":[],"uint64Val":[],"dtype":3,"tensorShape":{"dim":[]}}},"dtype":{"type":3}},"name":"stack/0","op":"Const"},{"input":[],"attr":{"value":{"tensor":{"floatVal":[1],"doubleVal":[],"intVal":[],"stringVal":[],"scomplexVal":[],"int64Val":[],"boolVal":[],"uint32Val":[],"uint64Val":[],"dtype":1,"tensorShape":{"dim":[]}}},"dtype":{"type":1}},"name":"ToFloat/x","op":"Const"},{"input":[],"attr":{"value":{"tensor":{"floatVal":[],"doubleVal":[],"intVal":[],"stringVal":[],"scomplexVal":[],"int64Val":[],"boolVal":[],"uint32Val":[],"uint64Val":[],"dtype":1,"tensorShape":{"dim":[{"size":"3"},{"size":"3"},{"size":"3"},{"size":"32"}]}}},"dtype":{"type":1}},"name":"MobilenetV2/Conv/weights","op":"Const"},{"input":[],"attr":{"value":{"tensor":{"floatVal":[],"doubleVal":[],"intVal":[],"stringVal":[],"scomplexVal":[],"int64Val":[],"boolVal":[],"uint32Val":[],"uint64Val":[],"dtype":1,"tensorShape":{"dim":[{"size":"32"}]}}},"dtype":{"type":1}},"name":"MobilenetV2/Conv/BatchNorm/gamma","op":"Const"},{"input":[],"attr":{"value":{"tensor":{"floatVal":[],"doubleVal":[],"intVal":[],"stringVal":[],"scomplexVal":[],"int64Val":[],"boolVal":[],"uint32Val":[],"uint64Val":[],"dtype":1,"tensorShape":{"dim":[{"size":"32"}]}}},"dtype":{"type":1}},"name":"MobilenetV2/Conv/BatchNorm/beta","op":"Const"},{"input":[],"attr":{"value":{"tensor":{"floatVal":[],"doubleVal":[],"intVal":[],"stringVal":[],"scomplexVal":[],"int64Val":[],"boolVal":[],"uint32Val":[],"uint64Val":[],"dtype":1,"tensorShape":{"dim":[{"size":"32"}]}}},"dtype":{"type":1}},"name":"MobilenetV2/Conv/BatchNorm/moving_mean","op":"Const"},{"input":[],"attr":{"dtype":{"type":1},"value":{"tensor":{"floatVal":[],"doubleVal":[],"intVal":[],"stringVal":[],"scomplexVal":[],"int64Val":[],"boolVal":[],"uint32Val":[],"uint64Val":[],"dtype":1,"tensorShape":{"dim":[{"size":"32"}]}}}},"name":"MobilenetV2/Conv/BatchNorm/moving_variance","op":"Const"},{"input":[],"attr":{"value":{"tensor":{"floatVal":[],"doubleVal":[],"intVal":[],"stringVal":[],"scomplexVal":[],"int64Val":[],"boolVal":[],"uint32Val":[],"uint64Val":[],"dtype":1,"tensorShape":{"dim":[{"size":"3"},{"size":"3"},{"size":"32"},{"size":"1"}]}}},"dtype":{"type":1}},"name":"MobilenetV2/expanded_conv/depthwise/depthwise_weights","op":"Const"},{"input":[],"attr":{"value":{"tensor":{"floatVal":[],"doubleVal":[],"intVal":[],"stringVal":[],"scomplexVal":[],"int64Val":[],"boolVal":[],"uint32Val":[],"uint64Val":[],"dtype":1,"tensorShape":{"dim":[{"size":"32"}]}}},"dtype":{"type":1}},"name":"MobilenetV2/expanded_conv/depthwise/BatchNorm/gamma","op":"Const"},{"input":[],"attr":{"value":{"tensor":{"floatVal":[],"doubleVal":[],"intVal":[],"stringVal":[],"scomplexVal":[],"int64Val":[],"boolVal":[],"uint32Val":[],"uint64Val":[],"dtype":1,"tensorShape":{"dim":[{"size":"32"}]}}},"dtype":{"type":1}},"name":"MobilenetV2/expanded_conv/depthwise/BatchNorm/beta","op":"Const"},{"input":[],"attr":{"value":{"tensor":{"floatVal":[],"doubleVal":[],"intVal":[],"stringVal":[],"scomplexVal":[],"int64Val":[],"boolVal":[],"uint32Val":[],"uint64Val":[],"dtype":1,"tensorShape":{"dim":[{"size":"32"}]}}},"dtype":{"type":1}},"name":"MobilenetV2/expanded_conv/depthwise/BatchNorm/moving_mean","op":"Const"},{"input":[],"attr":{"value":{"tensor":{"floatVal":[],"doubleVal":[],"intVal":[],"stringVal":[],"scomplexVal":[],"int64Val":[],"boolVal":[],"uint32Val":[],"uint64Val":[],"dtype":1,"tensorShape":{"dim":[{"size":"32"}]}}},"dtype":{"type":1}},"name":"MobilenetV2/expanded_conv/depthwise/BatchNorm/moving_variance","op":"Const"},{"input":[],"attr":{"value":{"tensor":{"floatVal":[],"doubleVal":[],"intVal":[],"stringVal":[],"scomplexVal":[],"int64Val":[],"boolVal":[],"uint32Val":[],"uint64Val":[],"dtype":1,"tensorShape":{"dim":[{"size":"1"},{"size":"1"},{"size":"32"},{"size":"16"}]}}},"dtype":{"type":1}},"name":"MobilenetV2/expanded_conv/project/weights","op":"Const"},{"input":[],"attr":{"value":{"tensor":{"floatVal":[],"doubleVal":[],"intVal":[],"stringVal":[],"scomplexVal":[],"int64Val":[],"boolVal":[],"uint32Val":[],"uint64Val":[],"dtype":1,"tensorShape":{"dim":[{"size":"16"}]}}},"dtype":{"type":1}},"name":"MobilenetV2/expanded_conv/project/BatchNorm/gamma","op":"Const"},{"input":[],"attr":{"value":{"tensor":{"floatVal":[],"doubleVal":[],"intVal":[],"stringVal":[],"scomplexVal":[],"int64Val":[],"boolVal":[],"uint32Val":[],"uint64Val":[],"dtype":1,"tensorShape":{"dim":[{"size":"16"}]}}},"dtype":{"type":1}},"name":"MobilenetV2/expanded_conv/project/BatchNorm/beta","op":"Const"},{"input":[],"attr":{"value":{"tensor":{"floatVal":[],"doubleVal":[],"intVal":[],"stringVal":[],"scomplexVal":[],"int64Val":[],"boolVal":[],"uint32Val":[],"uint64Val":[],"dtype":1,"tensorShape":{"dim":[{"size":"16"}]}}},"dtype":{"type":1}},"name":"MobilenetV2/expanded_conv/project/BatchNorm/moving_mean","op":"Const"},{"input":[],"attr":{"value":{"tensor":{"floatVal":[],"doubleVal":[],"intVal":[],"stringVal":[],"scomplexVal":[],"int64Val":[],"boolVal":[],"uint32Val":[],"uint64Val":[],"dtype":1,"tensorShape":{"dim":[{"size":"16"}]}}},"dtype":{"type":1}},"name":"MobilenetV2/expanded_conv/project/BatchNorm/moving_variance","op":"Const"},{"input":[],"attr":{"value":{"tensor":{"floatVal":[],"doubleVal":[],"intVal":[],"stringVal":[],"scomplexVal":[],"int64Val":[],"boolVal":[],"uint32Val":[],"uint64Val":[],"dtype":1,"tensorShape":{"dim":[{"size":"1"},{"size":"1"},{"size":"16"},{"size":"96"}]}}},"dtype":{"type":1}},"name":"MobilenetV2/expanded_conv_1/expand/weights","op":"Const"},{"input":[],"attr":{"dtype":{"type":1},"value":{"tensor":{"floatVal":[],"doubleVal":[],"intVal":[],"stringVal":[],"scomplexVal":[],"int64Val":[],"boolVal":[],"uint32Val":[],"uint64Val":[],"dtype":1,"tensorShape":{"dim":[{"size":"96"}]}}}},"name":"MobilenetV2/expanded_conv_1/expand/BatchNorm/gamma","op":"Const"},{"input":[],"attr":{"value":{"tensor":{"floatVal":[],"doubleVal":[],"intVal":[],"stringVal":[],"scomplexVal":[],"int64Val":[],"boolVal":[],"uint32Val":[],"uint64Val":[],"dtype":1,"tensorShape":{"dim":[{"size":"96"}]}}},"dtype":{"type":1}},"name":"MobilenetV2/expanded_conv_1/expand/BatchNorm/beta","op":"Const"},{"input":[],"attr":{"dtype":{"type":1},"value":{"tensor":{"floatVal":[],"doubleVal":[],"intVal":[],"stringVal":[],"scomplexVal":[],"int64Val":[],"boolVal":[],"uint32Val":[],"uint64Val":[],"dtype":1,"tensorShape":{"dim":[{"size":"96"}]}}}},"name":"MobilenetV2/expanded_conv_1/expand/BatchNorm/moving_mean","op":"Const"},{"input":[],"attr":{"dtype":{"type":1},"value":{"tensor":{"floatVal":[],"doubleVal":[],"intVal":[],"stringVal":[],"scomplexVal":[],"int64Val":[],"boolVal":[],"uint32Val":[],"uint64Val":[],"dtype":1,"tensorShape":{"dim":[{"size":"96"}]}}}},"name":"MobilenetV2/expanded_conv_1/expand/BatchNorm/moving_variance","op":"Const"},{"input":[],"attr":{"dtype":{"type":1},"value":{"tensor":{"floatVal":[],"doubleVal":[],"intVal":[],"stringVal":[],"scomplexVal":[],"int64Val":[],"boolVal":[],"uint32Val":[],"uint64Val":[],"dtype":1,"tensorShape":{"dim":[{"size":"3"},{"size":"3"},{"size":"96"},{"size":"1"}]}}}},"name":"MobilenetV2/expanded_conv_1/depthwise/depthwise_weights","op":"Const"},{"input":[],"attr":{"value":{"tensor":{"floatVal":[],"doubleVal":[],"intVal":[],"stringVal":[],"scomplexVal":[],"int64Val":[],"boolVal":[],"uint32Val":[],"uint64Val":[],"dtype":1,"tensorShape":{"dim":[{"size":"96"}]}}},"dtype":{"type":1}},"name":"MobilenetV2/expanded_conv_1/depthwise/BatchNorm/gamma","op":"Const"},{"input":[],"attr":{"value":{"tensor":{"floatVal":[],"doubleVal":[],"intVal":[],"stringVal":[],"scomplexVal":[],"int64Val":[],"boolVal":[],"uint32Val":[],"uint64Val":[],"dtype":1,"tensorShape":{"dim":[{"size":"96"}]}}},"dtype":{"type":1}},"name":"MobilenetV2/expanded_conv_1/depthwise/BatchNorm/beta","op":"Const"},{"input":[],"attr":{"value":{"tensor":{"floatVal":[],"doubleVal":[],"intVal":[],"stringVal":[],"scomplexVal":[],"int64Val":[],"boolVal":[],"uint32Val":[],"uint64Val":[],"dtype":1,"tensorShape":{"dim":[{"size":"96"}]}}},"dtype":{"type":1}},"name":"MobilenetV2/expanded_conv_1/depthwise/BatchNorm/moving_mean","op":"Const"},{"input":[],"attr":{"dtype":{"type":1},"value":{"tensor":{"floatVal":[],"doubleVal":[],"intVal":[],"stringVal":[],"scomplexVal":[],"int64Val":[],"boolVal":[],"uint32Val":[],"uint64Val":[],"dtype":1,"tensorShape":{"dim":[{"size":"96"}]}}}},"name":"MobilenetV2/expanded_conv_1/depthwise/BatchNorm/moving_variance","op":"Const"},{"input":[],"attr":{"value":{"tensor":{"floatVal":[],"doubleVal":[],"intVal":[],"stringVal":[],"scomplexVal":[],"int64Val":[],"boolVal":[],"uint32Val":[],"uint64Val":[],"dtype":1,"tensorShape":{"dim":[{"size":"1"},{"size":"1"},{"size":"96"},{"size":"24"}]}}},"dtype":{"type":1}},"name":"MobilenetV2/expanded_conv_1/project/weights","op":"Const"},{"input":[],"attr":{"value":{"tensor":{"floatVal":[],"doubleVal":[],"intVal":[],"stringVal":[],"scomplexVal":[],"int64Val":[],"boolVal":[],"uint32Val":[],"uint64Val":[],"dtype":1,"tensorShape":{"dim":[{"size":"24"}]}}},"dtype":{"type":1}},"name":"MobilenetV2/expanded_conv_1/project/BatchNorm/gamma","op":"Const"},{"input":[],"attr":{"value":{"tensor":{"floatVal":[],"doubleVal":[],"intVal":[],"stringVal":[],"scomplexVal":[],"int64Val":[],"boolVal":[],"uint32Val":[],"uint64Val":[],"dtype":1,"tensorShape":{"dim":[{"size":"24"}]}}},"dtype":{"type":1}},"name":"MobilenetV2/expanded_conv_1/project/BatchNorm/beta","op":"Const"},{"input":[],"attr":{"value":{"tensor":{"floatVal":[],"doubleVal":[],"intVal":[],"stringVal":[],"scomplexVal":[],"int64Val":[],"boolVal":[],"uint32Val":[],"uint64Val":[],"dtype":1,"tensorShape":{"dim":[{"size":"24"}]}}},"dtype":{"type":1}},"name":"MobilenetV2/expanded_conv_1/project/BatchNorm/moving_mean","op":"Const"},{"input":[],"attr":{"value":{"tensor":{"floatVal":[],"doubleVal":[],"intVal":[],"stringVal":[],"scomplexVal":[],"int64Val":[],"boolVal":[],"uint32Val":[],"uint64Val":[],"dtype":1,"tensorShape":{"dim":[{"size":"24"}]}}},"dtype":{"type":1}},"name":"MobilenetV2/expanded_conv_1/project/BatchNorm/moving_variance","op":"Const"},{"input":[],"attr":{"value":{"tensor":{"floatVal":[],"doubleVal":[],"intVal":[],"stringVal":[],"scomplexVal":[],"int64Val":[],"boolVal":[],"uint32Val":[],"uint64Val":[],"dtype":1,"tensorShape":{"dim":[{"size":"1"},{"size":"1"},{"size":"24"},{"size":"144"}]}}},"dtype":{"type":1}},"name":"MobilenetV2/expanded_conv_2/expand/weights","op":"Const"},{"input":[],"attr":{"dtype":{"type":1},"value":{"tensor":{"floatVal":[],"doubleVal":[],"intVal":[],"stringVal":[],"scomplexVal":[],"int64Val":[],"boolVal":[],"uint32Val":[],"uint64Val":[],"dtype":1,"tensorShape":{"dim":[{"size":"144"}]}}}},"name":"MobilenetV2/expanded_conv_2/expand/BatchNorm/gamma","op":"Const"},{"input":[],"attr":{"value":{"tensor":{"floatVal":[],"doubleVal":[],"intVal":[],"stringVal":[],"scomplexVal":[],"int64Val":[],"boolVal":[],"uint32Val":[],"uint64Val":[],"dtype":1,"tensorShape":{"dim":[{"size":"144"}]}}},"dtype":{"type":1}},"name":"MobilenetV2/expanded_conv_2/expand/BatchNorm/beta","op":"Const"},{"input":[],"attr":{"value":{"tensor":{"floatVal":[],"doubleVal":[],"intVal":[],"stringVal":[],"scomplexVal":[],"int64Val":[],"boolVal":[],"uint32Val":[],"uint64Val":[],"dtype":1,"tensorShape":{"dim":[{"size":"144"}]}}},"dtype":{"type":1}},"name":"MobilenetV2/expanded_conv_2/expand/BatchNorm/moving_mean","op":"Const"},{"input":[],"attr":{"value":{"tensor":{"floatVal":[],"doubleVal":[],"intVal":[],"stringVal":[],"scomplexVal":[],"int64Val":[],"boolVal":[],"uint32Val":[],"uint64Val":[],"dtype":1,"tensorShape":{"dim":[{"size":"144"}]}}},"dtype":{"type":1}},"name":"MobilenetV2/expanded_conv_2/expand/BatchNorm/moving_variance","op":"Const"},{"input":[],"attr":{"value":{"tensor":{"floatVal":[],"doubleVal":[],"intVal":[],"stringVal":[],"scomplexVal":[],"int64Val":[],"boolVal":[],"uint32Val":[],"uint64Val":[],"dtype":1,"tensorShape":{"dim":[{"size":"3"},{"size":"3"},{"size":"144"},{"size":"1"}]}}},"dtype":{"type":1}},"name":"MobilenetV2/expanded_conv_2/depthwise/depthwise_weights","op":"Const"},{"input":[],"attr":{"dtype":{"type":1},"value":{"tensor":{"floatVal":[],"doubleVal":[],"intVal":[],"stringVal":[],"scomplexVal":[],"int64Val":[],"boolVal":[],"uint32Val":[],"uint64Val":[],"dtype":1,"tensorShape":{"dim":[{"size":"144"}]}}}},"name":"MobilenetV2/expanded_conv_2/depthwise/BatchNorm/gamma","op":"Const"},{"input":[],"attr":{"value":{"tensor":{"floatVal":[],"doubleVal":[],"intVal":[],"stringVal":[],"scomplexVal":[],"int64Val":[],"boolVal":[],"uint32Val":[],"uint64Val":[],"dtype":1,"tensorShape":{"dim":[{"size":"144"}]}}},"dtype":{"type":1}},"name":"MobilenetV2/expanded_conv_2/depthwise/BatchNorm/beta","op":"Const"},{"input":[],"attr":{"value":{"tensor":{"floatVal":[],"doubleVal":[],"intVal":[],"stringVal":[],"scomplexVal":[],"int64Val":[],"boolVal":[],"uint32Val":[],"uint64Val":[],"dtype":1,"tensorShape":{"dim":[{"size":"144"}]}}},"dtype":{"type":1}},"name":"MobilenetV2/expanded_conv_2/depthwise/BatchNorm/moving_mean","op":"Const"},{"input":[],"attr":{"value":{"tensor":{"floatVal":[],"doubleVal":[],"intVal":[],"stringVal":[],"scomplexVal":[],"int64Val":[],"boolVal":[],"uint32Val":[],"uint64Val":[],"dtype":1,"tensorShape":{"dim":[{"size":"144"}]}}},"dtype":{"type":1}},"name":"MobilenetV2/expanded_conv_2/depthwise/BatchNorm/moving_variance","op":"Const"},{"input":[],"attr":{"value":{"tensor":{"floatVal":[],"doubleVal":[],"intVal":[],"stringVal":[],"scomplexVal":[],"int64Val":[],"boolVal":[],"uint32Val":[],"uint64Val":[],"dtype":1,"tensorShape":{"dim":[{"size":"1"},{"size":"1"},{"size":"144"},{"size":"24"}]}}},"dtype":{"type":1}},"name":"MobilenetV2/expanded_conv_2/project/weights","op":"Const"},{"input":[],"attr":{"value":{"tensor":{"floatVal":[],"doubleVal":[],"intVal":[],"stringVal":[],"scomplexVal":[],"int64Val":[],"boolVal":[],"uint32Val":[],"uint64Val":[],"dtype":1,"tensorShape":{"dim":[{"size":"24"}]}}},"dtype":{"type":1}},"name":"MobilenetV2/expanded_conv_2/project/BatchNorm/gamma","op":"Const"},{"input":[],"attr":{"dtype":{"type":1},"value":{"tensor":{"floatVal":[],"doubleVal":[],"intVal":[],"stringVal":[],"scomplexVal":[],"int64Val":[],"boolVal":[],"uint32Val":[],"uint64Val":[],"dtype":1,"tensorShape":{"dim":[{"size":"24"}]}}}},"name":"MobilenetV2/expanded_conv_2/project/BatchNorm/beta","op":"Const"},{"input":[],"attr":{"value":{"tensor":{"floatVal":[],"doubleVal":[],"intVal":[],"stringVal":[],"scomplexVal":[],"int64Val":[],"boolVal":[],"uint32Val":[],"uint64Val":[],"dtype":1,"tensorShape":{"dim":[{"size":"24"}]}}},"dtype":{"type":1}},"name":"MobilenetV2/expanded_conv_2/project/BatchNorm/moving_mean","op":"Const"},{"input":[],"attr":{"dtype":{"type":1},"value":{"tensor":{"floatVal":[],"doubleVal":[],"intVal":[],"stringVal":[],"scomplexVal":[],"int64Val":[],"boolVal":[],"uint32Val":[],"uint64Val":[],"dtype":1,"tensorShape":{"dim":[{"size":"24"}]}}}},"name":"MobilenetV2/expanded_conv_2/project/BatchNorm/moving_variance","op":"Const"},{"input":[],"attr":{"value":{"tensor":{"floatVal":[],"doubleVal":[],"intVal":[],"stringVal":[],"scomplexVal":[],"int64Val":[],"boolVal":[],"uint32Val":[],"uint64Val":[],"dtype":1,"tensorShape":{"dim":[{"size":"1"},{"size":"1"},{"size":"24"},{"size":"144"}]}}},"dtype":{"type":1}},"name":"MobilenetV2/expanded_conv_3/expand/weights","op":"Const"},{"input":[],"attr":{"value":{"tensor":{"floatVal":[],"doubleVal":[],"intVal":[],"stringVal":[],"scomplexVal":[],"int64Val":[],"boolVal":[],"uint32Val":[],"uint64Val":[],"dtype":1,"tensorShape":{"dim":[{"size":"144"}]}}},"dtype":{"type":1}},"name":"MobilenetV2/expanded_conv_3/expand/BatchNorm/gamma","op":"Const"},{"input":[],"attr":{"dtype":{"type":1},"value":{"tensor":{"floatVal":[],"doubleVal":[],"intVal":[],"stringVal":[],"scomplexVal":[],"int64Val":[],"boolVal":[],"uint32Val":[],"uint64Val":[],"dtype":1,"tensorShape":{"dim":[{"size":"144"}]}}}},"name":"MobilenetV2/expanded_conv_3/expand/BatchNorm/beta","op":"Const"},{"input":[],"attr":{"dtype":{"type":1},"value":{"tensor":{"floatVal":[],"doubleVal":[],"intVal":[],"stringVal":[],"scomplexVal":[],"int64Val":[],"boolVal":[],"uint32Val":[],"uint64Val":[],"dtype":1,"tensorShape":{"dim":[{"size":"144"}]}}}},"name":"MobilenetV2/expanded_conv_3/expand/BatchNorm/moving_mean","op":"Const"},{"input":[],"attr":{"value":{"tensor":{"floatVal":[],"doubleVal":[],"intVal":[],"stringVal":[],"scomplexVal":[],"int64Val":[],"boolVal":[],"uint32Val":[],"uint64Val":[],"dtype":1,"tensorShape":{"dim":[{"size":"144"}]}}},"dtype":{"type":1}},"name":"MobilenetV2/expanded_conv_3/expand/BatchNorm/moving_variance","op":"Const"},{"input":[],"attr":{"dtype":{"type":1},"value":{"tensor":{"floatVal":[],"doubleVal":[],"intVal":[],"stringVal":[],"scomplexVal":[],"int64Val":[],"boolVal":[],"uint32Val":[],"uint64Val":[],"dtype":1,"tensorShape":{"dim":[{"size":"3"},{"size":"3"},{"size":"144"},{"size":"1"}]}}}},"name":"MobilenetV2/expanded_conv_3/depthwise/depthwise_weights","op":"Const"},{"input":[],"attr":{"dtype":{"type":1},"value":{"tensor":{"floatVal":[],"doubleVal":[],"intVal":[],"stringVal":[],"scomplexVal":[],"int64Val":[],"boolVal":[],"uint32Val":[],"uint64Val":[],"dtype":1,"tensorShape":{"dim":[{"size":"144"}]}}}},"name":"MobilenetV2/expanded_conv_3/depthwise/BatchNorm/gamma","op":"Const"},{"input":[],"attr":{"value":{"tensor":{"floatVal":[],"doubleVal":[],"intVal":[],"stringVal":[],"scomplexVal":[],"int64Val":[],"boolVal":[],"uint32Val":[],"uint64Val":[],"dtype":1,"tensorShape":{"dim":[{"size":"144"}]}}},"dtype":{"type":1}},"name":"MobilenetV2/expanded_conv_3/depthwise/BatchNorm/beta","op":"Const"},{"input":[],"attr":{"value":{"tensor":{"floatVal":[],"doubleVal":[],"intVal":[],"stringVal":[],"scomplexVal":[],"int64Val":[],"boolVal":[],"uint32Val":[],"uint64Val":[],"dtype":1,"tensorShape":{"dim":[{"size":"144"}]}}},"dtype":{"type":1}},"name":"MobilenetV2/expanded_conv_3/depthwise/BatchNorm/moving_mean","op":"Const"},{"input":[],"attr":{"value":{"tensor":{"floatVal":[],"doubleVal":[],"intVal":[],"stringVal":[],"scomplexVal":[],"int64Val":[],"boolVal":[],"uint32Val":[],"uint64Val":[],"dtype":1,"tensorShape":{"dim":[{"size":"144"}]}}},"dtype":{"type":1}},"name":"MobilenetV2/expanded_conv_3/depthwise/BatchNorm/moving_variance","op":"Const"},{"input":[],"attr":{"dtype":{"type":1},"value":{"tensor":{"floatVal":[],"doubleVal":[],"intVal":[],"stringVal":[],"scomplexVal":[],"int64Val":[],"boolVal":[],"uint32Val":[],"uint64Val":[],"dtype":1,"tensorShape":{"dim":[{"size":"1"},{"size":"1"},{"size":"144"},{"size":"32"}]}}}},"name":"MobilenetV2/expanded_conv_3/project/weights","op":"Const"},{"input":[],"attr":{"value":{"tensor":{"floatVal":[],"doubleVal":[],"intVal":[],"stringVal":[],"scomplexVal":[],"int64Val":[],"boolVal":[],"uint32Val":[],"uint64Val":[],"dtype":1,"tensorShape":{"dim":[{"size":"32"}]}}},"dtype":{"type":1}},"name":"MobilenetV2/expanded_conv_3/project/BatchNorm/gamma","op":"Const"},{"input":[],"attr":{"value":{"tensor":{"floatVal":[],"doubleVal":[],"intVal":[],"stringVal":[],"scomplexVal":[],"int64Val":[],"boolVal":[],"uint32Val":[],"uint64Val":[],"dtype":1,"tensorShape":{"dim":[{"size":"32"}]}}},"dtype":{"type":1}},"name":"MobilenetV2/expanded_conv_3/project/BatchNorm/beta","op":"Const"},{"input":[],"attr":{"value":{"tensor":{"floatVal":[],"doubleVal":[],"intVal":[],"stringVal":[],"scomplexVal":[],"int64Val":[],"boolVal":[],"uint32Val":[],"uint64Val":[],"dtype":1,"tensorShape":{"dim":[{"size":"32"}]}}},"dtype":{"type":1}},"name":"MobilenetV2/expanded_conv_3/project/BatchNorm/moving_mean","op":"Const"},{"input":[],"attr":{"value":{"tensor":{"floatVal":[],"doubleVal":[],"intVal":[],"stringVal":[],"scomplexVal":[],"int64Val":[],"boolVal":[],"uint32Val":[],"uint64Val":[],"dtype":1,"tensorShape":{"dim":[{"size":"32"}]}}},"dtype":{"type":1}},"name":"MobilenetV2/expanded_conv_3/project/BatchNorm/moving_variance","op":"Const"},{"input":[],"attr":{"value":{"tensor":{"floatVal":[],"doubleVal":[],"intVal":[],"stringVal":[],"scomplexVal":[],"int64Val":[],"boolVal":[],"uint32Val":[],"uint64Val":[],"dtype":1,"tensorShape":{"dim":[{"size":"1"},{"size":"1"},{"size":"32"},{"size":"192"}]}}},"dtype":{"type":1}},"name":"MobilenetV2/expanded_conv_4/expand/weights","op":"Const"},{"input":[],"attr":{"dtype":{"type":1},"value":{"tensor":{"floatVal":[],"doubleVal":[],"intVal":[],"stringVal":[],"scomplexVal":[],"int64Val":[],"boolVal":[],"uint32Val":[],"uint64Val":[],"dtype":1,"tensorShape":{"dim":[{"size":"192"}]}}}},"name":"MobilenetV2/expanded_conv_4/expand/BatchNorm/gamma","op":"Const"},{"input":[],"attr":{"value":{"tensor":{"floatVal":[],"doubleVal":[],"intVal":[],"stringVal":[],"scomplexVal":[],"int64Val":[],"boolVal":[],"uint32Val":[],"uint64Val":[],"dtype":1,"tensorShape":{"dim":[{"size":"192"}]}}},"dtype":{"type":1}},"name":"MobilenetV2/expanded_conv_4/expand/BatchNorm/beta","op":"Const"},{"input":[],"attr":{"dtype":{"type":1},"value":{"tensor":{"floatVal":[],"doubleVal":[],"intVal":[],"stringVal":[],"scomplexVal":[],"int64Val":[],"boolVal":[],"uint32Val":[],"uint64Val":[],"dtype":1,"tensorShape":{"dim":[{"size":"192"}]}}}},"name":"MobilenetV2/expanded_conv_4/expand/BatchNorm/moving_mean","op":"Const"},{"input":[],"attr":{"value":{"tensor":{"floatVal":[],"doubleVal":[],"intVal":[],"stringVal":[],"scomplexVal":[],"int64Val":[],"boolVal":[],"uint32Val":[],"uint64Val":[],"dtype":1,"tensorShape":{"dim":[{"size":"192"}]}}},"dtype":{"type":1}},"name":"MobilenetV2/expanded_conv_4/expand/BatchNorm/moving_variance","op":"Const"},{"input":[],"attr":{"value":{"tensor":{"floatVal":[],"doubleVal":[],"intVal":[],"stringVal":[],"scomplexVal":[],"int64Val":[],"boolVal":[],"uint32Val":[],"uint64Val":[],"dtype":1,"tensorShape":{"dim":[{"size":"3"},{"size":"3"},{"size":"192"},{"size":"1"}]}}},"dtype":{"type":1}},"name":"MobilenetV2/expanded_conv_4/depthwise/depthwise_weights","op":"Const"},{"input":[],"attr":{"dtype":{"type":1},"value":{"tensor":{"floatVal":[],"doubleVal":[],"intVal":[],"stringVal":[],"scomplexVal":[],"int64Val":[],"boolVal":[],"uint32Val":[],"uint64Val":[],"dtype":1,"tensorShape":{"dim":[{"size":"192"}]}}}},"name":"MobilenetV2/expanded_conv_4/depthwise/BatchNorm/gamma","op":"Const"},{"input":[],"attr":{"value":{"tensor":{"floatVal":[],"doubleVal":[],"intVal":[],"stringVal":[],"scomplexVal":[],"int64Val":[],"boolVal":[],"uint32Val":[],"uint64Val":[],"dtype":1,"tensorShape":{"dim":[{"size":"192"}]}}},"dtype":{"type":1}},"name":"MobilenetV2/expanded_conv_4/depthwise/BatchNorm/beta","op":"Const"},{"input":[],"attr":{"value":{"tensor":{"floatVal":[],"doubleVal":[],"intVal":[],"stringVal":[],"scomplexVal":[],"int64Val":[],"boolVal":[],"uint32Val":[],"uint64Val":[],"dtype":1,"tensorShape":{"dim":[{"size":"192"}]}}},"dtype":{"type":1}},"name":"MobilenetV2/expanded_conv_4/depthwise/BatchNorm/moving_mean","op":"Const"},{"input":[],"attr":{"value":{"tensor":{"floatVal":[],"doubleVal":[],"intVal":[],"stringVal":[],"scomplexVal":[],"int64Val":[],"boolVal":[],"uint32Val":[],"uint64Val":[],"dtype":1,"tensorShape":{"dim":[{"size":"192"}]}}},"dtype":{"type":1}},"name":"MobilenetV2/expanded_conv_4/depthwise/BatchNorm/moving_variance","op":"Const"},{"input":[],"attr":{"value":{"tensor":{"floatVal":[],"doubleVal":[],"intVal":[],"stringVal":[],"scomplexVal":[],"int64Val":[],"boolVal":[],"uint32Val":[],"uint64Val":[],"dtype":1,"tensorShape":{"dim":[{"size":"1"},{"size":"1"},{"size":"192"},{"size":"32"}]}}},"dtype":{"type":1}},"name":"MobilenetV2/expanded_conv_4/project/weights","op":"Const"},{"input":[],"attr":{"value":{"tensor":{"floatVal":[],"doubleVal":[],"intVal":[],"stringVal":[],"scomplexVal":[],"int64Val":[],"boolVal":[],"uint32Val":[],"uint64Val":[],"dtype":1,"tensorShape":{"dim":[{"size":"32"}]}}},"dtype":{"type":1}},"name":"MobilenetV2/expanded_conv_4/project/BatchNorm/gamma","op":"Const"},{"input":[],"attr":{"value":{"tensor":{"floatVal":[],"doubleVal":[],"intVal":[],"stringVal":[],"scomplexVal":[],"int64Val":[],"boolVal":[],"uint32Val":[],"uint64Val":[],"dtype":1,"tensorShape":{"dim":[{"size":"32"}]}}},"dtype":{"type":1}},"name":"MobilenetV2/expanded_conv_4/project/BatchNorm/beta","op":"Const"},{"input":[],"attr":{"value":{"tensor":{"floatVal":[],"doubleVal":[],"intVal":[],"stringVal":[],"scomplexVal":[],"int64Val":[],"boolVal":[],"uint32Val":[],"uint64Val":[],"dtype":1,"tensorShape":{"dim":[{"size":"32"}]}}},"dtype":{"type":1}},"name":"MobilenetV2/expanded_conv_4/project/BatchNorm/moving_mean","op":"Const"},{"input":[],"attr":{"value":{"tensor":{"floatVal":[],"doubleVal":[],"intVal":[],"stringVal":[],"scomplexVal":[],"int64Val":[],"boolVal":[],"uint32Val":[],"uint64Val":[],"dtype":1,"tensorShape":{"dim":[{"size":"32"}]}}},"dtype":{"type":1}},"name":"MobilenetV2/expanded_conv_4/project/BatchNorm/moving_variance","op":"Const"},{"input":[],"attr":{"value":{"tensor":{"floatVal":[],"doubleVal":[],"intVal":[],"stringVal":[],"scomplexVal":[],"int64Val":[],"boolVal":[],"uint32Val":[],"uint64Val":[],"dtype":1,"tensorShape":{"dim":[{"size":"1"},{"size":"1"},{"size":"32"},{"size":"192"}]}}},"dtype":{"type":1}},"name":"MobilenetV2/expanded_conv_5/expand/weights","op":"Const"},{"input":[],"attr":{"value":{"tensor":{"floatVal":[],"doubleVal":[],"intVal":[],"stringVal":[],"scomplexVal":[],"int64Val":[],"boolVal":[],"uint32Val":[],"uint64Val":[],"dtype":1,"tensorShape":{"dim":[{"size":"192"}]}}},"dtype":{"type":1}},"name":"MobilenetV2/expanded_conv_5/expand/BatchNorm/gamma","op":"Const"},{"input":[],"attr":{"dtype":{"type":1},"value":{"tensor":{"floatVal":[],"doubleVal":[],"intVal":[],"stringVal":[],"scomplexVal":[],"int64Val":[],"boolVal":[],"uint32Val":[],"uint64Val":[],"dtype":1,"tensorShape":{"dim":[{"size":"192"}]}}}},"name":"MobilenetV2/expanded_conv_5/expand/BatchNorm/beta","op":"Const"},{"input":[],"attr":{"value":{"tensor":{"floatVal":[],"doubleVal":[],"intVal":[],"stringVal":[],"scomplexVal":[],"int64Val":[],"boolVal":[],"uint32Val":[],"uint64Val":[],"dtype":1,"tensorShape":{"dim":[{"size":"192"}]}}},"dtype":{"type":1}},"name":"MobilenetV2/expanded_conv_5/expand/BatchNorm/moving_mean","op":"Const"},{"input":[],"attr":{"value":{"tensor":{"floatVal":[],"doubleVal":[],"intVal":[],"stringVal":[],"scomplexVal":[],"int64Val":[],"boolVal":[],"uint32Val":[],"uint64Val":[],"dtype":1,"tensorShape":{"dim":[{"size":"192"}]}}},"dtype":{"type":1}},"name":"MobilenetV2/expanded_conv_5/expand/BatchNorm/moving_variance","op":"Const"},{"input":[],"attr":{"value":{"tensor":{"floatVal":[],"doubleVal":[],"intVal":[],"stringVal":[],"scomplexVal":[],"int64Val":[],"boolVal":[],"uint32Val":[],"uint64Val":[],"dtype":1,"tensorShape":{"dim":[{"size":"3"},{"size":"3"},{"size":"192"},{"size":"1"}]}}},"dtype":{"type":1}},"name":"MobilenetV2/expanded_conv_5/depthwise/depthwise_weights","op":"Const"},{"input":[],"attr":{"value":{"tensor":{"floatVal":[],"doubleVal":[],"intVal":[],"stringVal":[],"scomplexVal":[],"int64Val":[],"boolVal":[],"uint32Val":[],"uint64Val":[],"dtype":1,"tensorShape":{"dim":[{"size":"192"}]}}},"dtype":{"type":1}},"name":"MobilenetV2/expanded_conv_5/depthwise/BatchNorm/gamma","op":"Const"},{"input":[],"attr":{"dtype":{"type":1},"value":{"tensor":{"floatVal":[],"doubleVal":[],"intVal":[],"stringVal":[],"scomplexVal":[],"int64Val":[],"boolVal":[],"uint32Val":[],"uint64Val":[],"dtype":1,"tensorShape":{"dim":[{"size":"192"}]}}}},"name":"MobilenetV2/expanded_conv_5/depthwise/BatchNorm/beta","op":"Const"},{"input":[],"attr":{"value":{"tensor":{"floatVal":[],"doubleVal":[],"intVal":[],"stringVal":[],"scomplexVal":[],"int64Val":[],"boolVal":[],"uint32Val":[],"uint64Val":[],"dtype":1,"tensorShape":{"dim":[{"size":"192"}]}}},"dtype":{"type":1}},"name":"MobilenetV2/expanded_conv_5/depthwise/BatchNorm/moving_mean","op":"Const"},{"input":[],"attr":{"value":{"tensor":{"floatVal":[],"doubleVal":[],"intVal":[],"stringVal":[],"scomplexVal":[],"int64Val":[],"boolVal":[],"uint32Val":[],"uint64Val":[],"dtype":1,"tensorShape":{"dim":[{"size":"192"}]}}},"dtype":{"type":1}},"name":"MobilenetV2/expanded_conv_5/depthwise/BatchNorm/moving_variance","op":"Const"},{"input":[],"attr":{"value":{"tensor":{"floatVal":[],"doubleVal":[],"intVal":[],"stringVal":[],"scomplexVal":[],"int64Val":[],"boolVal":[],"uint32Val":[],"uint64Val":[],"dtype":1,"tensorShape":{"dim":[{"size":"1"},{"size":"1"},{"size":"192"},{"size":"32"}]}}},"dtype":{"type":1}},"name":"MobilenetV2/expanded_conv_5/project/weights","op":"Const"},{"input":[],"attr":{"value":{"tensor":{"floatVal":[],"doubleVal":[],"intVal":[],"stringVal":[],"scomplexVal":[],"int64Val":[],"boolVal":[],"uint32Val":[],"uint64Val":[],"dtype":1,"tensorShape":{"dim":[{"size":"32"}]}}},"dtype":{"type":1}},"name":"MobilenetV2/expanded_conv_5/project/BatchNorm/gamma","op":"Const"},{"input":[],"attr":{"value":{"tensor":{"floatVal":[],"doubleVal":[],"intVal":[],"stringVal":[],"scomplexVal":[],"int64Val":[],"boolVal":[],"uint32Val":[],"uint64Val":[],"dtype":1,"tensorShape":{"dim":[{"size":"32"}]}}},"dtype":{"type":1}},"name":"MobilenetV2/expanded_conv_5/project/BatchNorm/beta","op":"Const"},{"input":[],"attr":{"value":{"tensor":{"floatVal":[],"doubleVal":[],"intVal":[],"stringVal":[],"scomplexVal":[],"int64Val":[],"boolVal":[],"uint32Val":[],"uint64Val":[],"dtype":1,"tensorShape":{"dim":[{"size":"32"}]}}},"dtype":{"type":1}},"name":"MobilenetV2/expanded_conv_5/project/BatchNorm/moving_mean","op":"Const"},{"input":[],"attr":{"value":{"tensor":{"floatVal":[],"doubleVal":[],"intVal":[],"stringVal":[],"scomplexVal":[],"int64Val":[],"boolVal":[],"uint32Val":[],"uint64Val":[],"dtype":1,"tensorShape":{"dim":[{"size":"32"}]}}},"dtype":{"type":1}},"name":"MobilenetV2/expanded_conv_5/project/BatchNorm/moving_variance","op":"Const"},{"input":[],"attr":{"value":{"tensor":{"floatVal":[],"doubleVal":[],"intVal":[],"stringVal":[],"scomplexVal":[],"int64Val":[],"boolVal":[],"uint32Val":[],"uint64Val":[],"dtype":1,"tensorShape":{"dim":[{"size":"1"},{"size":"1"},{"size":"32"},{"size":"192"}]}}},"dtype":{"type":1}},"name":"MobilenetV2/expanded_conv_6/expand/weights","op":"Const"},{"input":[],"attr":{"value":{"tensor":{"floatVal":[],"doubleVal":[],"intVal":[],"stringVal":[],"scomplexVal":[],"int64Val":[],"boolVal":[],"uint32Val":[],"uint64Val":[],"dtype":1,"tensorShape":{"dim":[{"size":"192"}]}}},"dtype":{"type":1}},"name":"MobilenetV2/expanded_conv_6/expand/BatchNorm/gamma","op":"Const"},{"input":[],"attr":{"value":{"tensor":{"floatVal":[],"doubleVal":[],"intVal":[],"stringVal":[],"scomplexVal":[],"int64Val":[],"boolVal":[],"uint32Val":[],"uint64Val":[],"dtype":1,"tensorShape":{"dim":[{"size":"192"}]}}},"dtype":{"type":1}},"name":"MobilenetV2/expanded_conv_6/expand/BatchNorm/beta","op":"Const"},{"input":[],"attr":{"value":{"tensor":{"floatVal":[],"doubleVal":[],"intVal":[],"stringVal":[],"scomplexVal":[],"int64Val":[],"boolVal":[],"uint32Val":[],"uint64Val":[],"dtype":1,"tensorShape":{"dim":[{"size":"192"}]}}},"dtype":{"type":1}},"name":"MobilenetV2/expanded_conv_6/expand/BatchNorm/moving_mean","op":"Const"},{"input":[],"attr":{"value":{"tensor":{"floatVal":[],"doubleVal":[],"intVal":[],"stringVal":[],"scomplexVal":[],"int64Val":[],"boolVal":[],"uint32Val":[],"uint64Val":[],"dtype":1,"tensorShape":{"dim":[{"size":"192"}]}}},"dtype":{"type":1}},"name":"MobilenetV2/expanded_conv_6/expand/BatchNorm/moving_variance","op":"Const"},{"input":[],"attr":{"value":{"tensor":{"floatVal":[],"doubleVal":[],"intVal":[],"stringVal":[],"scomplexVal":[],"int64Val":[],"boolVal":[],"uint32Val":[],"uint64Val":[],"dtype":1,"tensorShape":{"dim":[{"size":"3"},{"size":"3"},{"size":"192"},{"size":"1"}]}}},"dtype":{"type":1}},"name":"MobilenetV2/expanded_conv_6/depthwise/depthwise_weights","op":"Const"},{"input":[],"attr":{"dtype":{"type":1},"value":{"tensor":{"floatVal":[],"doubleVal":[],"intVal":[],"stringVal":[],"scomplexVal":[],"int64Val":[],"boolVal":[],"uint32Val":[],"uint64Val":[],"dtype":1,"tensorShape":{"dim":[{"size":"192"}]}}}},"name":"MobilenetV2/expanded_conv_6/depthwise/BatchNorm/gamma","op":"Const"},{"input":[],"attr":{"value":{"tensor":{"floatVal":[],"doubleVal":[],"intVal":[],"stringVal":[],"scomplexVal":[],"int64Val":[],"boolVal":[],"uint32Val":[],"uint64Val":[],"dtype":1,"tensorShape":{"dim":[{"size":"192"}]}}},"dtype":{"type":1}},"name":"MobilenetV2/expanded_conv_6/depthwise/BatchNorm/beta","op":"Const"},{"input":[],"attr":{"value":{"tensor":{"floatVal":[],"doubleVal":[],"intVal":[],"stringVal":[],"scomplexVal":[],"int64Val":[],"boolVal":[],"uint32Val":[],"uint64Val":[],"dtype":1,"tensorShape":{"dim":[{"size":"192"}]}}},"dtype":{"type":1}},"name":"MobilenetV2/expanded_conv_6/depthwise/BatchNorm/moving_mean","op":"Const"},{"input":[],"attr":{"dtype":{"type":1},"value":{"tensor":{"floatVal":[],"doubleVal":[],"intVal":[],"stringVal":[],"scomplexVal":[],"int64Val":[],"boolVal":[],"uint32Val":[],"uint64Val":[],"dtype":1,"tensorShape":{"dim":[{"size":"192"}]}}}},"name":"MobilenetV2/expanded_conv_6/depthwise/BatchNorm/moving_variance","op":"Const"},{"input":[],"attr":{"value":{"tensor":{"floatVal":[],"doubleVal":[],"intVal":[],"stringVal":[],"scomplexVal":[],"int64Val":[],"boolVal":[],"uint32Val":[],"uint64Val":[],"dtype":1,"tensorShape":{"dim":[{"size":"1"},{"size":"1"},{"size":"192"},{"size":"64"}]}}},"dtype":{"type":1}},"name":"MobilenetV2/expanded_conv_6/project/weights","op":"Const"},{"input":[],"attr":{"value":{"tensor":{"floatVal":[],"doubleVal":[],"intVal":[],"stringVal":[],"scomplexVal":[],"int64Val":[],"boolVal":[],"uint32Val":[],"uint64Val":[],"dtype":1,"tensorShape":{"dim":[{"size":"64"}]}}},"dtype":{"type":1}},"name":"MobilenetV2/expanded_conv_6/project/BatchNorm/gamma","op":"Const"},{"input":[],"attr":{"value":{"tensor":{"floatVal":[],"doubleVal":[],"intVal":[],"stringVal":[],"scomplexVal":[],"int64Val":[],"boolVal":[],"uint32Val":[],"uint64Val":[],"dtype":1,"tensorShape":{"dim":[{"size":"64"}]}}},"dtype":{"type":1}},"name":"MobilenetV2/expanded_conv_6/project/BatchNorm/beta","op":"Const"},{"input":[],"attr":{"value":{"tensor":{"floatVal":[],"doubleVal":[],"intVal":[],"stringVal":[],"scomplexVal":[],"int64Val":[],"boolVal":[],"uint32Val":[],"uint64Val":[],"dtype":1,"tensorShape":{"dim":[{"size":"64"}]}}},"dtype":{"type":1}},"name":"MobilenetV2/expanded_conv_6/project/BatchNorm/moving_mean","op":"Const"},{"input":[],"attr":{"value":{"tensor":{"floatVal":[],"doubleVal":[],"intVal":[],"stringVal":[],"scomplexVal":[],"int64Val":[],"boolVal":[],"uint32Val":[],"uint64Val":[],"dtype":1,"tensorShape":{"dim":[{"size":"64"}]}}},"dtype":{"type":1}},"name":"MobilenetV2/expanded_conv_6/project/BatchNorm/moving_variance","op":"Const"},{"input":[],"attr":{"value":{"tensor":{"floatVal":[],"doubleVal":[],"intVal":[],"stringVal":[],"scomplexVal":[],"int64Val":[],"boolVal":[],"uint32Val":[],"uint64Val":[],"dtype":1,"tensorShape":{"dim":[{"size":"1"},{"size":"1"},{"size":"64"},{"size":"384"}]}}},"dtype":{"type":1}},"name":"MobilenetV2/expanded_conv_7/expand/weights","op":"Const"},{"input":[],"attr":{"value":{"tensor":{"floatVal":[],"doubleVal":[],"intVal":[],"stringVal":[],"scomplexVal":[],"int64Val":[],"boolVal":[],"uint32Val":[],"uint64Val":[],"dtype":1,"tensorShape":{"dim":[{"size":"384"}]}}},"dtype":{"type":1}},"name":"MobilenetV2/expanded_conv_7/expand/BatchNorm/gamma","op":"Const"},{"input":[],"attr":{"dtype":{"type":1},"value":{"tensor":{"floatVal":[],"doubleVal":[],"intVal":[],"stringVal":[],"scomplexVal":[],"int64Val":[],"boolVal":[],"uint32Val":[],"uint64Val":[],"dtype":1,"tensorShape":{"dim":[{"size":"384"}]}}}},"name":"MobilenetV2/expanded_conv_7/expand/BatchNorm/beta","op":"Const"},{"input":[],"attr":{"value":{"tensor":{"floatVal":[],"doubleVal":[],"intVal":[],"stringVal":[],"scomplexVal":[],"int64Val":[],"boolVal":[],"uint32Val":[],"uint64Val":[],"dtype":1,"tensorShape":{"dim":[{"size":"384"}]}}},"dtype":{"type":1}},"name":"MobilenetV2/expanded_conv_7/expand/BatchNorm/moving_mean","op":"Const"},{"input":[],"attr":{"value":{"tensor":{"floatVal":[],"doubleVal":[],"intVal":[],"stringVal":[],"scomplexVal":[],"int64Val":[],"boolVal":[],"uint32Val":[],"uint64Val":[],"dtype":1,"tensorShape":{"dim":[{"size":"384"}]}}},"dtype":{"type":1}},"name":"MobilenetV2/expanded_conv_7/expand/BatchNorm/moving_variance","op":"Const"},{"input":[],"attr":{"value":{"tensor":{"floatVal":[],"doubleVal":[],"intVal":[],"stringVal":[],"scomplexVal":[],"int64Val":[],"boolVal":[],"uint32Val":[],"uint64Val":[],"dtype":1,"tensorShape":{"dim":[{"size":"3"},{"size":"3"},{"size":"384"},{"size":"1"}]}}},"dtype":{"type":1}},"name":"MobilenetV2/expanded_conv_7/depthwise/depthwise_weights","op":"Const"},{"input":[],"attr":{"value":{"tensor":{"floatVal":[],"doubleVal":[],"intVal":[],"stringVal":[],"scomplexVal":[],"int64Val":[],"boolVal":[],"uint32Val":[],"uint64Val":[],"dtype":1,"tensorShape":{"dim":[{"size":"384"}]}}},"dtype":{"type":1}},"name":"MobilenetV2/expanded_conv_7/depthwise/BatchNorm/gamma","op":"Const"},{"input":[],"attr":{"dtype":{"type":1},"value":{"tensor":{"floatVal":[],"doubleVal":[],"intVal":[],"stringVal":[],"scomplexVal":[],"int64Val":[],"boolVal":[],"uint32Val":[],"uint64Val":[],"dtype":1,"tensorShape":{"dim":[{"size":"384"}]}}}},"name":"MobilenetV2/expanded_conv_7/depthwise/BatchNorm/beta","op":"Const"},{"input":[],"attr":{"value":{"tensor":{"floatVal":[],"doubleVal":[],"intVal":[],"stringVal":[],"scomplexVal":[],"int64Val":[],"boolVal":[],"uint32Val":[],"uint64Val":[],"dtype":1,"tensorShape":{"dim":[{"size":"384"}]}}},"dtype":{"type":1}},"name":"MobilenetV2/expanded_conv_7/depthwise/BatchNorm/moving_mean","op":"Const"},{"input":[],"attr":{"value":{"tensor":{"floatVal":[],"doubleVal":[],"intVal":[],"stringVal":[],"scomplexVal":[],"int64Val":[],"boolVal":[],"uint32Val":[],"uint64Val":[],"dtype":1,"tensorShape":{"dim":[{"size":"384"}]}}},"dtype":{"type":1}},"name":"MobilenetV2/expanded_conv_7/depthwise/BatchNorm/moving_variance","op":"Const"},{"input":[],"attr":{"value":{"tensor":{"floatVal":[],"doubleVal":[],"intVal":[],"stringVal":[],"scomplexVal":[],"int64Val":[],"boolVal":[],"uint32Val":[],"uint64Val":[],"dtype":1,"tensorShape":{"dim":[{"size":"1"},{"size":"1"},{"size":"384"},{"size":"64"}]}}},"dtype":{"type":1}},"name":"MobilenetV2/expanded_conv_7/project/weights","op":"Const"},{"input":[],"attr":{"value":{"tensor":{"floatVal":[],"doubleVal":[],"intVal":[],"stringVal":[],"scomplexVal":[],"int64Val":[],"boolVal":[],"uint32Val":[],"uint64Val":[],"dtype":1,"tensorShape":{"dim":[{"size":"64"}]}}},"dtype":{"type":1}},"name":"MobilenetV2/expanded_conv_7/project/BatchNorm/gamma","op":"Const"},{"input":[],"attr":{"value":{"tensor":{"floatVal":[],"doubleVal":[],"intVal":[],"stringVal":[],"scomplexVal":[],"int64Val":[],"boolVal":[],"uint32Val":[],"uint64Val":[],"dtype":1,"tensorShape":{"dim":[{"size":"64"}]}}},"dtype":{"type":1}},"name":"MobilenetV2/expanded_conv_7/project/BatchNorm/beta","op":"Const"},{"input":[],"attr":{"value":{"tensor":{"floatVal":[],"doubleVal":[],"intVal":[],"stringVal":[],"scomplexVal":[],"int64Val":[],"boolVal":[],"uint32Val":[],"uint64Val":[],"dtype":1,"tensorShape":{"dim":[{"size":"64"}]}}},"dtype":{"type":1}},"name":"MobilenetV2/expanded_conv_7/project/BatchNorm/moving_mean","op":"Const"},{"input":[],"attr":{"value":{"tensor":{"floatVal":[],"doubleVal":[],"intVal":[],"stringVal":[],"scomplexVal":[],"int64Val":[],"boolVal":[],"uint32Val":[],"uint64Val":[],"dtype":1,"tensorShape":{"dim":[{"size":"64"}]}}},"dtype":{"type":1}},"name":"MobilenetV2/expanded_conv_7/project/BatchNorm/moving_variance","op":"Const"},{"input":[],"attr":{"dtype":{"type":1},"value":{"tensor":{"floatVal":[],"doubleVal":[],"intVal":[],"stringVal":[],"scomplexVal":[],"int64Val":[],"boolVal":[],"uint32Val":[],"uint64Val":[],"dtype":1,"tensorShape":{"dim":[{"size":"1"},{"size":"1"},{"size":"64"},{"size":"384"}]}}}},"name":"MobilenetV2/expanded_conv_8/expand/weights","op":"Const"},{"input":[],"attr":{"value":{"tensor":{"floatVal":[],"doubleVal":[],"intVal":[],"stringVal":[],"scomplexVal":[],"int64Val":[],"boolVal":[],"uint32Val":[],"uint64Val":[],"dtype":1,"tensorShape":{"dim":[{"size":"384"}]}}},"dtype":{"type":1}},"name":"MobilenetV2/expanded_conv_8/expand/BatchNorm/gamma","op":"Const"},{"input":[],"attr":{"value":{"tensor":{"floatVal":[],"doubleVal":[],"intVal":[],"stringVal":[],"scomplexVal":[],"int64Val":[],"boolVal":[],"uint32Val":[],"uint64Val":[],"dtype":1,"tensorShape":{"dim":[{"size":"384"}]}}},"dtype":{"type":1}},"name":"MobilenetV2/expanded_conv_8/expand/BatchNorm/beta","op":"Const"},{"input":[],"attr":{"dtype":{"type":1},"value":{"tensor":{"floatVal":[],"doubleVal":[],"intVal":[],"stringVal":[],"scomplexVal":[],"int64Val":[],"boolVal":[],"uint32Val":[],"uint64Val":[],"dtype":1,"tensorShape":{"dim":[{"size":"384"}]}}}},"name":"MobilenetV2/expanded_conv_8/expand/BatchNorm/moving_mean","op":"Const"},{"input":[],"attr":{"value":{"tensor":{"floatVal":[],"doubleVal":[],"intVal":[],"stringVal":[],"scomplexVal":[],"int64Val":[],"boolVal":[],"uint32Val":[],"uint64Val":[],"dtype":1,"tensorShape":{"dim":[{"size":"384"}]}}},"dtype":{"type":1}},"name":"MobilenetV2/expanded_conv_8/expand/BatchNorm/moving_variance","op":"Const"},{"input":[],"attr":{"dtype":{"type":1},"value":{"tensor":{"floatVal":[],"doubleVal":[],"intVal":[],"stringVal":[],"scomplexVal":[],"int64Val":[],"boolVal":[],"uint32Val":[],"uint64Val":[],"dtype":1,"tensorShape":{"dim":[{"size":"3"},{"size":"3"},{"size":"384"},{"size":"1"}]}}}},"name":"MobilenetV2/expanded_conv_8/depthwise/depthwise_weights","op":"Const"},{"input":[],"attr":{"value":{"tensor":{"floatVal":[],"doubleVal":[],"intVal":[],"stringVal":[],"scomplexVal":[],"int64Val":[],"boolVal":[],"uint32Val":[],"uint64Val":[],"dtype":1,"tensorShape":{"dim":[{"size":"384"}]}}},"dtype":{"type":1}},"name":"MobilenetV2/expanded_conv_8/depthwise/BatchNorm/gamma","op":"Const"},{"input":[],"attr":{"value":{"tensor":{"floatVal":[],"doubleVal":[],"intVal":[],"stringVal":[],"scomplexVal":[],"int64Val":[],"boolVal":[],"uint32Val":[],"uint64Val":[],"dtype":1,"tensorShape":{"dim":[{"size":"384"}]}}},"dtype":{"type":1}},"name":"MobilenetV2/expanded_conv_8/depthwise/BatchNorm/beta","op":"Const"},{"input":[],"attr":{"value":{"tensor":{"floatVal":[],"doubleVal":[],"intVal":[],"stringVal":[],"scomplexVal":[],"int64Val":[],"boolVal":[],"uint32Val":[],"uint64Val":[],"dtype":1,"tensorShape":{"dim":[{"size":"384"}]}}},"dtype":{"type":1}},"name":"MobilenetV2/expanded_conv_8/depthwise/BatchNorm/moving_mean","op":"Const"},{"input":[],"attr":{"dtype":{"type":1},"value":{"tensor":{"floatVal":[],"doubleVal":[],"intVal":[],"stringVal":[],"scomplexVal":[],"int64Val":[],"boolVal":[],"uint32Val":[],"uint64Val":[],"dtype":1,"tensorShape":{"dim":[{"size":"384"}]}}}},"name":"MobilenetV2/expanded_conv_8/depthwise/BatchNorm/moving_variance","op":"Const"},{"input":[],"attr":{"value":{"tensor":{"floatVal":[],"doubleVal":[],"intVal":[],"stringVal":[],"scomplexVal":[],"int64Val":[],"boolVal":[],"uint32Val":[],"uint64Val":[],"dtype":1,"tensorShape":{"dim":[{"size":"1"},{"size":"1"},{"size":"384"},{"size":"64"}]}}},"dtype":{"type":1}},"name":"MobilenetV2/expanded_conv_8/project/weights","op":"Const"},{"input":[],"attr":{"value":{"tensor":{"floatVal":[],"doubleVal":[],"intVal":[],"stringVal":[],"scomplexVal":[],"int64Val":[],"boolVal":[],"uint32Val":[],"uint64Val":[],"dtype":1,"tensorShape":{"dim":[{"size":"64"}]}}},"dtype":{"type":1}},"name":"MobilenetV2/expanded_conv_8/project/BatchNorm/gamma","op":"Const"},{"input":[],"attr":{"value":{"tensor":{"floatVal":[],"doubleVal":[],"intVal":[],"stringVal":[],"scomplexVal":[],"int64Val":[],"boolVal":[],"uint32Val":[],"uint64Val":[],"dtype":1,"tensorShape":{"dim":[{"size":"64"}]}}},"dtype":{"type":1}},"name":"MobilenetV2/expanded_conv_8/project/BatchNorm/beta","op":"Const"},{"input":[],"attr":{"value":{"tensor":{"floatVal":[],"doubleVal":[],"intVal":[],"stringVal":[],"scomplexVal":[],"int64Val":[],"boolVal":[],"uint32Val":[],"uint64Val":[],"dtype":1,"tensorShape":{"dim":[{"size":"64"}]}}},"dtype":{"type":1}},"name":"MobilenetV2/expanded_conv_8/project/BatchNorm/moving_mean","op":"Const"},{"input":[],"attr":{"value":{"tensor":{"floatVal":[],"doubleVal":[],"intVal":[],"stringVal":[],"scomplexVal":[],"int64Val":[],"boolVal":[],"uint32Val":[],"uint64Val":[],"dtype":1,"tensorShape":{"dim":[{"size":"64"}]}}},"dtype":{"type":1}},"name":"MobilenetV2/expanded_conv_8/project/BatchNorm/moving_variance","op":"Const"},{"input":[],"attr":{"value":{"tensor":{"floatVal":[],"doubleVal":[],"intVal":[],"stringVal":[],"scomplexVal":[],"int64Val":[],"boolVal":[],"uint32Val":[],"uint64Val":[],"dtype":1,"tensorShape":{"dim":[{"size":"1"},{"size":"1"},{"size":"64"},{"size":"384"}]}}},"dtype":{"type":1}},"name":"MobilenetV2/expanded_conv_9/expand/weights","op":"Const"},{"input":[],"attr":{"value":{"tensor":{"floatVal":[],"doubleVal":[],"intVal":[],"stringVal":[],"scomplexVal":[],"int64Val":[],"boolVal":[],"uint32Val":[],"uint64Val":[],"dtype":1,"tensorShape":{"dim":[{"size":"384"}]}}},"dtype":{"type":1}},"name":"MobilenetV2/expanded_conv_9/expand/BatchNorm/gamma","op":"Const"},{"input":[],"attr":{"value":{"tensor":{"floatVal":[],"doubleVal":[],"intVal":[],"stringVal":[],"scomplexVal":[],"int64Val":[],"boolVal":[],"uint32Val":[],"uint64Val":[],"dtype":1,"tensorShape":{"dim":[{"size":"384"}]}}},"dtype":{"type":1}},"name":"MobilenetV2/expanded_conv_9/expand/BatchNorm/beta","op":"Const"},{"input":[],"attr":{"value":{"tensor":{"floatVal":[],"doubleVal":[],"intVal":[],"stringVal":[],"scomplexVal":[],"int64Val":[],"boolVal":[],"uint32Val":[],"uint64Val":[],"dtype":1,"tensorShape":{"dim":[{"size":"384"}]}}},"dtype":{"type":1}},"name":"MobilenetV2/expanded_conv_9/expand/BatchNorm/moving_mean","op":"Const"},{"input":[],"attr":{"value":{"tensor":{"floatVal":[],"doubleVal":[],"intVal":[],"stringVal":[],"scomplexVal":[],"int64Val":[],"boolVal":[],"uint32Val":[],"uint64Val":[],"dtype":1,"tensorShape":{"dim":[{"size":"384"}]}}},"dtype":{"type":1}},"name":"MobilenetV2/expanded_conv_9/expand/BatchNorm/moving_variance","op":"Const"},{"input":[],"attr":{"dtype":{"type":1},"value":{"tensor":{"floatVal":[],"doubleVal":[],"intVal":[],"stringVal":[],"scomplexVal":[],"int64Val":[],"boolVal":[],"uint32Val":[],"uint64Val":[],"dtype":1,"tensorShape":{"dim":[{"size":"3"},{"size":"3"},{"size":"384"},{"size":"1"}]}}}},"name":"MobilenetV2/expanded_conv_9/depthwise/depthwise_weights","op":"Const"},{"input":[],"attr":{"value":{"tensor":{"floatVal":[],"doubleVal":[],"intVal":[],"stringVal":[],"scomplexVal":[],"int64Val":[],"boolVal":[],"uint32Val":[],"uint64Val":[],"dtype":1,"tensorShape":{"dim":[{"size":"384"}]}}},"dtype":{"type":1}},"name":"MobilenetV2/expanded_conv_9/depthwise/BatchNorm/gamma","op":"Const"},{"input":[],"attr":{"value":{"tensor":{"floatVal":[],"doubleVal":[],"intVal":[],"stringVal":[],"scomplexVal":[],"int64Val":[],"boolVal":[],"uint32Val":[],"uint64Val":[],"dtype":1,"tensorShape":{"dim":[{"size":"384"}]}}},"dtype":{"type":1}},"name":"MobilenetV2/expanded_conv_9/depthwise/BatchNorm/beta","op":"Const"},{"input":[],"attr":{"value":{"tensor":{"floatVal":[],"doubleVal":[],"intVal":[],"stringVal":[],"scomplexVal":[],"int64Val":[],"boolVal":[],"uint32Val":[],"uint64Val":[],"dtype":1,"tensorShape":{"dim":[{"size":"384"}]}}},"dtype":{"type":1}},"name":"MobilenetV2/expanded_conv_9/depthwise/BatchNorm/moving_mean","op":"Const"},{"input":[],"attr":{"value":{"tensor":{"floatVal":[],"doubleVal":[],"intVal":[],"stringVal":[],"scomplexVal":[],"int64Val":[],"boolVal":[],"uint32Val":[],"uint64Val":[],"dtype":1,"tensorShape":{"dim":[{"size":"384"}]}}},"dtype":{"type":1}},"name":"MobilenetV2/expanded_conv_9/depthwise/BatchNorm/moving_variance","op":"Const"},{"input":[],"attr":{"value":{"tensor":{"floatVal":[],"doubleVal":[],"intVal":[],"stringVal":[],"scomplexVal":[],"int64Val":[],"boolVal":[],"uint32Val":[],"uint64Val":[],"dtype":1,"tensorShape":{"dim":[{"size":"1"},{"size":"1"},{"size":"384"},{"size":"64"}]}}},"dtype":{"type":1}},"name":"MobilenetV2/expanded_conv_9/project/weights","op":"Const"},{"input":[],"attr":{"value":{"tensor":{"floatVal":[],"doubleVal":[],"intVal":[],"stringVal":[],"scomplexVal":[],"int64Val":[],"boolVal":[],"uint32Val":[],"uint64Val":[],"dtype":1,"tensorShape":{"dim":[{"size":"64"}]}}},"dtype":{"type":1}},"name":"MobilenetV2/expanded_conv_9/project/BatchNorm/gamma","op":"Const"},{"input":[],"attr":{"value":{"tensor":{"floatVal":[],"doubleVal":[],"intVal":[],"stringVal":[],"scomplexVal":[],"int64Val":[],"boolVal":[],"uint32Val":[],"uint64Val":[],"dtype":1,"tensorShape":{"dim":[{"size":"64"}]}}},"dtype":{"type":1}},"name":"MobilenetV2/expanded_conv_9/project/BatchNorm/beta","op":"Const"},{"input":[],"attr":{"value":{"tensor":{"floatVal":[],"doubleVal":[],"intVal":[],"stringVal":[],"scomplexVal":[],"int64Val":[],"boolVal":[],"uint32Val":[],"uint64Val":[],"dtype":1,"tensorShape":{"dim":[{"size":"64"}]}}},"dtype":{"type":1}},"name":"MobilenetV2/expanded_conv_9/project/BatchNorm/moving_mean","op":"Const"},{"input":[],"attr":{"value":{"tensor":{"floatVal":[],"doubleVal":[],"intVal":[],"stringVal":[],"scomplexVal":[],"int64Val":[],"boolVal":[],"uint32Val":[],"uint64Val":[],"dtype":1,"tensorShape":{"dim":[{"size":"64"}]}}},"dtype":{"type":1}},"name":"MobilenetV2/expanded_conv_9/project/BatchNorm/moving_variance","op":"Const"},{"input":[],"attr":{"value":{"tensor":{"floatVal":[],"doubleVal":[],"intVal":[],"stringVal":[],"scomplexVal":[],"int64Val":[],"boolVal":[],"uint32Val":[],"uint64Val":[],"dtype":1,"tensorShape":{"dim":[{"size":"1"},{"size":"1"},{"size":"64"},{"size":"384"}]}}},"dtype":{"type":1}},"name":"MobilenetV2/expanded_conv_10/expand/weights","op":"Const"},{"input":[],"attr":{"value":{"tensor":{"floatVal":[],"doubleVal":[],"intVal":[],"stringVal":[],"scomplexVal":[],"int64Val":[],"boolVal":[],"uint32Val":[],"uint64Val":[],"dtype":1,"tensorShape":{"dim":[{"size":"384"}]}}},"dtype":{"type":1}},"name":"MobilenetV2/expanded_conv_10/expand/BatchNorm/gamma","op":"Const"},{"input":[],"attr":{"value":{"tensor":{"floatVal":[],"doubleVal":[],"intVal":[],"stringVal":[],"scomplexVal":[],"int64Val":[],"boolVal":[],"uint32Val":[],"uint64Val":[],"dtype":1,"tensorShape":{"dim":[{"size":"384"}]}}},"dtype":{"type":1}},"name":"MobilenetV2/expanded_conv_10/expand/BatchNorm/beta","op":"Const"},{"input":[],"attr":{"value":{"tensor":{"floatVal":[],"doubleVal":[],"intVal":[],"stringVal":[],"scomplexVal":[],"int64Val":[],"boolVal":[],"uint32Val":[],"uint64Val":[],"dtype":1,"tensorShape":{"dim":[{"size":"384"}]}}},"dtype":{"type":1}},"name":"MobilenetV2/expanded_conv_10/expand/BatchNorm/moving_mean","op":"Const"},{"input":[],"attr":{"value":{"tensor":{"floatVal":[],"doubleVal":[],"intVal":[],"stringVal":[],"scomplexVal":[],"int64Val":[],"boolVal":[],"uint32Val":[],"uint64Val":[],"dtype":1,"tensorShape":{"dim":[{"size":"384"}]}}},"dtype":{"type":1}},"name":"MobilenetV2/expanded_conv_10/expand/BatchNorm/moving_variance","op":"Const"},{"input":[],"attr":{"value":{"tensor":{"floatVal":[],"doubleVal":[],"intVal":[],"stringVal":[],"scomplexVal":[],"int64Val":[],"boolVal":[],"uint32Val":[],"uint64Val":[],"dtype":1,"tensorShape":{"dim":[{"size":"3"},{"size":"3"},{"size":"384"},{"size":"1"}]}}},"dtype":{"type":1}},"name":"MobilenetV2/expanded_conv_10/depthwise/depthwise_weights","op":"Const"},{"input":[],"attr":{"value":{"tensor":{"floatVal":[],"doubleVal":[],"intVal":[],"stringVal":[],"scomplexVal":[],"int64Val":[],"boolVal":[],"uint32Val":[],"uint64Val":[],"dtype":1,"tensorShape":{"dim":[{"size":"384"}]}}},"dtype":{"type":1}},"name":"MobilenetV2/expanded_conv_10/depthwise/BatchNorm/gamma","op":"Const"},{"input":[],"attr":{"value":{"tensor":{"floatVal":[],"doubleVal":[],"intVal":[],"stringVal":[],"scomplexVal":[],"int64Val":[],"boolVal":[],"uint32Val":[],"uint64Val":[],"dtype":1,"tensorShape":{"dim":[{"size":"384"}]}}},"dtype":{"type":1}},"name":"MobilenetV2/expanded_conv_10/depthwise/BatchNorm/beta","op":"Const"},{"input":[],"attr":{"value":{"tensor":{"floatVal":[],"doubleVal":[],"intVal":[],"stringVal":[],"scomplexVal":[],"int64Val":[],"boolVal":[],"uint32Val":[],"uint64Val":[],"dtype":1,"tensorShape":{"dim":[{"size":"384"}]}}},"dtype":{"type":1}},"name":"MobilenetV2/expanded_conv_10/depthwise/BatchNorm/moving_mean","op":"Const"},{"input":[],"attr":{"value":{"tensor":{"floatVal":[],"doubleVal":[],"intVal":[],"stringVal":[],"scomplexVal":[],"int64Val":[],"boolVal":[],"uint32Val":[],"uint64Val":[],"dtype":1,"tensorShape":{"dim":[{"size":"384"}]}}},"dtype":{"type":1}},"name":"MobilenetV2/expanded_conv_10/depthwise/BatchNorm/moving_variance","op":"Const"},{"input":[],"attr":{"value":{"tensor":{"floatVal":[],"doubleVal":[],"intVal":[],"stringVal":[],"scomplexVal":[],"int64Val":[],"boolVal":[],"uint32Val":[],"uint64Val":[],"dtype":1,"tensorShape":{"dim":[{"size":"1"},{"size":"1"},{"size":"384"},{"size":"96"}]}}},"dtype":{"type":1}},"name":"MobilenetV2/expanded_conv_10/project/weights","op":"Const"},{"input":[],"attr":{"value":{"tensor":{"floatVal":[],"doubleVal":[],"intVal":[],"stringVal":[],"scomplexVal":[],"int64Val":[],"boolVal":[],"uint32Val":[],"uint64Val":[],"dtype":1,"tensorShape":{"dim":[{"size":"96"}]}}},"dtype":{"type":1}},"name":"MobilenetV2/expanded_conv_10/project/BatchNorm/gamma","op":"Const"},{"input":[],"attr":{"value":{"tensor":{"floatVal":[],"doubleVal":[],"intVal":[],"stringVal":[],"scomplexVal":[],"int64Val":[],"boolVal":[],"uint32Val":[],"uint64Val":[],"dtype":1,"tensorShape":{"dim":[{"size":"96"}]}}},"dtype":{"type":1}},"name":"MobilenetV2/expanded_conv_10/project/BatchNorm/beta","op":"Const"},{"input":[],"attr":{"value":{"tensor":{"floatVal":[],"doubleVal":[],"intVal":[],"stringVal":[],"scomplexVal":[],"int64Val":[],"boolVal":[],"uint32Val":[],"uint64Val":[],"dtype":1,"tensorShape":{"dim":[{"size":"96"}]}}},"dtype":{"type":1}},"name":"MobilenetV2/expanded_conv_10/project/BatchNorm/moving_mean","op":"Const"},{"input":[],"attr":{"value":{"tensor":{"floatVal":[],"doubleVal":[],"intVal":[],"stringVal":[],"scomplexVal":[],"int64Val":[],"boolVal":[],"uint32Val":[],"uint64Val":[],"dtype":1,"tensorShape":{"dim":[{"size":"96"}]}}},"dtype":{"type":1}},"name":"MobilenetV2/expanded_conv_10/project/BatchNorm/moving_variance","op":"Const"},{"input":[],"attr":{"value":{"tensor":{"floatVal":[],"doubleVal":[],"intVal":[],"stringVal":[],"scomplexVal":[],"int64Val":[],"boolVal":[],"uint32Val":[],"uint64Val":[],"dtype":1,"tensorShape":{"dim":[{"size":"1"},{"size":"1"},{"size":"96"},{"size":"576"}]}}},"dtype":{"type":1}},"name":"MobilenetV2/expanded_conv_11/expand/weights","op":"Const"},{"input":[],"attr":{"value":{"tensor":{"floatVal":[],"doubleVal":[],"intVal":[],"stringVal":[],"scomplexVal":[],"int64Val":[],"boolVal":[],"uint32Val":[],"uint64Val":[],"dtype":1,"tensorShape":{"dim":[{"size":"576"}]}}},"dtype":{"type":1}},"name":"MobilenetV2/expanded_conv_11/expand/BatchNorm/gamma","op":"Const"},{"input":[],"attr":{"value":{"tensor":{"floatVal":[],"doubleVal":[],"intVal":[],"stringVal":[],"scomplexVal":[],"int64Val":[],"boolVal":[],"uint32Val":[],"uint64Val":[],"dtype":1,"tensorShape":{"dim":[{"size":"576"}]}}},"dtype":{"type":1}},"name":"MobilenetV2/expanded_conv_11/expand/BatchNorm/beta","op":"Const"},{"input":[],"attr":{"value":{"tensor":{"floatVal":[],"doubleVal":[],"intVal":[],"stringVal":[],"scomplexVal":[],"int64Val":[],"boolVal":[],"uint32Val":[],"uint64Val":[],"dtype":1,"tensorShape":{"dim":[{"size":"576"}]}}},"dtype":{"type":1}},"name":"MobilenetV2/expanded_conv_11/expand/BatchNorm/moving_mean","op":"Const"},{"input":[],"attr":{"dtype":{"type":1},"value":{"tensor":{"floatVal":[],"doubleVal":[],"intVal":[],"stringVal":[],"scomplexVal":[],"int64Val":[],"boolVal":[],"uint32Val":[],"uint64Val":[],"dtype":1,"tensorShape":{"dim":[{"size":"576"}]}}}},"name":"MobilenetV2/expanded_conv_11/expand/BatchNorm/moving_variance","op":"Const"},{"input":[],"attr":{"value":{"tensor":{"floatVal":[],"doubleVal":[],"intVal":[],"stringVal":[],"scomplexVal":[],"int64Val":[],"boolVal":[],"uint32Val":[],"uint64Val":[],"dtype":1,"tensorShape":{"dim":[{"size":"3"},{"size":"3"},{"size":"576"},{"size":"1"}]}}},"dtype":{"type":1}},"name":"MobilenetV2/expanded_conv_11/depthwise/depthwise_weights","op":"Const"},{"input":[],"attr":{"value":{"tensor":{"floatVal":[],"doubleVal":[],"intVal":[],"stringVal":[],"scomplexVal":[],"int64Val":[],"boolVal":[],"uint32Val":[],"uint64Val":[],"dtype":1,"tensorShape":{"dim":[{"size":"576"}]}}},"dtype":{"type":1}},"name":"MobilenetV2/expanded_conv_11/depthwise/BatchNorm/gamma","op":"Const"},{"input":[],"attr":{"value":{"tensor":{"floatVal":[],"doubleVal":[],"intVal":[],"stringVal":[],"scomplexVal":[],"int64Val":[],"boolVal":[],"uint32Val":[],"uint64Val":[],"dtype":1,"tensorShape":{"dim":[{"size":"576"}]}}},"dtype":{"type":1}},"name":"MobilenetV2/expanded_conv_11/depthwise/BatchNorm/beta","op":"Const"},{"input":[],"attr":{"value":{"tensor":{"floatVal":[],"doubleVal":[],"intVal":[],"stringVal":[],"scomplexVal":[],"int64Val":[],"boolVal":[],"uint32Val":[],"uint64Val":[],"dtype":1,"tensorShape":{"dim":[{"size":"576"}]}}},"dtype":{"type":1}},"name":"MobilenetV2/expanded_conv_11/depthwise/BatchNorm/moving_mean","op":"Const"},{"input":[],"attr":{"value":{"tensor":{"floatVal":[],"doubleVal":[],"intVal":[],"stringVal":[],"scomplexVal":[],"int64Val":[],"boolVal":[],"uint32Val":[],"uint64Val":[],"dtype":1,"tensorShape":{"dim":[{"size":"576"}]}}},"dtype":{"type":1}},"name":"MobilenetV2/expanded_conv_11/depthwise/BatchNorm/moving_variance","op":"Const"},{"input":[],"attr":{"value":{"tensor":{"floatVal":[],"doubleVal":[],"intVal":[],"stringVal":[],"scomplexVal":[],"int64Val":[],"boolVal":[],"uint32Val":[],"uint64Val":[],"dtype":1,"tensorShape":{"dim":[{"size":"1"},{"size":"1"},{"size":"576"},{"size":"96"}]}}},"dtype":{"type":1}},"name":"MobilenetV2/expanded_conv_11/project/weights","op":"Const"},{"input":[],"attr":{"value":{"tensor":{"floatVal":[],"doubleVal":[],"intVal":[],"stringVal":[],"scomplexVal":[],"int64Val":[],"boolVal":[],"uint32Val":[],"uint64Val":[],"dtype":1,"tensorShape":{"dim":[{"size":"96"}]}}},"dtype":{"type":1}},"name":"MobilenetV2/expanded_conv_11/project/BatchNorm/gamma","op":"Const"},{"input":[],"attr":{"value":{"tensor":{"floatVal":[],"doubleVal":[],"intVal":[],"stringVal":[],"scomplexVal":[],"int64Val":[],"boolVal":[],"uint32Val":[],"uint64Val":[],"dtype":1,"tensorShape":{"dim":[{"size":"96"}]}}},"dtype":{"type":1}},"name":"MobilenetV2/expanded_conv_11/project/BatchNorm/beta","op":"Const"},{"input":[],"attr":{"dtype":{"type":1},"value":{"tensor":{"floatVal":[],"doubleVal":[],"intVal":[],"stringVal":[],"scomplexVal":[],"int64Val":[],"boolVal":[],"uint32Val":[],"uint64Val":[],"dtype":1,"tensorShape":{"dim":[{"size":"96"}]}}}},"name":"MobilenetV2/expanded_conv_11/project/BatchNorm/moving_mean","op":"Const"},{"input":[],"attr":{"value":{"tensor":{"floatVal":[],"doubleVal":[],"intVal":[],"stringVal":[],"scomplexVal":[],"int64Val":[],"boolVal":[],"uint32Val":[],"uint64Val":[],"dtype":1,"tensorShape":{"dim":[{"size":"96"}]}}},"dtype":{"type":1}},"name":"MobilenetV2/expanded_conv_11/project/BatchNorm/moving_variance","op":"Const"},{"input":[],"attr":{"value":{"tensor":{"floatVal":[],"doubleVal":[],"intVal":[],"stringVal":[],"scomplexVal":[],"int64Val":[],"boolVal":[],"uint32Val":[],"uint64Val":[],"dtype":1,"tensorShape":{"dim":[{"size":"1"},{"size":"1"},{"size":"96"},{"size":"576"}]}}},"dtype":{"type":1}},"name":"MobilenetV2/expanded_conv_12/expand/weights","op":"Const"},{"input":[],"attr":{"value":{"tensor":{"floatVal":[],"doubleVal":[],"intVal":[],"stringVal":[],"scomplexVal":[],"int64Val":[],"boolVal":[],"uint32Val":[],"uint64Val":[],"dtype":1,"tensorShape":{"dim":[{"size":"576"}]}}},"dtype":{"type":1}},"name":"MobilenetV2/expanded_conv_12/expand/BatchNorm/gamma","op":"Const"},{"input":[],"attr":{"value":{"tensor":{"floatVal":[],"doubleVal":[],"intVal":[],"stringVal":[],"scomplexVal":[],"int64Val":[],"boolVal":[],"uint32Val":[],"uint64Val":[],"dtype":1,"tensorShape":{"dim":[{"size":"576"}]}}},"dtype":{"type":1}},"name":"MobilenetV2/expanded_conv_12/expand/BatchNorm/beta","op":"Const"},{"input":[],"attr":{"value":{"tensor":{"floatVal":[],"doubleVal":[],"intVal":[],"stringVal":[],"scomplexVal":[],"int64Val":[],"boolVal":[],"uint32Val":[],"uint64Val":[],"dtype":1,"tensorShape":{"dim":[{"size":"576"}]}}},"dtype":{"type":1}},"name":"MobilenetV2/expanded_conv_12/expand/BatchNorm/moving_mean","op":"Const"},{"input":[],"attr":{"value":{"tensor":{"floatVal":[],"doubleVal":[],"intVal":[],"stringVal":[],"scomplexVal":[],"int64Val":[],"boolVal":[],"uint32Val":[],"uint64Val":[],"dtype":1,"tensorShape":{"dim":[{"size":"576"}]}}},"dtype":{"type":1}},"name":"MobilenetV2/expanded_conv_12/expand/BatchNorm/moving_variance","op":"Const"},{"input":[],"attr":{"value":{"tensor":{"floatVal":[],"doubleVal":[],"intVal":[],"stringVal":[],"scomplexVal":[],"int64Val":[],"boolVal":[],"uint32Val":[],"uint64Val":[],"dtype":1,"tensorShape":{"dim":[{"size":"3"},{"size":"3"},{"size":"576"},{"size":"1"}]}}},"dtype":{"type":1}},"name":"MobilenetV2/expanded_conv_12/depthwise/depthwise_weights","op":"Const"},{"input":[],"attr":{"value":{"tensor":{"floatVal":[],"doubleVal":[],"intVal":[],"stringVal":[],"scomplexVal":[],"int64Val":[],"boolVal":[],"uint32Val":[],"uint64Val":[],"dtype":1,"tensorShape":{"dim":[{"size":"576"}]}}},"dtype":{"type":1}},"name":"MobilenetV2/expanded_conv_12/depthwise/BatchNorm/gamma","op":"Const"},{"input":[],"attr":{"value":{"tensor":{"floatVal":[],"doubleVal":[],"intVal":[],"stringVal":[],"scomplexVal":[],"int64Val":[],"boolVal":[],"uint32Val":[],"uint64Val":[],"dtype":1,"tensorShape":{"dim":[{"size":"576"}]}}},"dtype":{"type":1}},"name":"MobilenetV2/expanded_conv_12/depthwise/BatchNorm/beta","op":"Const"},{"input":[],"attr":{"dtype":{"type":1},"value":{"tensor":{"floatVal":[],"doubleVal":[],"intVal":[],"stringVal":[],"scomplexVal":[],"int64Val":[],"boolVal":[],"uint32Val":[],"uint64Val":[],"dtype":1,"tensorShape":{"dim":[{"size":"576"}]}}}},"name":"MobilenetV2/expanded_conv_12/depthwise/BatchNorm/moving_mean","op":"Const"},{"input":[],"attr":{"value":{"tensor":{"floatVal":[],"doubleVal":[],"intVal":[],"stringVal":[],"scomplexVal":[],"int64Val":[],"boolVal":[],"uint32Val":[],"uint64Val":[],"dtype":1,"tensorShape":{"dim":[{"size":"576"}]}}},"dtype":{"type":1}},"name":"MobilenetV2/expanded_conv_12/depthwise/BatchNorm/moving_variance","op":"Const"},{"input":[],"attr":{"value":{"tensor":{"floatVal":[],"doubleVal":[],"intVal":[],"stringVal":[],"scomplexVal":[],"int64Val":[],"boolVal":[],"uint32Val":[],"uint64Val":[],"dtype":1,"tensorShape":{"dim":[{"size":"1"},{"size":"1"},{"size":"576"},{"size":"96"}]}}},"dtype":{"type":1}},"name":"MobilenetV2/expanded_conv_12/project/weights","op":"Const"},{"input":[],"attr":{"value":{"tensor":{"floatVal":[],"doubleVal":[],"intVal":[],"stringVal":[],"scomplexVal":[],"int64Val":[],"boolVal":[],"uint32Val":[],"uint64Val":[],"dtype":1,"tensorShape":{"dim":[{"size":"96"}]}}},"dtype":{"type":1}},"name":"MobilenetV2/expanded_conv_12/project/BatchNorm/gamma","op":"Const"},{"input":[],"attr":{"value":{"tensor":{"floatVal":[],"doubleVal":[],"intVal":[],"stringVal":[],"scomplexVal":[],"int64Val":[],"boolVal":[],"uint32Val":[],"uint64Val":[],"dtype":1,"tensorShape":{"dim":[{"size":"96"}]}}},"dtype":{"type":1}},"name":"MobilenetV2/expanded_conv_12/project/BatchNorm/beta","op":"Const"},{"input":[],"attr":{"value":{"tensor":{"floatVal":[],"doubleVal":[],"intVal":[],"stringVal":[],"scomplexVal":[],"int64Val":[],"boolVal":[],"uint32Val":[],"uint64Val":[],"dtype":1,"tensorShape":{"dim":[{"size":"96"}]}}},"dtype":{"type":1}},"name":"MobilenetV2/expanded_conv_12/project/BatchNorm/moving_mean","op":"Const"},{"input":[],"attr":{"value":{"tensor":{"floatVal":[],"doubleVal":[],"intVal":[],"stringVal":[],"scomplexVal":[],"int64Val":[],"boolVal":[],"uint32Val":[],"uint64Val":[],"dtype":1,"tensorShape":{"dim":[{"size":"96"}]}}},"dtype":{"type":1}},"name":"MobilenetV2/expanded_conv_12/project/BatchNorm/moving_variance","op":"Const"},{"input":[],"attr":{"value":{"tensor":{"floatVal":[],"doubleVal":[],"intVal":[],"stringVal":[],"scomplexVal":[],"int64Val":[],"boolVal":[],"uint32Val":[],"uint64Val":[],"dtype":1,"tensorShape":{"dim":[{"size":"1"},{"size":"1"},{"size":"96"},{"size":"576"}]}}},"dtype":{"type":1}},"name":"MobilenetV2/expanded_conv_13/expand/weights","op":"Const"},{"input":[],"attr":{"value":{"tensor":{"floatVal":[],"doubleVal":[],"intVal":[],"stringVal":[],"scomplexVal":[],"int64Val":[],"boolVal":[],"uint32Val":[],"uint64Val":[],"dtype":1,"tensorShape":{"dim":[{"size":"576"}]}}},"dtype":{"type":1}},"name":"MobilenetV2/expanded_conv_13/expand/BatchNorm/gamma","op":"Const"},{"input":[],"attr":{"value":{"tensor":{"floatVal":[],"doubleVal":[],"intVal":[],"stringVal":[],"scomplexVal":[],"int64Val":[],"boolVal":[],"uint32Val":[],"uint64Val":[],"dtype":1,"tensorShape":{"dim":[{"size":"576"}]}}},"dtype":{"type":1}},"name":"MobilenetV2/expanded_conv_13/expand/BatchNorm/beta","op":"Const"},{"input":[],"attr":{"value":{"tensor":{"floatVal":[],"doubleVal":[],"intVal":[],"stringVal":[],"scomplexVal":[],"int64Val":[],"boolVal":[],"uint32Val":[],"uint64Val":[],"dtype":1,"tensorShape":{"dim":[{"size":"576"}]}}},"dtype":{"type":1}},"name":"MobilenetV2/expanded_conv_13/expand/BatchNorm/moving_mean","op":"Const"},{"input":[],"attr":{"value":{"tensor":{"floatVal":[],"doubleVal":[],"intVal":[],"stringVal":[],"scomplexVal":[],"int64Val":[],"boolVal":[],"uint32Val":[],"uint64Val":[],"dtype":1,"tensorShape":{"dim":[{"size":"576"}]}}},"dtype":{"type":1}},"name":"MobilenetV2/expanded_conv_13/expand/BatchNorm/moving_variance","op":"Const"},{"input":[],"attr":{"dtype":{"type":3},"value":{"tensor":{"floatVal":[],"doubleVal":[],"intVal":[],"stringVal":[],"scomplexVal":[],"int64Val":[],"boolVal":[],"uint32Val":[],"uint64Val":[],"dtype":3,"tensorShape":{"dim":[{"size":"2"},{"size":"2"}]}}}},"name":"MobilenetV2/expanded_conv_7/depthwise/depthwise/SpaceToBatchND/paddings","op":"Const"},{"input":[],"attr":{"value":{"tensor":{"floatVal":[],"doubleVal":[],"intVal":[],"stringVal":[],"scomplexVal":[],"int64Val":[],"boolVal":[],"uint32Val":[],"uint64Val":[],"dtype":1,"tensorShape":{"dim":[{"size":"3"},{"size":"3"},{"size":"576"},{"size":"1"}]}}},"dtype":{"type":1}},"name":"MobilenetV2/expanded_conv_13/depthwise/depthwise_weights","op":"Const"},{"input":[],"attr":{"value":{"tensor":{"floatVal":[],"doubleVal":[],"intVal":[],"stringVal":[],"scomplexVal":[],"int64Val":[],"boolVal":[],"uint32Val":[],"uint64Val":[],"dtype":3,"tensorShape":{"dim":[{"size":"2"}]}}},"dtype":{"type":3}},"name":"MobilenetV2/expanded_conv_7/depthwise/depthwise/SpaceToBatchND/block_shape","op":"Const"},{"input":[],"attr":{"value":{"tensor":{"floatVal":[],"doubleVal":[],"intVal":[],"stringVal":[],"scomplexVal":[],"int64Val":[],"boolVal":[],"uint32Val":[],"uint64Val":[],"dtype":3,"tensorShape":{"dim":[{"size":"2"},{"size":"2"}]}}},"dtype":{"type":3}},"name":"MobilenetV2/expanded_conv_7/depthwise/depthwise/BatchToSpaceND/crops","op":"Const"},{"input":[],"attr":{"value":{"tensor":{"floatVal":[],"doubleVal":[],"intVal":[],"stringVal":[],"scomplexVal":[],"int64Val":[],"boolVal":[],"uint32Val":[],"uint64Val":[],"dtype":1,"tensorShape":{"dim":[{"size":"576"}]}}},"dtype":{"type":1}},"name":"MobilenetV2/expanded_conv_13/depthwise/BatchNorm/gamma","op":"Const"},{"input":[],"attr":{"dtype":{"type":1},"value":{"tensor":{"floatVal":[],"doubleVal":[],"intVal":[],"stringVal":[],"scomplexVal":[],"int64Val":[],"boolVal":[],"uint32Val":[],"uint64Val":[],"dtype":1,"tensorShape":{"dim":[{"size":"576"}]}}}},"name":"MobilenetV2/expanded_conv_13/depthwise/BatchNorm/beta","op":"Const"},{"input":[],"attr":{"value":{"tensor":{"floatVal":[],"doubleVal":[],"intVal":[],"stringVal":[],"scomplexVal":[],"int64Val":[],"boolVal":[],"uint32Val":[],"uint64Val":[],"dtype":1,"tensorShape":{"dim":[{"size":"576"}]}}},"dtype":{"type":1}},"name":"MobilenetV2/expanded_conv_13/depthwise/BatchNorm/moving_mean","op":"Const"},{"input":[],"attr":{"value":{"tensor":{"floatVal":[],"doubleVal":[],"intVal":[],"stringVal":[],"scomplexVal":[],"int64Val":[],"boolVal":[],"uint32Val":[],"uint64Val":[],"dtype":1,"tensorShape":{"dim":[{"size":"576"}]}}},"dtype":{"type":1}},"name":"MobilenetV2/expanded_conv_13/depthwise/BatchNorm/moving_variance","op":"Const"},{"input":[],"attr":{"value":{"tensor":{"floatVal":[],"doubleVal":[],"intVal":[],"stringVal":[],"scomplexVal":[],"int64Val":[],"boolVal":[],"uint32Val":[],"uint64Val":[],"dtype":1,"tensorShape":{"dim":[{"size":"1"},{"size":"1"},{"size":"576"},{"size":"160"}]}}},"dtype":{"type":1}},"name":"MobilenetV2/expanded_conv_13/project/weights","op":"Const"},{"input":[],"attr":{"value":{"tensor":{"floatVal":[],"doubleVal":[],"intVal":[],"stringVal":[],"scomplexVal":[],"int64Val":[],"boolVal":[],"uint32Val":[],"uint64Val":[],"dtype":1,"tensorShape":{"dim":[{"size":"160"}]}}},"dtype":{"type":1}},"name":"MobilenetV2/expanded_conv_13/project/BatchNorm/gamma","op":"Const"},{"input":[],"attr":{"value":{"tensor":{"floatVal":[],"doubleVal":[],"intVal":[],"stringVal":[],"scomplexVal":[],"int64Val":[],"boolVal":[],"uint32Val":[],"uint64Val":[],"dtype":1,"tensorShape":{"dim":[{"size":"160"}]}}},"dtype":{"type":1}},"name":"MobilenetV2/expanded_conv_13/project/BatchNorm/beta","op":"Const"},{"input":[],"attr":{"value":{"tensor":{"floatVal":[],"doubleVal":[],"intVal":[],"stringVal":[],"scomplexVal":[],"int64Val":[],"boolVal":[],"uint32Val":[],"uint64Val":[],"dtype":1,"tensorShape":{"dim":[{"size":"160"}]}}},"dtype":{"type":1}},"name":"MobilenetV2/expanded_conv_13/project/BatchNorm/moving_mean","op":"Const"},{"input":[],"attr":{"value":{"tensor":{"floatVal":[],"doubleVal":[],"intVal":[],"stringVal":[],"scomplexVal":[],"int64Val":[],"boolVal":[],"uint32Val":[],"uint64Val":[],"dtype":1,"tensorShape":{"dim":[{"size":"160"}]}}},"dtype":{"type":1}},"name":"MobilenetV2/expanded_conv_13/project/BatchNorm/moving_variance","op":"Const"},{"input":[],"attr":{"value":{"tensor":{"floatVal":[],"doubleVal":[],"intVal":[],"stringVal":[],"scomplexVal":[],"int64Val":[],"boolVal":[],"uint32Val":[],"uint64Val":[],"dtype":1,"tensorShape":{"dim":[{"size":"1"},{"size":"1"},{"size":"160"},{"size":"960"}]}}},"dtype":{"type":1}},"name":"MobilenetV2/expanded_conv_14/expand/weights","op":"Const"},{"input":[],"attr":{"value":{"tensor":{"floatVal":[],"doubleVal":[],"intVal":[],"stringVal":[],"scomplexVal":[],"int64Val":[],"boolVal":[],"uint32Val":[],"uint64Val":[],"dtype":1,"tensorShape":{"dim":[{"size":"960"}]}}},"dtype":{"type":1}},"name":"MobilenetV2/expanded_conv_14/expand/BatchNorm/gamma","op":"Const"},{"input":[],"attr":{"value":{"tensor":{"floatVal":[],"doubleVal":[],"intVal":[],"stringVal":[],"scomplexVal":[],"int64Val":[],"boolVal":[],"uint32Val":[],"uint64Val":[],"dtype":1,"tensorShape":{"dim":[{"size":"960"}]}}},"dtype":{"type":1}},"name":"MobilenetV2/expanded_conv_14/expand/BatchNorm/beta","op":"Const"},{"input":[],"attr":{"value":{"tensor":{"floatVal":[],"doubleVal":[],"intVal":[],"stringVal":[],"scomplexVal":[],"int64Val":[],"boolVal":[],"uint32Val":[],"uint64Val":[],"dtype":1,"tensorShape":{"dim":[{"size":"960"}]}}},"dtype":{"type":1}},"name":"MobilenetV2/expanded_conv_14/expand/BatchNorm/moving_mean","op":"Const"},{"input":[],"attr":{"value":{"tensor":{"floatVal":[],"doubleVal":[],"intVal":[],"stringVal":[],"scomplexVal":[],"int64Val":[],"boolVal":[],"uint32Val":[],"uint64Val":[],"dtype":1,"tensorShape":{"dim":[{"size":"960"}]}}},"dtype":{"type":1}},"name":"MobilenetV2/expanded_conv_14/expand/BatchNorm/moving_variance","op":"Const"},{"input":[],"attr":{"value":{"tensor":{"floatVal":[],"doubleVal":[],"intVal":[],"stringVal":[],"scomplexVal":[],"int64Val":[],"boolVal":[],"uint32Val":[],"uint64Val":[],"dtype":1,"tensorShape":{"dim":[{"size":"3"},{"size":"3"},{"size":"960"},{"size":"1"}]}}},"dtype":{"type":1}},"name":"MobilenetV2/expanded_conv_14/depthwise/depthwise_weights","op":"Const"},{"input":[],"attr":{"dtype":{"type":1},"value":{"tensor":{"floatVal":[],"doubleVal":[],"intVal":[],"stringVal":[],"scomplexVal":[],"int64Val":[],"boolVal":[],"uint32Val":[],"uint64Val":[],"dtype":1,"tensorShape":{"dim":[{"size":"960"}]}}}},"name":"MobilenetV2/expanded_conv_14/depthwise/BatchNorm/gamma","op":"Const"},{"input":[],"attr":{"dtype":{"type":1},"value":{"tensor":{"floatVal":[],"doubleVal":[],"intVal":[],"stringVal":[],"scomplexVal":[],"int64Val":[],"boolVal":[],"uint32Val":[],"uint64Val":[],"dtype":1,"tensorShape":{"dim":[{"size":"960"}]}}}},"name":"MobilenetV2/expanded_conv_14/depthwise/BatchNorm/beta","op":"Const"},{"input":[],"attr":{"value":{"tensor":{"floatVal":[],"doubleVal":[],"intVal":[],"stringVal":[],"scomplexVal":[],"int64Val":[],"boolVal":[],"uint32Val":[],"uint64Val":[],"dtype":1,"tensorShape":{"dim":[{"size":"960"}]}}},"dtype":{"type":1}},"name":"MobilenetV2/expanded_conv_14/depthwise/BatchNorm/moving_mean","op":"Const"},{"input":[],"attr":{"value":{"tensor":{"floatVal":[],"doubleVal":[],"intVal":[],"stringVal":[],"scomplexVal":[],"int64Val":[],"boolVal":[],"uint32Val":[],"uint64Val":[],"dtype":1,"tensorShape":{"dim":[{"size":"960"}]}}},"dtype":{"type":1}},"name":"MobilenetV2/expanded_conv_14/depthwise/BatchNorm/moving_variance","op":"Const"},{"input":[],"attr":{"value":{"tensor":{"floatVal":[],"doubleVal":[],"intVal":[],"stringVal":[],"scomplexVal":[],"int64Val":[],"boolVal":[],"uint32Val":[],"uint64Val":[],"dtype":1,"tensorShape":{"dim":[{"size":"1"},{"size":"1"},{"size":"960"},{"size":"160"}]}}},"dtype":{"type":1}},"name":"MobilenetV2/expanded_conv_14/project/weights","op":"Const"},{"input":[],"attr":{"dtype":{"type":1},"value":{"tensor":{"floatVal":[],"doubleVal":[],"intVal":[],"stringVal":[],"scomplexVal":[],"int64Val":[],"boolVal":[],"uint32Val":[],"uint64Val":[],"dtype":1,"tensorShape":{"dim":[{"size":"160"}]}}}},"name":"MobilenetV2/expanded_conv_14/project/BatchNorm/gamma","op":"Const"},{"input":[],"attr":{"value":{"tensor":{"floatVal":[],"doubleVal":[],"intVal":[],"stringVal":[],"scomplexVal":[],"int64Val":[],"boolVal":[],"uint32Val":[],"uint64Val":[],"dtype":1,"tensorShape":{"dim":[{"size":"160"}]}}},"dtype":{"type":1}},"name":"MobilenetV2/expanded_conv_14/project/BatchNorm/beta","op":"Const"},{"input":[],"attr":{"value":{"tensor":{"floatVal":[],"doubleVal":[],"intVal":[],"stringVal":[],"scomplexVal":[],"int64Val":[],"boolVal":[],"uint32Val":[],"uint64Val":[],"dtype":1,"tensorShape":{"dim":[{"size":"160"}]}}},"dtype":{"type":1}},"name":"MobilenetV2/expanded_conv_14/project/BatchNorm/moving_mean","op":"Const"},{"input":[],"attr":{"value":{"tensor":{"floatVal":[],"doubleVal":[],"intVal":[],"stringVal":[],"scomplexVal":[],"int64Val":[],"boolVal":[],"uint32Val":[],"uint64Val":[],"dtype":1,"tensorShape":{"dim":[{"size":"160"}]}}},"dtype":{"type":1}},"name":"MobilenetV2/expanded_conv_14/project/BatchNorm/moving_variance","op":"Const"},{"input":[],"attr":{"value":{"tensor":{"floatVal":[],"doubleVal":[],"intVal":[],"stringVal":[],"scomplexVal":[],"int64Val":[],"boolVal":[],"uint32Val":[],"uint64Val":[],"dtype":1,"tensorShape":{"dim":[{"size":"1"},{"size":"1"},{"size":"160"},{"size":"960"}]}}},"dtype":{"type":1}},"name":"MobilenetV2/expanded_conv_15/expand/weights","op":"Const"},{"input":[],"attr":{"value":{"tensor":{"floatVal":[],"doubleVal":[],"intVal":[],"stringVal":[],"scomplexVal":[],"int64Val":[],"boolVal":[],"uint32Val":[],"uint64Val":[],"dtype":1,"tensorShape":{"dim":[{"size":"960"}]}}},"dtype":{"type":1}},"name":"MobilenetV2/expanded_conv_15/expand/BatchNorm/gamma","op":"Const"},{"input":[],"attr":{"value":{"tensor":{"floatVal":[],"doubleVal":[],"intVal":[],"stringVal":[],"scomplexVal":[],"int64Val":[],"boolVal":[],"uint32Val":[],"uint64Val":[],"dtype":1,"tensorShape":{"dim":[{"size":"960"}]}}},"dtype":{"type":1}},"name":"MobilenetV2/expanded_conv_15/expand/BatchNorm/beta","op":"Const"},{"input":[],"attr":{"value":{"tensor":{"floatVal":[],"doubleVal":[],"intVal":[],"stringVal":[],"scomplexVal":[],"int64Val":[],"boolVal":[],"uint32Val":[],"uint64Val":[],"dtype":1,"tensorShape":{"dim":[{"size":"960"}]}}},"dtype":{"type":1}},"name":"MobilenetV2/expanded_conv_15/expand/BatchNorm/moving_mean","op":"Const"},{"input":[],"attr":{"value":{"tensor":{"floatVal":[],"doubleVal":[],"intVal":[],"stringVal":[],"scomplexVal":[],"int64Val":[],"boolVal":[],"uint32Val":[],"uint64Val":[],"dtype":1,"tensorShape":{"dim":[{"size":"960"}]}}},"dtype":{"type":1}},"name":"MobilenetV2/expanded_conv_15/expand/BatchNorm/moving_variance","op":"Const"},{"input":[],"attr":{"value":{"tensor":{"floatVal":[],"doubleVal":[],"intVal":[],"stringVal":[],"scomplexVal":[],"int64Val":[],"boolVal":[],"uint32Val":[],"uint64Val":[],"dtype":1,"tensorShape":{"dim":[{"size":"3"},{"size":"3"},{"size":"960"},{"size":"1"}]}}},"dtype":{"type":1}},"name":"MobilenetV2/expanded_conv_15/depthwise/depthwise_weights","op":"Const"},{"input":[],"attr":{"value":{"tensor":{"floatVal":[],"doubleVal":[],"intVal":[],"stringVal":[],"scomplexVal":[],"int64Val":[],"boolVal":[],"uint32Val":[],"uint64Val":[],"dtype":1,"tensorShape":{"dim":[{"size":"960"}]}}},"dtype":{"type":1}},"name":"MobilenetV2/expanded_conv_15/depthwise/BatchNorm/gamma","op":"Const"},{"input":[],"attr":{"value":{"tensor":{"floatVal":[],"doubleVal":[],"intVal":[],"stringVal":[],"scomplexVal":[],"int64Val":[],"boolVal":[],"uint32Val":[],"uint64Val":[],"dtype":1,"tensorShape":{"dim":[{"size":"960"}]}}},"dtype":{"type":1}},"name":"MobilenetV2/expanded_conv_15/depthwise/BatchNorm/beta","op":"Const"},{"input":[],"attr":{"value":{"tensor":{"floatVal":[],"doubleVal":[],"intVal":[],"stringVal":[],"scomplexVal":[],"int64Val":[],"boolVal":[],"uint32Val":[],"uint64Val":[],"dtype":1,"tensorShape":{"dim":[{"size":"960"}]}}},"dtype":{"type":1}},"name":"MobilenetV2/expanded_conv_15/depthwise/BatchNorm/moving_mean","op":"Const"},{"input":[],"attr":{"value":{"tensor":{"floatVal":[],"doubleVal":[],"intVal":[],"stringVal":[],"scomplexVal":[],"int64Val":[],"boolVal":[],"uint32Val":[],"uint64Val":[],"dtype":1,"tensorShape":{"dim":[{"size":"960"}]}}},"dtype":{"type":1}},"name":"MobilenetV2/expanded_conv_15/depthwise/BatchNorm/moving_variance","op":"Const"},{"input":[],"attr":{"dtype":{"type":1},"value":{"tensor":{"floatVal":[],"doubleVal":[],"intVal":[],"stringVal":[],"scomplexVal":[],"int64Val":[],"boolVal":[],"uint32Val":[],"uint64Val":[],"dtype":1,"tensorShape":{"dim":[{"size":"1"},{"size":"1"},{"size":"960"},{"size":"160"}]}}}},"name":"MobilenetV2/expanded_conv_15/project/weights","op":"Const"},{"input":[],"attr":{"value":{"tensor":{"floatVal":[],"doubleVal":[],"intVal":[],"stringVal":[],"scomplexVal":[],"int64Val":[],"boolVal":[],"uint32Val":[],"uint64Val":[],"dtype":1,"tensorShape":{"dim":[{"size":"160"}]}}},"dtype":{"type":1}},"name":"MobilenetV2/expanded_conv_15/project/BatchNorm/gamma","op":"Const"},{"input":[],"attr":{"dtype":{"type":1},"value":{"tensor":{"floatVal":[],"doubleVal":[],"intVal":[],"stringVal":[],"scomplexVal":[],"int64Val":[],"boolVal":[],"uint32Val":[],"uint64Val":[],"dtype":1,"tensorShape":{"dim":[{"size":"160"}]}}}},"name":"MobilenetV2/expanded_conv_15/project/BatchNorm/beta","op":"Const"},{"input":[],"attr":{"value":{"tensor":{"floatVal":[],"doubleVal":[],"intVal":[],"stringVal":[],"scomplexVal":[],"int64Val":[],"boolVal":[],"uint32Val":[],"uint64Val":[],"dtype":1,"tensorShape":{"dim":[{"size":"160"}]}}},"dtype":{"type":1}},"name":"MobilenetV2/expanded_conv_15/project/BatchNorm/moving_mean","op":"Const"},{"input":[],"attr":{"value":{"tensor":{"floatVal":[],"doubleVal":[],"intVal":[],"stringVal":[],"scomplexVal":[],"int64Val":[],"boolVal":[],"uint32Val":[],"uint64Val":[],"dtype":1,"tensorShape":{"dim":[{"size":"160"}]}}},"dtype":{"type":1}},"name":"MobilenetV2/expanded_conv_15/project/BatchNorm/moving_variance","op":"Const"},{"input":[],"attr":{"value":{"tensor":{"floatVal":[],"doubleVal":[],"intVal":[],"stringVal":[],"scomplexVal":[],"int64Val":[],"boolVal":[],"uint32Val":[],"uint64Val":[],"dtype":1,"tensorShape":{"dim":[{"size":"1"},{"size":"1"},{"size":"160"},{"size":"960"}]}}},"dtype":{"type":1}},"name":"MobilenetV2/expanded_conv_16/expand/weights","op":"Const"},{"input":[],"attr":{"value":{"tensor":{"floatVal":[],"doubleVal":[],"intVal":[],"stringVal":[],"scomplexVal":[],"int64Val":[],"boolVal":[],"uint32Val":[],"uint64Val":[],"dtype":1,"tensorShape":{"dim":[{"size":"960"}]}}},"dtype":{"type":1}},"name":"MobilenetV2/expanded_conv_16/expand/BatchNorm/gamma","op":"Const"},{"input":[],"attr":{"value":{"tensor":{"floatVal":[],"doubleVal":[],"intVal":[],"stringVal":[],"scomplexVal":[],"int64Val":[],"boolVal":[],"uint32Val":[],"uint64Val":[],"dtype":1,"tensorShape":{"dim":[{"size":"960"}]}}},"dtype":{"type":1}},"name":"MobilenetV2/expanded_conv_16/expand/BatchNorm/beta","op":"Const"},{"input":[],"attr":{"value":{"tensor":{"floatVal":[],"doubleVal":[],"intVal":[],"stringVal":[],"scomplexVal":[],"int64Val":[],"boolVal":[],"uint32Val":[],"uint64Val":[],"dtype":1,"tensorShape":{"dim":[{"size":"960"}]}}},"dtype":{"type":1}},"name":"MobilenetV2/expanded_conv_16/expand/BatchNorm/moving_mean","op":"Const"},{"input":[],"attr":{"value":{"tensor":{"floatVal":[],"doubleVal":[],"intVal":[],"stringVal":[],"scomplexVal":[],"int64Val":[],"boolVal":[],"uint32Val":[],"uint64Val":[],"dtype":1,"tensorShape":{"dim":[{"size":"960"}]}}},"dtype":{"type":1}},"name":"MobilenetV2/expanded_conv_16/expand/BatchNorm/moving_variance","op":"Const"},{"input":[],"attr":{"value":{"tensor":{"floatVal":[],"doubleVal":[],"intVal":[],"stringVal":[],"scomplexVal":[],"int64Val":[],"boolVal":[],"uint32Val":[],"uint64Val":[],"dtype":3,"tensorShape":{"dim":[{"size":"2"},{"size":"2"}]}}},"dtype":{"type":3}},"name":"MobilenetV2/expanded_conv_14/depthwise/depthwise/SpaceToBatchND/paddings","op":"Const"},{"input":[],"attr":{"value":{"tensor":{"floatVal":[],"doubleVal":[],"intVal":[],"stringVal":[],"scomplexVal":[],"int64Val":[],"boolVal":[],"uint32Val":[],"uint64Val":[],"dtype":1,"tensorShape":{"dim":[{"size":"3"},{"size":"3"},{"size":"960"},{"size":"1"}]}}},"dtype":{"type":1}},"name":"MobilenetV2/expanded_conv_16/depthwise/depthwise_weights","op":"Const"},{"input":[],"attr":{"value":{"tensor":{"floatVal":[],"doubleVal":[],"intVal":[],"stringVal":[],"scomplexVal":[],"int64Val":[],"boolVal":[],"uint32Val":[],"uint64Val":[],"dtype":3,"tensorShape":{"dim":[{"size":"2"}]}}},"dtype":{"type":3}},"name":"MobilenetV2/expanded_conv_14/depthwise/depthwise/SpaceToBatchND/block_shape","op":"Const"},{"input":[],"attr":{"value":{"tensor":{"floatVal":[],"doubleVal":[],"intVal":[],"stringVal":[],"scomplexVal":[],"int64Val":[],"boolVal":[],"uint32Val":[],"uint64Val":[],"dtype":3,"tensorShape":{"dim":[{"size":"2"},{"size":"2"}]}}},"dtype":{"type":3}},"name":"MobilenetV2/expanded_conv_14/depthwise/depthwise/BatchToSpaceND/crops","op":"Const"},{"input":[],"attr":{"dtype":{"type":1},"value":{"tensor":{"floatVal":[],"doubleVal":[],"intVal":[],"stringVal":[],"scomplexVal":[],"int64Val":[],"boolVal":[],"uint32Val":[],"uint64Val":[],"dtype":1,"tensorShape":{"dim":[{"size":"960"}]}}}},"name":"MobilenetV2/expanded_conv_16/depthwise/BatchNorm/gamma","op":"Const"},{"input":[],"attr":{"value":{"tensor":{"floatVal":[],"doubleVal":[],"intVal":[],"stringVal":[],"scomplexVal":[],"int64Val":[],"boolVal":[],"uint32Val":[],"uint64Val":[],"dtype":1,"tensorShape":{"dim":[{"size":"960"}]}}},"dtype":{"type":1}},"name":"MobilenetV2/expanded_conv_16/depthwise/BatchNorm/beta","op":"Const"},{"input":[],"attr":{"value":{"tensor":{"floatVal":[],"doubleVal":[],"intVal":[],"stringVal":[],"scomplexVal":[],"int64Val":[],"boolVal":[],"uint32Val":[],"uint64Val":[],"dtype":1,"tensorShape":{"dim":[{"size":"960"}]}}},"dtype":{"type":1}},"name":"MobilenetV2/expanded_conv_16/depthwise/BatchNorm/moving_mean","op":"Const"},{"input":[],"attr":{"value":{"tensor":{"floatVal":[],"doubleVal":[],"intVal":[],"stringVal":[],"scomplexVal":[],"int64Val":[],"boolVal":[],"uint32Val":[],"uint64Val":[],"dtype":1,"tensorShape":{"dim":[{"size":"960"}]}}},"dtype":{"type":1}},"name":"MobilenetV2/expanded_conv_16/depthwise/BatchNorm/moving_variance","op":"Const"},{"input":[],"attr":{"value":{"tensor":{"floatVal":[],"doubleVal":[],"intVal":[],"stringVal":[],"scomplexVal":[],"int64Val":[],"boolVal":[],"uint32Val":[],"uint64Val":[],"dtype":1,"tensorShape":{"dim":[{"size":"1"},{"size":"1"},{"size":"960"},{"size":"320"}]}}},"dtype":{"type":1}},"name":"MobilenetV2/expanded_conv_16/project/weights","op":"Const"},{"input":[],"attr":{"value":{"tensor":{"floatVal":[],"doubleVal":[],"intVal":[],"stringVal":[],"scomplexVal":[],"int64Val":[],"boolVal":[],"uint32Val":[],"uint64Val":[],"dtype":1,"tensorShape":{"dim":[{"size":"320"}]}}},"dtype":{"type":1}},"name":"MobilenetV2/expanded_conv_16/project/BatchNorm/gamma","op":"Const"},{"input":[],"attr":{"value":{"tensor":{"floatVal":[],"doubleVal":[],"intVal":[],"stringVal":[],"scomplexVal":[],"int64Val":[],"boolVal":[],"uint32Val":[],"uint64Val":[],"dtype":1,"tensorShape":{"dim":[{"size":"320"}]}}},"dtype":{"type":1}},"name":"MobilenetV2/expanded_conv_16/project/BatchNorm/beta","op":"Const"},{"input":[],"attr":{"value":{"tensor":{"floatVal":[],"doubleVal":[],"intVal":[],"stringVal":[],"scomplexVal":[],"int64Val":[],"boolVal":[],"uint32Val":[],"uint64Val":[],"dtype":1,"tensorShape":{"dim":[{"size":"320"}]}}},"dtype":{"type":1}},"name":"MobilenetV2/expanded_conv_16/project/BatchNorm/moving_mean","op":"Const"},{"input":[],"attr":{"value":{"tensor":{"floatVal":[],"doubleVal":[],"intVal":[],"stringVal":[],"scomplexVal":[],"int64Val":[],"boolVal":[],"uint32Val":[],"uint64Val":[],"dtype":1,"tensorShape":{"dim":[{"size":"320"}]}}},"dtype":{"type":1}},"name":"MobilenetV2/expanded_conv_16/project/BatchNorm/moving_variance","op":"Const"},{"input":[],"attr":{"value":{"tensor":{"floatVal":[],"doubleVal":[],"intVal":[],"stringVal":[],"scomplexVal":[],"int64Val":[],"boolVal":[],"uint32Val":[],"uint64Val":[],"dtype":1,"tensorShape":{"dim":[{"size":"1"},{"size":"1"},{"size":"320"},{"size":"256"}]}}},"dtype":{"type":1}},"name":"aspp0/weights","op":"Const"},{"input":[],"attr":{"value":{"tensor":{"floatVal":[],"doubleVal":[],"intVal":[],"stringVal":[],"scomplexVal":[],"int64Val":[],"boolVal":[],"uint32Val":[],"uint64Val":[],"dtype":1,"tensorShape":{"dim":[{"size":"256"}]}}},"dtype":{"type":1}},"name":"aspp0/BatchNorm/gamma","op":"Const"},{"input":[],"attr":{"value":{"tensor":{"floatVal":[],"doubleVal":[],"intVal":[],"stringVal":[],"scomplexVal":[],"int64Val":[],"boolVal":[],"uint32Val":[],"uint64Val":[],"dtype":1,"tensorShape":{"dim":[{"size":"256"}]}}},"dtype":{"type":1}},"name":"aspp0/BatchNorm/beta","op":"Const"},{"input":[],"attr":{"value":{"tensor":{"floatVal":[],"doubleVal":[],"intVal":[],"stringVal":[],"scomplexVal":[],"int64Val":[],"boolVal":[],"uint32Val":[],"uint64Val":[],"dtype":1,"tensorShape":{"dim":[{"size":"256"}]}}},"dtype":{"type":1}},"name":"aspp0/BatchNorm/moving_mean","op":"Const"},{"input":[],"attr":{"value":{"tensor":{"floatVal":[],"doubleVal":[],"intVal":[],"stringVal":[],"scomplexVal":[],"int64Val":[],"boolVal":[],"uint32Val":[],"uint64Val":[],"dtype":1,"tensorShape":{"dim":[{"size":"256"}]}}},"dtype":{"type":1}},"name":"aspp0/BatchNorm/moving_variance","op":"Const"},{"input":[],"attr":{"value":{"tensor":{"floatVal":[],"doubleVal":[],"intVal":[],"stringVal":[],"scomplexVal":[],"int64Val":[],"boolVal":[],"uint32Val":[],"uint64Val":[],"dtype":1,"tensorShape":{"dim":[{"size":"1"},{"size":"1"},{"size":"512"},{"size":"256"}]}}},"dtype":{"type":1}},"name":"concat_projection/weights","op":"Const"},{"input":[],"attr":{"value":{"tensor":{"floatVal":[],"doubleVal":[],"intVal":[],"stringVal":[],"scomplexVal":[],"int64Val":[],"boolVal":[],"uint32Val":[],"uint64Val":[],"dtype":1,"tensorShape":{"dim":[{"size":"256"}]}}},"dtype":{"type":1}},"name":"concat_projection/BatchNorm/gamma","op":"Const"},{"input":[],"attr":{"value":{"tensor":{"floatVal":[],"doubleVal":[],"intVal":[],"stringVal":[],"scomplexVal":[],"int64Val":[],"boolVal":[],"uint32Val":[],"uint64Val":[],"dtype":1,"tensorShape":{"dim":[{"size":"256"}]}}},"dtype":{"type":1}},"name":"concat_projection/BatchNorm/beta","op":"Const"},{"input":[],"attr":{"value":{"tensor":{"floatVal":[],"doubleVal":[],"intVal":[],"stringVal":[],"scomplexVal":[],"int64Val":[],"boolVal":[],"uint32Val":[],"uint64Val":[],"dtype":1,"tensorShape":{"dim":[{"size":"256"}]}}},"dtype":{"type":1}},"name":"concat_projection/BatchNorm/moving_mean","op":"Const"},{"input":[],"attr":{"value":{"tensor":{"floatVal":[],"doubleVal":[],"intVal":[],"stringVal":[],"scomplexVal":[],"int64Val":[],"boolVal":[],"uint32Val":[],"uint64Val":[],"dtype":1,"tensorShape":{"dim":[{"size":"256"}]}}},"dtype":{"type":1}},"name":"concat_projection/BatchNorm/moving_variance","op":"Const"},{"input":[],"attr":{"value":{"tensor":{"floatVal":[],"doubleVal":[],"intVal":[],"stringVal":[],"scomplexVal":[],"int64Val":[],"boolVal":[],"uint32Val":[],"uint64Val":[],"dtype":1,"tensorShape":{"dim":[{"size":"1"},{"size":"1"},{"size":"256"},{"size":"21"}]}}},"dtype":{"type":1}},"name":"logits/semantic/weights","op":"Const"},{"input":[],"attr":{"value":{"tensor":{"floatVal":[],"doubleVal":[],"intVal":[],"stringVal":[],"scomplexVal":[],"int64Val":[],"boolVal":[],"uint32Val":[],"uint64Val":[],"dtype":1,"tensorShape":{"dim":[{"size":"21"}]}}},"dtype":{"type":1}},"name":"logits/semantic/biases","op":"Const"},{"input":[],"attr":{"value":{"tensor":{"floatVal":[],"doubleVal":[],"intVal":[],"stringVal":[],"scomplexVal":[],"int64Val":[],"boolVal":[],"uint32Val":[],"uint64Val":[],"dtype":3,"tensorShape":{"dim":[{"size":"2"}]}}},"dtype":{"type":3}},"name":"ResizeBilinear_1/size","op":"Const"},{"input":[],"attr":{"value":{"tensor":{"floatVal":[],"doubleVal":[],"intVal":[],"stringVal":[],"scomplexVal":[],"int64Val":[],"boolVal":[],"uint32Val":[],"uint64Val":[],"dtype":3,"tensorShape":{"dim":[{"size":"2"}]}}},"dtype":{"type":3}},"name":"strided_slice_7","op":"Const"},{"input":[],"attr":{"value":{"tensor":{"floatVal":[],"doubleVal":[],"intVal":[3],"stringVal":[],"scomplexVal":[],"int64Val":[],"boolVal":[],"uint32Val":[],"uint64Val":[],"dtype":3,"tensorShape":{"dim":[]}}},"dtype":{"type":3}},"name":"Assert/Assert/data_1","op":"Const"},{"input":[],"attr":{"value":{"tensor":{"floatVal":[],"doubleVal":[],"intVal":[],"stringVal":[],"scomplexVal":[],"int64Val":[],"boolVal":[],"uint32Val":[],"uint64Val":[],"dtype":3,"tensorShape":{"dim":[{"size":"3"}]}}},"dtype":{"type":3}},"name":"SemanticPredictions/begin","op":"Const"},{"input":[],"attr":{"value":{"tensor":{"floatVal":[],"doubleVal":[],"intVal":[1],"stringVal":[],"scomplexVal":[],"int64Val":[],"boolVal":[],"uint32Val":[],"uint64Val":[],"dtype":3,"tensorShape":{"dim":[]}}},"dtype":{"type":3}},"name":"SemanticPredictions/size/0","op":"Const"},{"input":[],"attr":{"value":{"tensor":{"floatVal":[],"doubleVal":[],"intVal":[0],"stringVal":[],"scomplexVal":[],"int64Val":[],"boolVal":[],"uint32Val":[],"uint64Val":[],"dtype":3,"tensorShape":{"dim":[{"size":"1"}]}}},"dtype":{"type":3}},"name":"strided_slice_3/stack","op":"Const"},{"input":[],"attr":{"shape":{"shape":{"dim":[{"size":"1"},{"size":"-1"},{"size":"-1"},{"size":"3"}]}},"dtype":{"type":4}},"name":"ImageTensor","op":"Placeholder"},{"input":[],"attr":{"dtype":{"type":3},"value":{"tensor":{"floatVal":[],"doubleVal":[],"intVal":[3],"stringVal":[],"scomplexVal":[],"int64Val":[],"boolVal":[],"uint32Val":[],"uint64Val":[],"dtype":3,"tensorShape":{"dim":[{"size":"1"}]}}}},"name":"strided_slice/stack_1","op":"Const"},{"input":[],"attr":{"value":{"tensor":{"floatVal":[],"doubleVal":[],"intVal":[2],"stringVal":[],"scomplexVal":[],"int64Val":[],"boolVal":[],"uint32Val":[],"uint64Val":[],"dtype":3,"tensorShape":{"dim":[{"size":"1"}]}}},"dtype":{"type":3}},"name":"strided_slice_4/stack_1","op":"Const"},{"input":[],"attr":{"value":{"tensor":{"floatVal":[],"doubleVal":[],"intVal":[1],"stringVal":[],"scomplexVal":[],"int64Val":[],"boolVal":[],"uint32Val":[],"uint64Val":[],"dtype":3,"tensorShape":{"dim":[{"size":"1"}]}}},"dtype":{"type":3}},"name":"strided_slice_4/stack","op":"Const"},{"input":["ImageTensor"],"attr":{"squeeze_dims":{"list":{"s":[],"i":["0"],"f":[],"b":[],"type":[],"shape":[],"tensor":[],"func":[]}},"T":{"type":4}},"name":"Squeeze","op":"Squeeze"},{"input":["ImageTensor"],"attr":{"out_type":{"type":3},"T":{"type":4}},"name":"Shape","op":"Shape"},{"input":["Squeeze"],"attr":{"SrcT":{"type":4},"DstT":{"type":1}},"name":"Cast","op":"Cast"},{"input":["Shape","strided_slice_4/stack","strided_slice/stack_1","strided_slice_4/stack"],"attr":{"ellipsis_mask":{"i":"0"},"begin_mask":{"i":"0"},"new_axis_mask":{"i":"0"},"end_mask":{"i":"0"},"T":{"type":3},"Index":{"type":3},"shrink_axis_mask":{"i":"0"}},"name":"strided_slice","op":"StridedSlice"},{"input":["Cast","stack/0"],"attr":{"Tdim":{"type":3},"T":{"type":1}},"name":"ExpandDims","op":"ExpandDims"},{"input":["Cast"],"attr":{"T":{"type":1},"out_type":{"type":3}},"name":"Shape_1","op":"Shape"},{"input":["strided_slice","strided_slice_3/stack","strided_slice_4/stack","strided_slice_4/stack"],"attr":{"shrink_axis_mask":{"i":"1"},"begin_mask":{"i":"0"},"ellipsis_mask":{"i":"0"},"new_axis_mask":{"i":"0"},"end_mask":{"i":"0"},"T":{"type":3},"Index":{"type":3}},"name":"strided_slice_8","op":"StridedSlice"},{"input":["strided_slice","strided_slice_4/stack","strided_slice_4/stack_1","strided_slice_4/stack"],"attr":{"end_mask":{"i":"0"},"T":{"type":3},"Index":{"type":3},"shrink_axis_mask":{"i":"1"},"ellipsis_mask":{"i":"0"},"begin_mask":{"i":"0"},"new_axis_mask":{"i":"0"}},"name":"strided_slice_9","op":"StridedSlice"},{"input":["Shape_1","strided_slice_3/stack","strided_slice_4/stack","strided_slice_4/stack"],"attr":{"T":{"type":3},"Index":{"type":3},"shrink_axis_mask":{"i":"1"},"ellipsis_mask":{"i":"0"},"begin_mask":{"i":"0"},"new_axis_mask":{"i":"0"},"end_mask":{"i":"0"}},"name":"strided_slice_1","op":"StridedSlice"},{"input":["Shape_1","strided_slice_4/stack","strided_slice_4/stack_1","strided_slice_4/stack"],"attr":{"shrink_axis_mask":{"i":"1"},"begin_mask":{"i":"0"},"ellipsis_mask":{"i":"0"},"new_axis_mask":{"i":"0"},"end_mask":{"i":"0"},"Index":{"type":3},"T":{"type":3}},"name":"strided_slice_2","op":"StridedSlice"},{"input":["SemanticPredictions/size/0","strided_slice_8","strided_slice_9"],"attr":{"T":{"type":3},"axis":{"i":"0"},"N":{"i":"3"}},"name":"SemanticPredictions/size","op":"Pack"},{"input":["strided_slice_1","strided_slice_2"],"attr":{"axis":{"i":"0"},"N":{"i":"2"},"T":{"type":3}},"name":"ToFloat_1/x","op":"Pack"},{"input":["ToFloat_1/x"],"attr":{"SrcT":{"type":3},"DstT":{"type":1}},"name":"ToFloat_1","op":"Cast"},{"input":["ToFloat_1"],"attr":{"SrcT":{"type":1},"DstT":{"type":3}},"name":"ToInt32","op":"Cast"},{"input":["ExpandDims","ToInt32"],"attr":{"align_corners":{"b":true},"T":{"type":1}},"name":"ResizeBilinear","op":"ResizeBilinear"},{"input":["ResizeBilinear"],"attr":{"squeeze_dims":{"list":{"s":[],"i":["0"],"f":[],"b":[],"type":[],"shape":[],"tensor":[],"func":[]}},"T":{"type":1}},"name":"Squeeze_1","op":"Squeeze"},{"input":["Squeeze_1"],"attr":{"T":{"type":1},"out_type":{"type":3}},"name":"Shape_2","op":"Shape"},{"input":["Squeeze_1","Reshape"],"attr":{"T":{"type":1}},"name":"sub_2","op":"Sub"},{"input":["Shape_2","strided_slice_3/stack","strided_slice_4/stack","strided_slice_4/stack"],"attr":{"ellipsis_mask":{"i":"0"},"begin_mask":{"i":"0"},"new_axis_mask":{"i":"0"},"end_mask":{"i":"0"},"Index":{"type":3},"T":{"type":3},"shrink_axis_mask":{"i":"1"}},"name":"strided_slice_3","op":"StridedSlice"},{"input":["Shape_2","strided_slice_4/stack","strided_slice_4/stack_1","strided_slice_4/stack"],"attr":{"end_mask":{"i":"0"},"Index":{"type":3},"T":{"type":3},"shrink_axis_mask":{"i":"1"},"ellipsis_mask":{"i":"0"},"begin_mask":{"i":"0"},"new_axis_mask":{"i":"0"}},"name":"strided_slice_4","op":"StridedSlice"},{"input":["sub_2"],"attr":{"T":{"type":1},"out_type":{"type":3}},"name":"Shape_3","op":"Shape"},{"input":["sub_1/x","strided_slice_3"],"attr":{"T":{"type":3}},"name":"sub","op":"Sub"},{"input":["sub_1/x","strided_slice_4"],"attr":{"T":{"type":3}},"name":"sub_1","op":"Sub"},{"input":["Shape_3","strided_slice_3/stack","strided_slice_4/stack","strided_slice_4/stack"],"attr":{"T":{"type":3},"Index":{"type":3},"shrink_axis_mask":{"i":"1"},"ellipsis_mask":{"i":"0"},"begin_mask":{"i":"0"},"new_axis_mask":{"i":"0"},"end_mask":{"i":"0"}},"name":"strided_slice_5","op":"StridedSlice"},{"input":["Shape_3","strided_slice_4/stack","strided_slice_4/stack_1","strided_slice_4/stack"],"attr":{"shrink_axis_mask":{"i":"1"},"begin_mask":{"i":"0"},"ellipsis_mask":{"i":"0"},"new_axis_mask":{"i":"0"},"end_mask":{"i":"0"},"Index":{"type":3},"T":{"type":3}},"name":"strided_slice_6","op":"StridedSlice"},{"input":["sub","stack/0"],"attr":{"T":{"type":3}},"name":"Maximum","op":"Maximum"},{"input":["sub_1","stack/0"],"attr":{"T":{"type":3}},"name":"Maximum_1","op":"Maximum"},{"input":["strided_slice_3","Maximum"],"attr":{"T":{"type":3}},"name":"add","op":"Add"},{"input":["strided_slice_4","Maximum_1"],"attr":{"T":{"type":3}},"name":"add_1","op":"Add"},{"input":["add","strided_slice_5"],"attr":{"T":{"type":3}},"name":"sub_6","op":"Sub"},{"input":["add_1","strided_slice_6"],"attr":{"T":{"type":3}},"name":"sub_4","op":"Sub"},{"input":["stack/0","sub_6"],"attr":{"N":{"i":"2"},"T":{"type":3},"axis":{"i":"0"}},"name":"stack","op":"Pack"},{"input":["stack/0","sub_4"],"attr":{"T":{"type":3},"axis":{"i":"0"},"N":{"i":"2"}},"name":"stack_1","op":"Pack"},{"input":["stack","stack_1","stack_2"],"attr":{"T":{"type":3},"axis":{"i":"0"},"N":{"i":"3"}},"name":"stack_3","op":"Pack"},{"input":["sub_2","stack_3"],"attr":{"T":{"type":1},"Tpaddings":{"type":3}},"name":"Pad","op":"Pad"},{"input":["Pad","Reshape"],"attr":{"T":{"type":1}},"name":"add_2","op":"Add"},{"input":["add_2","stack/0"],"attr":{"Tdim":{"type":3},"T":{"type":1}},"name":"ExpandDims_1","op":"ExpandDims"},{"input":["mul_1/x","ExpandDims_1"],"attr":{"T":{"type":1}},"name":"mul_1","op":"Mul"},{"input":["mul_1","ToFloat/x"],"attr":{"T":{"type":1}},"name":"sub_7","op":"Sub"},{"input":["sub_7","MobilenetV2/Conv/weights"],"attr":{"dilations":{"list":{"s":[],"i":["1","1","1","1"],"f":[],"b":[],"type":[],"shape":[],"tensor":[],"func":[]}},"T":{"type":1},"strides":{"list":{"s":[],"i":["1","2","2","1"],"f":[],"b":[],"type":[],"shape":[],"tensor":[],"func":[]}},"data_format":{"s":[78,72,87,67]},"use_cudnn_on_gpu":{"b":true},"padding":{"s":[83,65,77,69]}},"name":"MobilenetV2/Conv/Conv2D","op":"Conv2D"},{"input":["MobilenetV2/Conv/Conv2D","MobilenetV2/Conv/BatchNorm/gamma","MobilenetV2/Conv/BatchNorm/beta","MobilenetV2/Conv/BatchNorm/moving_mean","MobilenetV2/Conv/BatchNorm/moving_variance"],"attr":{"epsilon":{"f":0.0010000000474974513},"T":{"type":1},"data_format":{"s":[78,72,87,67]},"is_training":{"b":false}},"name":"MobilenetV2/Conv/BatchNorm/FusedBatchNorm","op":"FusedBatchNorm"},{"input":["MobilenetV2/Conv/BatchNorm/FusedBatchNorm"],"attr":{"T":{"type":1}},"name":"MobilenetV2/Conv/Relu6","op":"Relu6"},{"input":["MobilenetV2/Conv/Relu6","MobilenetV2/expanded_conv/depthwise/depthwise_weights"],"attr":{"padding":{"s":[83,65,77,69]},"dilations":{"list":{"s":[],"i":["1","1","1","1"],"f":[],"b":[],"type":[],"shape":[],"tensor":[],"func":[]}},"T":{"type":1},"data_format":{"s":[78,72,87,67]},"strides":{"list":{"s":[],"i":["1","1","1","1"],"f":[],"b":[],"type":[],"shape":[],"tensor":[],"func":[]}}},"name":"MobilenetV2/expanded_conv/depthwise/depthwise","op":"DepthwiseConv2dNative"},{"input":["MobilenetV2/expanded_conv/depthwise/depthwise","MobilenetV2/expanded_conv/depthwise/BatchNorm/gamma","MobilenetV2/expanded_conv/depthwise/BatchNorm/beta","MobilenetV2/expanded_conv/depthwise/BatchNorm/moving_mean","MobilenetV2/expanded_conv/depthwise/BatchNorm/moving_variance"],"attr":{"data_format":{"s":[78,72,87,67]},"is_training":{"b":false},"epsilon":{"f":0.0010000000474974513},"T":{"type":1}},"name":"MobilenetV2/expanded_conv/depthwise/BatchNorm/FusedBatchNorm","op":"FusedBatchNorm"},{"input":["MobilenetV2/expanded_conv/depthwise/BatchNorm/FusedBatchNorm"],"attr":{"T":{"type":1}},"name":"MobilenetV2/expanded_conv/depthwise/Relu6","op":"Relu6"},{"input":["MobilenetV2/expanded_conv/depthwise/Relu6","MobilenetV2/expanded_conv/project/weights"],"attr":{"dilations":{"list":{"s":[],"i":["1","1","1","1"],"f":[],"b":[],"type":[],"shape":[],"tensor":[],"func":[]}},"T":{"type":1},"data_format":{"s":[78,72,87,67]},"strides":{"list":{"s":[],"i":["1","1","1","1"],"f":[],"b":[],"type":[],"shape":[],"tensor":[],"func":[]}},"use_cudnn_on_gpu":{"b":true},"padding":{"s":[83,65,77,69]}},"name":"MobilenetV2/expanded_conv/project/Conv2D","op":"Conv2D"},{"input":["MobilenetV2/expanded_conv/project/Conv2D","MobilenetV2/expanded_conv/project/BatchNorm/gamma","MobilenetV2/expanded_conv/project/BatchNorm/beta","MobilenetV2/expanded_conv/project/BatchNorm/moving_mean","MobilenetV2/expanded_conv/project/BatchNorm/moving_variance"],"attr":{"T":{"type":1},"data_format":{"s":[78,72,87,67]},"is_training":{"b":false},"epsilon":{"f":0.0010000000474974513}},"name":"MobilenetV2/expanded_conv/project/BatchNorm/FusedBatchNorm","op":"FusedBatchNorm"},{"input":["MobilenetV2/expanded_conv/project/BatchNorm/FusedBatchNorm","MobilenetV2/expanded_conv_1/expand/weights"],"attr":{"dilations":{"list":{"s":[],"i":["1","1","1","1"],"f":[],"b":[],"type":[],"shape":[],"tensor":[],"func":[]}},"T":{"type":1},"data_format":{"s":[78,72,87,67]},"strides":{"list":{"s":[],"i":["1","1","1","1"],"f":[],"b":[],"type":[],"shape":[],"tensor":[],"func":[]}},"use_cudnn_on_gpu":{"b":true},"padding":{"s":[83,65,77,69]}},"name":"MobilenetV2/expanded_conv_1/expand/Conv2D","op":"Conv2D"},{"input":["MobilenetV2/expanded_conv_1/expand/Conv2D","MobilenetV2/expanded_conv_1/expand/BatchNorm/gamma","MobilenetV2/expanded_conv_1/expand/BatchNorm/beta","MobilenetV2/expanded_conv_1/expand/BatchNorm/moving_mean","MobilenetV2/expanded_conv_1/expand/BatchNorm/moving_variance"],"attr":{"T":{"type":1},"data_format":{"s":[78,72,87,67]},"is_training":{"b":false},"epsilon":{"f":0.0010000000474974513}},"name":"MobilenetV2/expanded_conv_1/expand/BatchNorm/FusedBatchNorm","op":"FusedBatchNorm"},{"input":["MobilenetV2/expanded_conv_1/expand/BatchNorm/FusedBatchNorm"],"attr":{"T":{"type":1}},"name":"MobilenetV2/expanded_conv_1/expand/Relu6","op":"Relu6"},{"input":["MobilenetV2/expanded_conv_1/expand/Relu6","MobilenetV2/expanded_conv_1/depthwise/depthwise_weights"],"attr":{"dilations":{"list":{"s":[],"i":["1","1","1","1"],"f":[],"b":[],"type":[],"shape":[],"tensor":[],"func":[]}},"padding":{"s":[83,65,77,69]},"T":{"type":1},"strides":{"list":{"s":[],"i":["1","2","2","1"],"f":[],"b":[],"type":[],"shape":[],"tensor":[],"func":[]}},"data_format":{"s":[78,72,87,67]}},"name":"MobilenetV2/expanded_conv_1/depthwise/depthwise","op":"DepthwiseConv2dNative"},{"input":["MobilenetV2/expanded_conv_1/depthwise/depthwise","MobilenetV2/expanded_conv_1/depthwise/BatchNorm/gamma","MobilenetV2/expanded_conv_1/depthwise/BatchNorm/beta","MobilenetV2/expanded_conv_1/depthwise/BatchNorm/moving_mean","MobilenetV2/expanded_conv_1/depthwise/BatchNorm/moving_variance"],"attr":{"T":{"type":1},"data_format":{"s":[78,72,87,67]},"is_training":{"b":false},"epsilon":{"f":0.0010000000474974513}},"name":"MobilenetV2/expanded_conv_1/depthwise/BatchNorm/FusedBatchNorm","op":"FusedBatchNorm"},{"input":["MobilenetV2/expanded_conv_1/depthwise/BatchNorm/FusedBatchNorm"],"attr":{"T":{"type":1}},"name":"MobilenetV2/expanded_conv_1/depthwise/Relu6","op":"Relu6"},{"input":["MobilenetV2/expanded_conv_1/depthwise/Relu6","MobilenetV2/expanded_conv_1/project/weights"],"attr":{"padding":{"s":[83,65,77,69]},"dilations":{"list":{"s":[],"i":["1","1","1","1"],"f":[],"b":[],"type":[],"shape":[],"tensor":[],"func":[]}},"T":{"type":1},"strides":{"list":{"s":[],"i":["1","1","1","1"],"f":[],"b":[],"type":[],"shape":[],"tensor":[],"func":[]}},"data_format":{"s":[78,72,87,67]},"use_cudnn_on_gpu":{"b":true}},"name":"MobilenetV2/expanded_conv_1/project/Conv2D","op":"Conv2D"},{"input":["MobilenetV2/expanded_conv_1/project/Conv2D","MobilenetV2/expanded_conv_1/project/BatchNorm/gamma","MobilenetV2/expanded_conv_1/project/BatchNorm/beta","MobilenetV2/expanded_conv_1/project/BatchNorm/moving_mean","MobilenetV2/expanded_conv_1/project/BatchNorm/moving_variance"],"attr":{"T":{"type":1},"data_format":{"s":[78,72,87,67]},"is_training":{"b":false},"epsilon":{"f":0.0010000000474974513}},"name":"MobilenetV2/expanded_conv_1/project/BatchNorm/FusedBatchNorm","op":"FusedBatchNorm"},{"input":["MobilenetV2/expanded_conv_1/project/BatchNorm/FusedBatchNorm","MobilenetV2/expanded_conv_2/expand/weights"],"attr":{"strides":{"list":{"s":[],"i":["1","1","1","1"],"f":[],"b":[],"type":[],"shape":[],"tensor":[],"func":[]}},"data_format":{"s":[78,72,87,67]},"use_cudnn_on_gpu":{"b":true},"padding":{"s":[83,65,77,69]},"dilations":{"list":{"s":[],"i":["1","1","1","1"],"f":[],"b":[],"type":[],"shape":[],"tensor":[],"func":[]}},"T":{"type":1}},"name":"MobilenetV2/expanded_conv_2/expand/Conv2D","op":"Conv2D"},{"input":["MobilenetV2/expanded_conv_2/expand/Conv2D","MobilenetV2/expanded_conv_2/expand/BatchNorm/gamma","MobilenetV2/expanded_conv_2/expand/BatchNorm/beta","MobilenetV2/expanded_conv_2/expand/BatchNorm/moving_mean","MobilenetV2/expanded_conv_2/expand/BatchNorm/moving_variance"],"attr":{"T":{"type":1},"data_format":{"s":[78,72,87,67]},"is_training":{"b":false},"epsilon":{"f":0.0010000000474974513}},"name":"MobilenetV2/expanded_conv_2/expand/BatchNorm/FusedBatchNorm","op":"FusedBatchNorm"},{"input":["MobilenetV2/expanded_conv_2/expand/BatchNorm/FusedBatchNorm"],"attr":{"T":{"type":1}},"name":"MobilenetV2/expanded_conv_2/expand/Relu6","op":"Relu6"},{"input":["MobilenetV2/expanded_conv_2/expand/Relu6","MobilenetV2/expanded_conv_2/depthwise/depthwise_weights"],"attr":{"data_format":{"s":[78,72,87,67]},"strides":{"list":{"s":[],"i":["1","1","1","1"],"f":[],"b":[],"type":[],"shape":[],"tensor":[],"func":[]}},"padding":{"s":[83,65,77,69]},"dilations":{"list":{"s":[],"i":["1","1","1","1"],"f":[],"b":[],"type":[],"shape":[],"tensor":[],"func":[]}},"T":{"type":1}},"name":"MobilenetV2/expanded_conv_2/depthwise/depthwise","op":"DepthwiseConv2dNative"},{"input":["MobilenetV2/expanded_conv_2/depthwise/depthwise","MobilenetV2/expanded_conv_2/depthwise/BatchNorm/gamma","MobilenetV2/expanded_conv_2/depthwise/BatchNorm/beta","MobilenetV2/expanded_conv_2/depthwise/BatchNorm/moving_mean","MobilenetV2/expanded_conv_2/depthwise/BatchNorm/moving_variance"],"attr":{"is_training":{"b":false},"epsilon":{"f":0.0010000000474974513},"T":{"type":1},"data_format":{"s":[78,72,87,67]}},"name":"MobilenetV2/expanded_conv_2/depthwise/BatchNorm/FusedBatchNorm","op":"FusedBatchNorm"},{"input":["MobilenetV2/expanded_conv_2/depthwise/BatchNorm/FusedBatchNorm"],"attr":{"T":{"type":1}},"name":"MobilenetV2/expanded_conv_2/depthwise/Relu6","op":"Relu6"},{"input":["MobilenetV2/expanded_conv_2/depthwise/Relu6","MobilenetV2/expanded_conv_2/project/weights"],"attr":{"dilations":{"list":{"s":[],"i":["1","1","1","1"],"f":[],"b":[],"type":[],"shape":[],"tensor":[],"func":[]}},"T":{"type":1},"data_format":{"s":[78,72,87,67]},"strides":{"list":{"s":[],"i":["1","1","1","1"],"f":[],"b":[],"type":[],"shape":[],"tensor":[],"func":[]}},"use_cudnn_on_gpu":{"b":true},"padding":{"s":[83,65,77,69]}},"name":"MobilenetV2/expanded_conv_2/project/Conv2D","op":"Conv2D"},{"input":["MobilenetV2/expanded_conv_2/project/Conv2D","MobilenetV2/expanded_conv_2/project/BatchNorm/gamma","MobilenetV2/expanded_conv_2/project/BatchNorm/beta","MobilenetV2/expanded_conv_2/project/BatchNorm/moving_mean","MobilenetV2/expanded_conv_2/project/BatchNorm/moving_variance"],"attr":{"epsilon":{"f":0.0010000000474974513},"T":{"type":1},"data_format":{"s":[78,72,87,67]},"is_training":{"b":false}},"name":"MobilenetV2/expanded_conv_2/project/BatchNorm/FusedBatchNorm","op":"FusedBatchNorm"},{"input":["MobilenetV2/expanded_conv_1/project/BatchNorm/FusedBatchNorm","MobilenetV2/expanded_conv_2/project/BatchNorm/FusedBatchNorm"],"attr":{"T":{"type":1}},"name":"MobilenetV2/expanded_conv_2/add","op":"Add"},{"input":["MobilenetV2/expanded_conv_2/add","MobilenetV2/expanded_conv_3/expand/weights"],"attr":{"strides":{"list":{"s":[],"i":["1","1","1","1"],"f":[],"b":[],"type":[],"shape":[],"tensor":[],"func":[]}},"data_format":{"s":[78,72,87,67]},"use_cudnn_on_gpu":{"b":true},"padding":{"s":[83,65,77,69]},"dilations":{"list":{"s":[],"i":["1","1","1","1"],"f":[],"b":[],"type":[],"shape":[],"tensor":[],"func":[]}},"T":{"type":1}},"name":"MobilenetV2/expanded_conv_3/expand/Conv2D","op":"Conv2D"},{"input":["MobilenetV2/expanded_conv_3/expand/Conv2D","MobilenetV2/expanded_conv_3/expand/BatchNorm/gamma","MobilenetV2/expanded_conv_3/expand/BatchNorm/beta","MobilenetV2/expanded_conv_3/expand/BatchNorm/moving_mean","MobilenetV2/expanded_conv_3/expand/BatchNorm/moving_variance"],"attr":{"data_format":{"s":[78,72,87,67]},"is_training":{"b":false},"epsilon":{"f":0.0010000000474974513},"T":{"type":1}},"name":"MobilenetV2/expanded_conv_3/expand/BatchNorm/FusedBatchNorm","op":"FusedBatchNorm"},{"input":["MobilenetV2/expanded_conv_3/expand/BatchNorm/FusedBatchNorm"],"attr":{"T":{"type":1}},"name":"MobilenetV2/expanded_conv_3/expand/Relu6","op":"Relu6"},{"input":["MobilenetV2/expanded_conv_3/expand/Relu6","MobilenetV2/expanded_conv_3/depthwise/depthwise_weights"],"attr":{"dilations":{"list":{"s":[],"i":["1","1","1","1"],"f":[],"b":[],"type":[],"shape":[],"tensor":[],"func":[]}},"padding":{"s":[83,65,77,69]},"T":{"type":1},"strides":{"list":{"s":[],"i":["1","2","2","1"],"f":[],"b":[],"type":[],"shape":[],"tensor":[],"func":[]}},"data_format":{"s":[78,72,87,67]}},"name":"MobilenetV2/expanded_conv_3/depthwise/depthwise","op":"DepthwiseConv2dNative"},{"input":["MobilenetV2/expanded_conv_3/depthwise/depthwise","MobilenetV2/expanded_conv_3/depthwise/BatchNorm/gamma","MobilenetV2/expanded_conv_3/depthwise/BatchNorm/beta","MobilenetV2/expanded_conv_3/depthwise/BatchNorm/moving_mean","MobilenetV2/expanded_conv_3/depthwise/BatchNorm/moving_variance"],"attr":{"data_format":{"s":[78,72,87,67]},"is_training":{"b":false},"epsilon":{"f":0.0010000000474974513},"T":{"type":1}},"name":"MobilenetV2/expanded_conv_3/depthwise/BatchNorm/FusedBatchNorm","op":"FusedBatchNorm"},{"input":["MobilenetV2/expanded_conv_3/depthwise/BatchNorm/FusedBatchNorm"],"attr":{"T":{"type":1}},"name":"MobilenetV2/expanded_conv_3/depthwise/Relu6","op":"Relu6"},{"input":["MobilenetV2/expanded_conv_3/depthwise/Relu6","MobilenetV2/expanded_conv_3/project/weights"],"attr":{"data_format":{"s":[78,72,87,67]},"strides":{"list":{"s":[],"i":["1","1","1","1"],"f":[],"b":[],"type":[],"shape":[],"tensor":[],"func":[]}},"use_cudnn_on_gpu":{"b":true},"padding":{"s":[83,65,77,69]},"dilations":{"list":{"s":[],"i":["1","1","1","1"],"f":[],"b":[],"type":[],"shape":[],"tensor":[],"func":[]}},"T":{"type":1}},"name":"MobilenetV2/expanded_conv_3/project/Conv2D","op":"Conv2D"},{"input":["MobilenetV2/expanded_conv_3/project/Conv2D","MobilenetV2/expanded_conv_3/project/BatchNorm/gamma","MobilenetV2/expanded_conv_3/project/BatchNorm/beta","MobilenetV2/expanded_conv_3/project/BatchNorm/moving_mean","MobilenetV2/expanded_conv_3/project/BatchNorm/moving_variance"],"attr":{"epsilon":{"f":0.0010000000474974513},"T":{"type":1},"data_format":{"s":[78,72,87,67]},"is_training":{"b":false}},"name":"MobilenetV2/expanded_conv_3/project/BatchNorm/FusedBatchNorm","op":"FusedBatchNorm"},{"input":["MobilenetV2/expanded_conv_3/project/BatchNorm/FusedBatchNorm","MobilenetV2/expanded_conv_4/expand/weights"],"attr":{"padding":{"s":[83,65,77,69]},"dilations":{"list":{"s":[],"i":["1","1","1","1"],"f":[],"b":[],"type":[],"shape":[],"tensor":[],"func":[]}},"T":{"type":1},"data_format":{"s":[78,72,87,67]},"strides":{"list":{"s":[],"i":["1","1","1","1"],"f":[],"b":[],"type":[],"shape":[],"tensor":[],"func":[]}},"use_cudnn_on_gpu":{"b":true}},"name":"MobilenetV2/expanded_conv_4/expand/Conv2D","op":"Conv2D"},{"input":["MobilenetV2/expanded_conv_4/expand/Conv2D","MobilenetV2/expanded_conv_4/expand/BatchNorm/gamma","MobilenetV2/expanded_conv_4/expand/BatchNorm/beta","MobilenetV2/expanded_conv_4/expand/BatchNorm/moving_mean","MobilenetV2/expanded_conv_4/expand/BatchNorm/moving_variance"],"attr":{"data_format":{"s":[78,72,87,67]},"is_training":{"b":false},"epsilon":{"f":0.0010000000474974513},"T":{"type":1}},"name":"MobilenetV2/expanded_conv_4/expand/BatchNorm/FusedBatchNorm","op":"FusedBatchNorm"},{"input":["MobilenetV2/expanded_conv_4/expand/BatchNorm/FusedBatchNorm"],"attr":{"T":{"type":1}},"name":"MobilenetV2/expanded_conv_4/expand/Relu6","op":"Relu6"},{"input":["MobilenetV2/expanded_conv_4/expand/Relu6","MobilenetV2/expanded_conv_4/depthwise/depthwise_weights"],"attr":{"dilations":{"list":{"s":[],"i":["1","1","1","1"],"f":[],"b":[],"type":[],"shape":[],"tensor":[],"func":[]}},"padding":{"s":[83,65,77,69]},"T":{"type":1},"strides":{"list":{"s":[],"i":["1","1","1","1"],"f":[],"b":[],"type":[],"shape":[],"tensor":[],"func":[]}},"data_format":{"s":[78,72,87,67]}},"name":"MobilenetV2/expanded_conv_4/depthwise/depthwise","op":"DepthwiseConv2dNative"},{"input":["MobilenetV2/expanded_conv_4/depthwise/depthwise","MobilenetV2/expanded_conv_4/depthwise/BatchNorm/gamma","MobilenetV2/expanded_conv_4/depthwise/BatchNorm/beta","MobilenetV2/expanded_conv_4/depthwise/BatchNorm/moving_mean","MobilenetV2/expanded_conv_4/depthwise/BatchNorm/moving_variance"],"attr":{"T":{"type":1},"data_format":{"s":[78,72,87,67]},"is_training":{"b":false},"epsilon":{"f":0.0010000000474974513}},"name":"MobilenetV2/expanded_conv_4/depthwise/BatchNorm/FusedBatchNorm","op":"FusedBatchNorm"},{"input":["MobilenetV2/expanded_conv_4/depthwise/BatchNorm/FusedBatchNorm"],"attr":{"T":{"type":1}},"name":"MobilenetV2/expanded_conv_4/depthwise/Relu6","op":"Relu6"},{"input":["MobilenetV2/expanded_conv_4/depthwise/Relu6","MobilenetV2/expanded_conv_4/project/weights"],"attr":{"dilations":{"list":{"s":[],"i":["1","1","1","1"],"f":[],"b":[],"type":[],"shape":[],"tensor":[],"func":[]}},"T":{"type":1},"strides":{"list":{"s":[],"i":["1","1","1","1"],"f":[],"b":[],"type":[],"shape":[],"tensor":[],"func":[]}},"data_format":{"s":[78,72,87,67]},"use_cudnn_on_gpu":{"b":true},"padding":{"s":[83,65,77,69]}},"name":"MobilenetV2/expanded_conv_4/project/Conv2D","op":"Conv2D"},{"input":["MobilenetV2/expanded_conv_4/project/Conv2D","MobilenetV2/expanded_conv_4/project/BatchNorm/gamma","MobilenetV2/expanded_conv_4/project/BatchNorm/beta","MobilenetV2/expanded_conv_4/project/BatchNorm/moving_mean","MobilenetV2/expanded_conv_4/project/BatchNorm/moving_variance"],"attr":{"T":{"type":1},"data_format":{"s":[78,72,87,67]},"is_training":{"b":false},"epsilon":{"f":0.0010000000474974513}},"name":"MobilenetV2/expanded_conv_4/project/BatchNorm/FusedBatchNorm","op":"FusedBatchNorm"},{"input":["MobilenetV2/expanded_conv_3/project/BatchNorm/FusedBatchNorm","MobilenetV2/expanded_conv_4/project/BatchNorm/FusedBatchNorm"],"attr":{"T":{"type":1}},"name":"MobilenetV2/expanded_conv_4/add","op":"Add"},{"input":["MobilenetV2/expanded_conv_4/add","MobilenetV2/expanded_conv_5/expand/weights"],"attr":{"padding":{"s":[83,65,77,69]},"dilations":{"list":{"s":[],"i":["1","1","1","1"],"f":[],"b":[],"type":[],"shape":[],"tensor":[],"func":[]}},"T":{"type":1},"strides":{"list":{"s":[],"i":["1","1","1","1"],"f":[],"b":[],"type":[],"shape":[],"tensor":[],"func":[]}},"data_format":{"s":[78,72,87,67]},"use_cudnn_on_gpu":{"b":true}},"name":"MobilenetV2/expanded_conv_5/expand/Conv2D","op":"Conv2D"},{"input":["MobilenetV2/expanded_conv_5/expand/Conv2D","MobilenetV2/expanded_conv_5/expand/BatchNorm/gamma","MobilenetV2/expanded_conv_5/expand/BatchNorm/beta","MobilenetV2/expanded_conv_5/expand/BatchNorm/moving_mean","MobilenetV2/expanded_conv_5/expand/BatchNorm/moving_variance"],"attr":{"epsilon":{"f":0.0010000000474974513},"T":{"type":1},"data_format":{"s":[78,72,87,67]},"is_training":{"b":false}},"name":"MobilenetV2/expanded_conv_5/expand/BatchNorm/FusedBatchNorm","op":"FusedBatchNorm"},{"input":["MobilenetV2/expanded_conv_5/expand/BatchNorm/FusedBatchNorm"],"attr":{"T":{"type":1}},"name":"MobilenetV2/expanded_conv_5/expand/Relu6","op":"Relu6"},{"input":["MobilenetV2/expanded_conv_5/expand/Relu6","MobilenetV2/expanded_conv_5/depthwise/depthwise_weights"],"attr":{"dilations":{"list":{"s":[],"i":["1","1","1","1"],"f":[],"b":[],"type":[],"shape":[],"tensor":[],"func":[]}},"padding":{"s":[83,65,77,69]},"T":{"type":1},"strides":{"list":{"s":[],"i":["1","1","1","1"],"f":[],"b":[],"type":[],"shape":[],"tensor":[],"func":[]}},"data_format":{"s":[78,72,87,67]}},"name":"MobilenetV2/expanded_conv_5/depthwise/depthwise","op":"DepthwiseConv2dNative"},{"input":["MobilenetV2/expanded_conv_5/depthwise/depthwise","MobilenetV2/expanded_conv_5/depthwise/BatchNorm/gamma","MobilenetV2/expanded_conv_5/depthwise/BatchNorm/beta","MobilenetV2/expanded_conv_5/depthwise/BatchNorm/moving_mean","MobilenetV2/expanded_conv_5/depthwise/BatchNorm/moving_variance"],"attr":{"epsilon":{"f":0.0010000000474974513},"T":{"type":1},"data_format":{"s":[78,72,87,67]},"is_training":{"b":false}},"name":"MobilenetV2/expanded_conv_5/depthwise/BatchNorm/FusedBatchNorm","op":"FusedBatchNorm"},{"input":["MobilenetV2/expanded_conv_5/depthwise/BatchNorm/FusedBatchNorm"],"attr":{"T":{"type":1}},"name":"MobilenetV2/expanded_conv_5/depthwise/Relu6","op":"Relu6"},{"input":["MobilenetV2/expanded_conv_5/depthwise/Relu6","MobilenetV2/expanded_conv_5/project/weights"],"attr":{"strides":{"list":{"s":[],"i":["1","1","1","1"],"f":[],"b":[],"type":[],"shape":[],"tensor":[],"func":[]}},"data_format":{"s":[78,72,87,67]},"use_cudnn_on_gpu":{"b":true},"padding":{"s":[83,65,77,69]},"dilations":{"list":{"s":[],"i":["1","1","1","1"],"f":[],"b":[],"type":[],"shape":[],"tensor":[],"func":[]}},"T":{"type":1}},"name":"MobilenetV2/expanded_conv_5/project/Conv2D","op":"Conv2D"},{"input":["MobilenetV2/expanded_conv_5/project/Conv2D","MobilenetV2/expanded_conv_5/project/BatchNorm/gamma","MobilenetV2/expanded_conv_5/project/BatchNorm/beta","MobilenetV2/expanded_conv_5/project/BatchNorm/moving_mean","MobilenetV2/expanded_conv_5/project/BatchNorm/moving_variance"],"attr":{"is_training":{"b":false},"epsilon":{"f":0.0010000000474974513},"T":{"type":1},"data_format":{"s":[78,72,87,67]}},"name":"MobilenetV2/expanded_conv_5/project/BatchNorm/FusedBatchNorm","op":"FusedBatchNorm"},{"input":["MobilenetV2/expanded_conv_4/add","MobilenetV2/expanded_conv_5/project/BatchNorm/FusedBatchNorm"],"attr":{"T":{"type":1}},"name":"MobilenetV2/expanded_conv_5/add","op":"Add"},{"input":["MobilenetV2/expanded_conv_5/add","MobilenetV2/expanded_conv_6/expand/weights"],"attr":{"T":{"type":1},"strides":{"list":{"s":[],"i":["1","1","1","1"],"f":[],"b":[],"type":[],"shape":[],"tensor":[],"func":[]}},"data_format":{"s":[78,72,87,67]},"use_cudnn_on_gpu":{"b":true},"padding":{"s":[83,65,77,69]},"dilations":{"list":{"s":[],"i":["1","1","1","1"],"f":[],"b":[],"type":[],"shape":[],"tensor":[],"func":[]}}},"name":"MobilenetV2/expanded_conv_6/expand/Conv2D","op":"Conv2D"},{"input":["MobilenetV2/expanded_conv_6/expand/Conv2D","MobilenetV2/expanded_conv_6/expand/BatchNorm/gamma","MobilenetV2/expanded_conv_6/expand/BatchNorm/beta","MobilenetV2/expanded_conv_6/expand/BatchNorm/moving_mean","MobilenetV2/expanded_conv_6/expand/BatchNorm/moving_variance"],"attr":{"epsilon":{"f":0.0010000000474974513},"T":{"type":1},"data_format":{"s":[78,72,87,67]},"is_training":{"b":false}},"name":"MobilenetV2/expanded_conv_6/expand/BatchNorm/FusedBatchNorm","op":"FusedBatchNorm"},{"input":["MobilenetV2/expanded_conv_6/expand/BatchNorm/FusedBatchNorm"],"attr":{"T":{"type":1}},"name":"MobilenetV2/expanded_conv_6/expand/Relu6","op":"Relu6"},{"input":["MobilenetV2/expanded_conv_6/expand/Relu6","MobilenetV2/expanded_conv_6/depthwise/depthwise_weights"],"attr":{"dilations":{"list":{"s":[],"i":["1","1","1","1"],"f":[],"b":[],"type":[],"shape":[],"tensor":[],"func":[]}},"padding":{"s":[83,65,77,69]},"T":{"type":1},"strides":{"list":{"s":[],"i":["1","1","1","1"],"f":[],"b":[],"type":[],"shape":[],"tensor":[],"func":[]}},"data_format":{"s":[78,72,87,67]}},"name":"MobilenetV2/expanded_conv_6/depthwise/depthwise","op":"DepthwiseConv2dNative"},{"input":["MobilenetV2/expanded_conv_6/depthwise/depthwise","MobilenetV2/expanded_conv_6/depthwise/BatchNorm/gamma","MobilenetV2/expanded_conv_6/depthwise/BatchNorm/beta","MobilenetV2/expanded_conv_6/depthwise/BatchNorm/moving_mean","MobilenetV2/expanded_conv_6/depthwise/BatchNorm/moving_variance"],"attr":{"epsilon":{"f":0.0010000000474974513},"T":{"type":1},"data_format":{"s":[78,72,87,67]},"is_training":{"b":false}},"name":"MobilenetV2/expanded_conv_6/depthwise/BatchNorm/FusedBatchNorm","op":"FusedBatchNorm"},{"input":["MobilenetV2/expanded_conv_6/depthwise/BatchNorm/FusedBatchNorm"],"attr":{"T":{"type":1}},"name":"MobilenetV2/expanded_conv_6/depthwise/Relu6","op":"Relu6"},{"input":["MobilenetV2/expanded_conv_6/depthwise/Relu6","MobilenetV2/expanded_conv_6/project/weights"],"attr":{"dilations":{"list":{"s":[],"i":["1","1","1","1"],"f":[],"b":[],"type":[],"shape":[],"tensor":[],"func":[]}},"T":{"type":1},"strides":{"list":{"s":[],"i":["1","1","1","1"],"f":[],"b":[],"type":[],"shape":[],"tensor":[],"func":[]}},"data_format":{"s":[78,72,87,67]},"use_cudnn_on_gpu":{"b":true},"padding":{"s":[83,65,77,69]}},"name":"MobilenetV2/expanded_conv_6/project/Conv2D","op":"Conv2D"},{"input":["MobilenetV2/expanded_conv_6/project/Conv2D","MobilenetV2/expanded_conv_6/project/BatchNorm/gamma","MobilenetV2/expanded_conv_6/project/BatchNorm/beta","MobilenetV2/expanded_conv_6/project/BatchNorm/moving_mean","MobilenetV2/expanded_conv_6/project/BatchNorm/moving_variance"],"attr":{"is_training":{"b":false},"epsilon":{"f":0.0010000000474974513},"T":{"type":1},"data_format":{"s":[78,72,87,67]}},"name":"MobilenetV2/expanded_conv_6/project/BatchNorm/FusedBatchNorm","op":"FusedBatchNorm"},{"input":["MobilenetV2/expanded_conv_6/project/BatchNorm/FusedBatchNorm","MobilenetV2/expanded_conv_7/expand/weights"],"attr":{"dilations":{"list":{"s":[],"i":["1","1","1","1"],"f":[],"b":[],"type":[],"shape":[],"tensor":[],"func":[]}},"T":{"type":1},"strides":{"list":{"s":[],"i":["1","1","1","1"],"f":[],"b":[],"type":[],"shape":[],"tensor":[],"func":[]}},"data_format":{"s":[78,72,87,67]},"use_cudnn_on_gpu":{"b":true},"padding":{"s":[83,65,77,69]}},"name":"MobilenetV2/expanded_conv_7/expand/Conv2D","op":"Conv2D"},{"input":["MobilenetV2/expanded_conv_7/expand/Conv2D","MobilenetV2/expanded_conv_7/expand/BatchNorm/gamma","MobilenetV2/expanded_conv_7/expand/BatchNorm/beta","MobilenetV2/expanded_conv_7/expand/BatchNorm/moving_mean","MobilenetV2/expanded_conv_7/expand/BatchNorm/moving_variance"],"attr":{"data_format":{"s":[78,72,87,67]},"is_training":{"b":false},"epsilon":{"f":0.0010000000474974513},"T":{"type":1}},"name":"MobilenetV2/expanded_conv_7/expand/BatchNorm/FusedBatchNorm","op":"FusedBatchNorm"},{"input":["MobilenetV2/expanded_conv_7/expand/BatchNorm/FusedBatchNorm"],"attr":{"T":{"type":1}},"name":"MobilenetV2/expanded_conv_7/expand/Relu6","op":"Relu6"},{"input":["MobilenetV2/expanded_conv_7/expand/Relu6","MobilenetV2/expanded_conv_7/depthwise/depthwise/SpaceToBatchND/block_shape","MobilenetV2/expanded_conv_7/depthwise/depthwise/SpaceToBatchND/paddings"],"attr":{"Tpaddings":{"type":3},"Tblock_shape":{"type":3},"T":{"type":1}},"name":"MobilenetV2/expanded_conv_7/depthwise/depthwise/SpaceToBatchND","op":"SpaceToBatchND"},{"input":["MobilenetV2/expanded_conv_7/depthwise/depthwise/SpaceToBatchND","MobilenetV2/expanded_conv_7/depthwise/depthwise_weights"],"attr":{"strides":{"list":{"s":[],"i":["1","1","1","1"],"f":[],"b":[],"type":[],"shape":[],"tensor":[],"func":[]}},"data_format":{"s":[78,72,87,67]},"padding":{"s":[86,65,76,73,68]},"dilations":{"list":{"s":[],"i":["1","1","1","1"],"f":[],"b":[],"type":[],"shape":[],"tensor":[],"func":[]}},"T":{"type":1}},"name":"MobilenetV2/expanded_conv_7/depthwise/depthwise","op":"DepthwiseConv2dNative"},{"input":["MobilenetV2/expanded_conv_7/depthwise/depthwise","MobilenetV2/expanded_conv_7/depthwise/depthwise/SpaceToBatchND/block_shape","MobilenetV2/expanded_conv_7/depthwise/depthwise/BatchToSpaceND/crops"],"attr":{"Tcrops":{"type":3},"T":{"type":1},"Tblock_shape":{"type":3}},"name":"MobilenetV2/expanded_conv_7/depthwise/depthwise/BatchToSpaceND","op":"BatchToSpaceND"},{"input":["MobilenetV2/expanded_conv_7/depthwise/depthwise/BatchToSpaceND","MobilenetV2/expanded_conv_7/depthwise/BatchNorm/gamma","MobilenetV2/expanded_conv_7/depthwise/BatchNorm/beta","MobilenetV2/expanded_conv_7/depthwise/BatchNorm/moving_mean","MobilenetV2/expanded_conv_7/depthwise/BatchNorm/moving_variance"],"attr":{"is_training":{"b":false},"epsilon":{"f":0.0010000000474974513},"T":{"type":1},"data_format":{"s":[78,72,87,67]}},"name":"MobilenetV2/expanded_conv_7/depthwise/BatchNorm/FusedBatchNorm","op":"FusedBatchNorm"},{"input":["MobilenetV2/expanded_conv_7/depthwise/BatchNorm/FusedBatchNorm"],"attr":{"T":{"type":1}},"name":"MobilenetV2/expanded_conv_7/depthwise/Relu6","op":"Relu6"},{"input":["MobilenetV2/expanded_conv_7/depthwise/Relu6","MobilenetV2/expanded_conv_7/project/weights"],"attr":{"dilations":{"list":{"s":[],"i":["1","1","1","1"],"f":[],"b":[],"type":[],"shape":[],"tensor":[],"func":[]}},"T":{"type":1},"data_format":{"s":[78,72,87,67]},"strides":{"list":{"s":[],"i":["1","1","1","1"],"f":[],"b":[],"type":[],"shape":[],"tensor":[],"func":[]}},"use_cudnn_on_gpu":{"b":true},"padding":{"s":[83,65,77,69]}},"name":"MobilenetV2/expanded_conv_7/project/Conv2D","op":"Conv2D"},{"input":["MobilenetV2/expanded_conv_7/project/Conv2D","MobilenetV2/expanded_conv_7/project/BatchNorm/gamma","MobilenetV2/expanded_conv_7/project/BatchNorm/beta","MobilenetV2/expanded_conv_7/project/BatchNorm/moving_mean","MobilenetV2/expanded_conv_7/project/BatchNorm/moving_variance"],"attr":{"epsilon":{"f":0.0010000000474974513},"T":{"type":1},"data_format":{"s":[78,72,87,67]},"is_training":{"b":false}},"name":"MobilenetV2/expanded_conv_7/project/BatchNorm/FusedBatchNorm","op":"FusedBatchNorm"},{"input":["MobilenetV2/expanded_conv_6/project/BatchNorm/FusedBatchNorm","MobilenetV2/expanded_conv_7/project/BatchNorm/FusedBatchNorm"],"attr":{"T":{"type":1}},"name":"MobilenetV2/expanded_conv_7/add","op":"Add"},{"input":["MobilenetV2/expanded_conv_7/add","MobilenetV2/expanded_conv_8/expand/weights"],"attr":{"dilations":{"list":{"s":[],"i":["1","1","1","1"],"f":[],"b":[],"type":[],"shape":[],"tensor":[],"func":[]}},"T":{"type":1},"strides":{"list":{"s":[],"i":["1","1","1","1"],"f":[],"b":[],"type":[],"shape":[],"tensor":[],"func":[]}},"data_format":{"s":[78,72,87,67]},"use_cudnn_on_gpu":{"b":true},"padding":{"s":[83,65,77,69]}},"name":"MobilenetV2/expanded_conv_8/expand/Conv2D","op":"Conv2D"},{"input":["MobilenetV2/expanded_conv_8/expand/Conv2D","MobilenetV2/expanded_conv_8/expand/BatchNorm/gamma","MobilenetV2/expanded_conv_8/expand/BatchNorm/beta","MobilenetV2/expanded_conv_8/expand/BatchNorm/moving_mean","MobilenetV2/expanded_conv_8/expand/BatchNorm/moving_variance"],"attr":{"data_format":{"s":[78,72,87,67]},"is_training":{"b":false},"epsilon":{"f":0.0010000000474974513},"T":{"type":1}},"name":"MobilenetV2/expanded_conv_8/expand/BatchNorm/FusedBatchNorm","op":"FusedBatchNorm"},{"input":["MobilenetV2/expanded_conv_8/expand/BatchNorm/FusedBatchNorm"],"attr":{"T":{"type":1}},"name":"MobilenetV2/expanded_conv_8/expand/Relu6","op":"Relu6"},{"input":["MobilenetV2/expanded_conv_8/expand/Relu6","MobilenetV2/expanded_conv_7/depthwise/depthwise/SpaceToBatchND/block_shape","MobilenetV2/expanded_conv_7/depthwise/depthwise/SpaceToBatchND/paddings"],"attr":{"T":{"type":1},"Tpaddings":{"type":3},"Tblock_shape":{"type":3}},"name":"MobilenetV2/expanded_conv_8/depthwise/depthwise/SpaceToBatchND","op":"SpaceToBatchND"},{"input":["MobilenetV2/expanded_conv_8/depthwise/depthwise/SpaceToBatchND","MobilenetV2/expanded_conv_8/depthwise/depthwise_weights"],"attr":{"padding":{"s":[86,65,76,73,68]},"dilations":{"list":{"s":[],"i":["1","1","1","1"],"f":[],"b":[],"type":[],"shape":[],"tensor":[],"func":[]}},"T":{"type":1},"data_format":{"s":[78,72,87,67]},"strides":{"list":{"s":[],"i":["1","1","1","1"],"f":[],"b":[],"type":[],"shape":[],"tensor":[],"func":[]}}},"name":"MobilenetV2/expanded_conv_8/depthwise/depthwise","op":"DepthwiseConv2dNative"},{"input":["MobilenetV2/expanded_conv_8/depthwise/depthwise","MobilenetV2/expanded_conv_7/depthwise/depthwise/SpaceToBatchND/block_shape","MobilenetV2/expanded_conv_7/depthwise/depthwise/BatchToSpaceND/crops"],"attr":{"Tcrops":{"type":3},"T":{"type":1},"Tblock_shape":{"type":3}},"name":"MobilenetV2/expanded_conv_8/depthwise/depthwise/BatchToSpaceND","op":"BatchToSpaceND"},{"input":["MobilenetV2/expanded_conv_8/depthwise/depthwise/BatchToSpaceND","MobilenetV2/expanded_conv_8/depthwise/BatchNorm/gamma","MobilenetV2/expanded_conv_8/depthwise/BatchNorm/beta","MobilenetV2/expanded_conv_8/depthwise/BatchNorm/moving_mean","MobilenetV2/expanded_conv_8/depthwise/BatchNorm/moving_variance"],"attr":{"epsilon":{"f":0.0010000000474974513},"T":{"type":1},"data_format":{"s":[78,72,87,67]},"is_training":{"b":false}},"name":"MobilenetV2/expanded_conv_8/depthwise/BatchNorm/FusedBatchNorm","op":"FusedBatchNorm"},{"input":["MobilenetV2/expanded_conv_8/depthwise/BatchNorm/FusedBatchNorm"],"attr":{"T":{"type":1}},"name":"MobilenetV2/expanded_conv_8/depthwise/Relu6","op":"Relu6"},{"input":["MobilenetV2/expanded_conv_8/depthwise/Relu6","MobilenetV2/expanded_conv_8/project/weights"],"attr":{"dilations":{"list":{"s":[],"i":["1","1","1","1"],"f":[],"b":[],"type":[],"shape":[],"tensor":[],"func":[]}},"T":{"type":1},"strides":{"list":{"s":[],"i":["1","1","1","1"],"f":[],"b":[],"type":[],"shape":[],"tensor":[],"func":[]}},"data_format":{"s":[78,72,87,67]},"use_cudnn_on_gpu":{"b":true},"padding":{"s":[83,65,77,69]}},"name":"MobilenetV2/expanded_conv_8/project/Conv2D","op":"Conv2D"},{"input":["MobilenetV2/expanded_conv_8/project/Conv2D","MobilenetV2/expanded_conv_8/project/BatchNorm/gamma","MobilenetV2/expanded_conv_8/project/BatchNorm/beta","MobilenetV2/expanded_conv_8/project/BatchNorm/moving_mean","MobilenetV2/expanded_conv_8/project/BatchNorm/moving_variance"],"attr":{"is_training":{"b":false},"epsilon":{"f":0.0010000000474974513},"T":{"type":1},"data_format":{"s":[78,72,87,67]}},"name":"MobilenetV2/expanded_conv_8/project/BatchNorm/FusedBatchNorm","op":"FusedBatchNorm"},{"input":["MobilenetV2/expanded_conv_7/add","MobilenetV2/expanded_conv_8/project/BatchNorm/FusedBatchNorm"],"attr":{"T":{"type":1}},"name":"MobilenetV2/expanded_conv_8/add","op":"Add"},{"input":["MobilenetV2/expanded_conv_8/add","MobilenetV2/expanded_conv_9/expand/weights"],"attr":{"padding":{"s":[83,65,77,69]},"dilations":{"list":{"s":[],"i":["1","1","1","1"],"f":[],"b":[],"type":[],"shape":[],"tensor":[],"func":[]}},"T":{"type":1},"strides":{"list":{"s":[],"i":["1","1","1","1"],"f":[],"b":[],"type":[],"shape":[],"tensor":[],"func":[]}},"data_format":{"s":[78,72,87,67]},"use_cudnn_on_gpu":{"b":true}},"name":"MobilenetV2/expanded_conv_9/expand/Conv2D","op":"Conv2D"},{"input":["MobilenetV2/expanded_conv_9/expand/Conv2D","MobilenetV2/expanded_conv_9/expand/BatchNorm/gamma","MobilenetV2/expanded_conv_9/expand/BatchNorm/beta","MobilenetV2/expanded_conv_9/expand/BatchNorm/moving_mean","MobilenetV2/expanded_conv_9/expand/BatchNorm/moving_variance"],"attr":{"epsilon":{"f":0.0010000000474974513},"T":{"type":1},"data_format":{"s":[78,72,87,67]},"is_training":{"b":false}},"name":"MobilenetV2/expanded_conv_9/expand/BatchNorm/FusedBatchNorm","op":"FusedBatchNorm"},{"input":["MobilenetV2/expanded_conv_9/expand/BatchNorm/FusedBatchNorm"],"attr":{"T":{"type":1}},"name":"MobilenetV2/expanded_conv_9/expand/Relu6","op":"Relu6"},{"input":["MobilenetV2/expanded_conv_9/expand/Relu6","MobilenetV2/expanded_conv_7/depthwise/depthwise/SpaceToBatchND/block_shape","MobilenetV2/expanded_conv_7/depthwise/depthwise/SpaceToBatchND/paddings"],"attr":{"Tblock_shape":{"type":3},"T":{"type":1},"Tpaddings":{"type":3}},"name":"MobilenetV2/expanded_conv_9/depthwise/depthwise/SpaceToBatchND","op":"SpaceToBatchND"},{"input":["MobilenetV2/expanded_conv_9/depthwise/depthwise/SpaceToBatchND","MobilenetV2/expanded_conv_9/depthwise/depthwise_weights"],"attr":{"T":{"type":1},"data_format":{"s":[78,72,87,67]},"strides":{"list":{"s":[],"i":["1","1","1","1"],"f":[],"b":[],"type":[],"shape":[],"tensor":[],"func":[]}},"dilations":{"list":{"s":[],"i":["1","1","1","1"],"f":[],"b":[],"type":[],"shape":[],"tensor":[],"func":[]}},"padding":{"s":[86,65,76,73,68]}},"name":"MobilenetV2/expanded_conv_9/depthwise/depthwise","op":"DepthwiseConv2dNative"},{"input":["MobilenetV2/expanded_conv_9/depthwise/depthwise","MobilenetV2/expanded_conv_7/depthwise/depthwise/SpaceToBatchND/block_shape","MobilenetV2/expanded_conv_7/depthwise/depthwise/BatchToSpaceND/crops"],"attr":{"Tcrops":{"type":3},"T":{"type":1},"Tblock_shape":{"type":3}},"name":"MobilenetV2/expanded_conv_9/depthwise/depthwise/BatchToSpaceND","op":"BatchToSpaceND"},{"input":["MobilenetV2/expanded_conv_9/depthwise/depthwise/BatchToSpaceND","MobilenetV2/expanded_conv_9/depthwise/BatchNorm/gamma","MobilenetV2/expanded_conv_9/depthwise/BatchNorm/beta","MobilenetV2/expanded_conv_9/depthwise/BatchNorm/moving_mean","MobilenetV2/expanded_conv_9/depthwise/BatchNorm/moving_variance"],"attr":{"data_format":{"s":[78,72,87,67]},"is_training":{"b":false},"epsilon":{"f":0.0010000000474974513},"T":{"type":1}},"name":"MobilenetV2/expanded_conv_9/depthwise/BatchNorm/FusedBatchNorm","op":"FusedBatchNorm"},{"input":["MobilenetV2/expanded_conv_9/depthwise/BatchNorm/FusedBatchNorm"],"attr":{"T":{"type":1}},"name":"MobilenetV2/expanded_conv_9/depthwise/Relu6","op":"Relu6"},{"input":["MobilenetV2/expanded_conv_9/depthwise/Relu6","MobilenetV2/expanded_conv_9/project/weights"],"attr":{"dilations":{"list":{"s":[],"i":["1","1","1","1"],"f":[],"b":[],"type":[],"shape":[],"tensor":[],"func":[]}},"T":{"type":1},"strides":{"list":{"s":[],"i":["1","1","1","1"],"f":[],"b":[],"type":[],"shape":[],"tensor":[],"func":[]}},"data_format":{"s":[78,72,87,67]},"use_cudnn_on_gpu":{"b":true},"padding":{"s":[83,65,77,69]}},"name":"MobilenetV2/expanded_conv_9/project/Conv2D","op":"Conv2D"},{"input":["MobilenetV2/expanded_conv_9/project/Conv2D","MobilenetV2/expanded_conv_9/project/BatchNorm/gamma","MobilenetV2/expanded_conv_9/project/BatchNorm/beta","MobilenetV2/expanded_conv_9/project/BatchNorm/moving_mean","MobilenetV2/expanded_conv_9/project/BatchNorm/moving_variance"],"attr":{"data_format":{"s":[78,72,87,67]},"is_training":{"b":false},"epsilon":{"f":0.0010000000474974513},"T":{"type":1}},"name":"MobilenetV2/expanded_conv_9/project/BatchNorm/FusedBatchNorm","op":"FusedBatchNorm"},{"input":["MobilenetV2/expanded_conv_8/add","MobilenetV2/expanded_conv_9/project/BatchNorm/FusedBatchNorm"],"attr":{"T":{"type":1}},"name":"MobilenetV2/expanded_conv_9/add","op":"Add"},{"input":["MobilenetV2/expanded_conv_9/add","MobilenetV2/expanded_conv_10/expand/weights"],"attr":{"dilations":{"list":{"s":[],"i":["1","1","1","1"],"f":[],"b":[],"type":[],"shape":[],"tensor":[],"func":[]}},"T":{"type":1},"data_format":{"s":[78,72,87,67]},"strides":{"list":{"s":[],"i":["1","1","1","1"],"f":[],"b":[],"type":[],"shape":[],"tensor":[],"func":[]}},"use_cudnn_on_gpu":{"b":true},"padding":{"s":[83,65,77,69]}},"name":"MobilenetV2/expanded_conv_10/expand/Conv2D","op":"Conv2D"},{"input":["MobilenetV2/expanded_conv_10/expand/Conv2D","MobilenetV2/expanded_conv_10/expand/BatchNorm/gamma","MobilenetV2/expanded_conv_10/expand/BatchNorm/beta","MobilenetV2/expanded_conv_10/expand/BatchNorm/moving_mean","MobilenetV2/expanded_conv_10/expand/BatchNorm/moving_variance"],"attr":{"T":{"type":1},"data_format":{"s":[78,72,87,67]},"is_training":{"b":false},"epsilon":{"f":0.0010000000474974513}},"name":"MobilenetV2/expanded_conv_10/expand/BatchNorm/FusedBatchNorm","op":"FusedBatchNorm"},{"input":["MobilenetV2/expanded_conv_10/expand/BatchNorm/FusedBatchNorm"],"attr":{"T":{"type":1}},"name":"MobilenetV2/expanded_conv_10/expand/Relu6","op":"Relu6"},{"input":["MobilenetV2/expanded_conv_10/expand/Relu6","MobilenetV2/expanded_conv_7/depthwise/depthwise/SpaceToBatchND/block_shape","MobilenetV2/expanded_conv_7/depthwise/depthwise/SpaceToBatchND/paddings"],"attr":{"Tpaddings":{"type":3},"Tblock_shape":{"type":3},"T":{"type":1}},"name":"MobilenetV2/expanded_conv_10/depthwise/depthwise/SpaceToBatchND","op":"SpaceToBatchND"},{"input":["MobilenetV2/expanded_conv_10/depthwise/depthwise/SpaceToBatchND","MobilenetV2/expanded_conv_10/depthwise/depthwise_weights"],"attr":{"strides":{"list":{"s":[],"i":["1","1","1","1"],"f":[],"b":[],"type":[],"shape":[],"tensor":[],"func":[]}},"data_format":{"s":[78,72,87,67]},"dilations":{"list":{"s":[],"i":["1","1","1","1"],"f":[],"b":[],"type":[],"shape":[],"tensor":[],"func":[]}},"padding":{"s":[86,65,76,73,68]},"T":{"type":1}},"name":"MobilenetV2/expanded_conv_10/depthwise/depthwise","op":"DepthwiseConv2dNative"},{"input":["MobilenetV2/expanded_conv_10/depthwise/depthwise","MobilenetV2/expanded_conv_7/depthwise/depthwise/SpaceToBatchND/block_shape","MobilenetV2/expanded_conv_7/depthwise/depthwise/BatchToSpaceND/crops"],"attr":{"Tcrops":{"type":3},"T":{"type":1},"Tblock_shape":{"type":3}},"name":"MobilenetV2/expanded_conv_10/depthwise/depthwise/BatchToSpaceND","op":"BatchToSpaceND"},{"input":["MobilenetV2/expanded_conv_10/depthwise/depthwise/BatchToSpaceND","MobilenetV2/expanded_conv_10/depthwise/BatchNorm/gamma","MobilenetV2/expanded_conv_10/depthwise/BatchNorm/beta","MobilenetV2/expanded_conv_10/depthwise/BatchNorm/moving_mean","MobilenetV2/expanded_conv_10/depthwise/BatchNorm/moving_variance"],"attr":{"T":{"type":1},"data_format":{"s":[78,72,87,67]},"is_training":{"b":false},"epsilon":{"f":0.0010000000474974513}},"name":"MobilenetV2/expanded_conv_10/depthwise/BatchNorm/FusedBatchNorm","op":"FusedBatchNorm"},{"input":["MobilenetV2/expanded_conv_10/depthwise/BatchNorm/FusedBatchNorm"],"attr":{"T":{"type":1}},"name":"MobilenetV2/expanded_conv_10/depthwise/Relu6","op":"Relu6"},{"input":["MobilenetV2/expanded_conv_10/depthwise/Relu6","MobilenetV2/expanded_conv_10/project/weights"],"attr":{"padding":{"s":[83,65,77,69]},"dilations":{"list":{"s":[],"i":["1","1","1","1"],"f":[],"b":[],"type":[],"shape":[],"tensor":[],"func":[]}},"T":{"type":1},"data_format":{"s":[78,72,87,67]},"strides":{"list":{"s":[],"i":["1","1","1","1"],"f":[],"b":[],"type":[],"shape":[],"tensor":[],"func":[]}},"use_cudnn_on_gpu":{"b":true}},"name":"MobilenetV2/expanded_conv_10/project/Conv2D","op":"Conv2D"},{"input":["MobilenetV2/expanded_conv_10/project/Conv2D","MobilenetV2/expanded_conv_10/project/BatchNorm/gamma","MobilenetV2/expanded_conv_10/project/BatchNorm/beta","MobilenetV2/expanded_conv_10/project/BatchNorm/moving_mean","MobilenetV2/expanded_conv_10/project/BatchNorm/moving_variance"],"attr":{"epsilon":{"f":0.0010000000474974513},"T":{"type":1},"data_format":{"s":[78,72,87,67]},"is_training":{"b":false}},"name":"MobilenetV2/expanded_conv_10/project/BatchNorm/FusedBatchNorm","op":"FusedBatchNorm"},{"input":["MobilenetV2/expanded_conv_10/project/BatchNorm/FusedBatchNorm","MobilenetV2/expanded_conv_11/expand/weights"],"attr":{"padding":{"s":[83,65,77,69]},"dilations":{"list":{"s":[],"i":["1","1","1","1"],"f":[],"b":[],"type":[],"shape":[],"tensor":[],"func":[]}},"T":{"type":1},"data_format":{"s":[78,72,87,67]},"strides":{"list":{"s":[],"i":["1","1","1","1"],"f":[],"b":[],"type":[],"shape":[],"tensor":[],"func":[]}},"use_cudnn_on_gpu":{"b":true}},"name":"MobilenetV2/expanded_conv_11/expand/Conv2D","op":"Conv2D"},{"input":["MobilenetV2/expanded_conv_11/expand/Conv2D","MobilenetV2/expanded_conv_11/expand/BatchNorm/gamma","MobilenetV2/expanded_conv_11/expand/BatchNorm/beta","MobilenetV2/expanded_conv_11/expand/BatchNorm/moving_mean","MobilenetV2/expanded_conv_11/expand/BatchNorm/moving_variance"],"attr":{"epsilon":{"f":0.0010000000474974513},"T":{"type":1},"data_format":{"s":[78,72,87,67]},"is_training":{"b":false}},"name":"MobilenetV2/expanded_conv_11/expand/BatchNorm/FusedBatchNorm","op":"FusedBatchNorm"},{"input":["MobilenetV2/expanded_conv_11/expand/BatchNorm/FusedBatchNorm"],"attr":{"T":{"type":1}},"name":"MobilenetV2/expanded_conv_11/expand/Relu6","op":"Relu6"},{"input":["MobilenetV2/expanded_conv_11/expand/Relu6","MobilenetV2/expanded_conv_7/depthwise/depthwise/SpaceToBatchND/block_shape","MobilenetV2/expanded_conv_7/depthwise/depthwise/SpaceToBatchND/paddings"],"attr":{"Tblock_shape":{"type":3},"T":{"type":1},"Tpaddings":{"type":3}},"name":"MobilenetV2/expanded_conv_11/depthwise/depthwise/SpaceToBatchND","op":"SpaceToBatchND"},{"input":["MobilenetV2/expanded_conv_11/depthwise/depthwise/SpaceToBatchND","MobilenetV2/expanded_conv_11/depthwise/depthwise_weights"],"attr":{"padding":{"s":[86,65,76,73,68]},"dilations":{"list":{"s":[],"i":["1","1","1","1"],"f":[],"b":[],"type":[],"shape":[],"tensor":[],"func":[]}},"T":{"type":1},"data_format":{"s":[78,72,87,67]},"strides":{"list":{"s":[],"i":["1","1","1","1"],"f":[],"b":[],"type":[],"shape":[],"tensor":[],"func":[]}}},"name":"MobilenetV2/expanded_conv_11/depthwise/depthwise","op":"DepthwiseConv2dNative"},{"input":["MobilenetV2/expanded_conv_11/depthwise/depthwise","MobilenetV2/expanded_conv_7/depthwise/depthwise/SpaceToBatchND/block_shape","MobilenetV2/expanded_conv_7/depthwise/depthwise/BatchToSpaceND/crops"],"attr":{"T":{"type":1},"Tblock_shape":{"type":3},"Tcrops":{"type":3}},"name":"MobilenetV2/expanded_conv_11/depthwise/depthwise/BatchToSpaceND","op":"BatchToSpaceND"},{"input":["MobilenetV2/expanded_conv_11/depthwise/depthwise/BatchToSpaceND","MobilenetV2/expanded_conv_11/depthwise/BatchNorm/gamma","MobilenetV2/expanded_conv_11/depthwise/BatchNorm/beta","MobilenetV2/expanded_conv_11/depthwise/BatchNorm/moving_mean","MobilenetV2/expanded_conv_11/depthwise/BatchNorm/moving_variance"],"attr":{"data_format":{"s":[78,72,87,67]},"is_training":{"b":false},"epsilon":{"f":0.0010000000474974513},"T":{"type":1}},"name":"MobilenetV2/expanded_conv_11/depthwise/BatchNorm/FusedBatchNorm","op":"FusedBatchNorm"},{"input":["MobilenetV2/expanded_conv_11/depthwise/BatchNorm/FusedBatchNorm"],"attr":{"T":{"type":1}},"name":"MobilenetV2/expanded_conv_11/depthwise/Relu6","op":"Relu6"},{"input":["MobilenetV2/expanded_conv_11/depthwise/Relu6","MobilenetV2/expanded_conv_11/project/weights"],"attr":{"padding":{"s":[83,65,77,69]},"dilations":{"list":{"s":[],"i":["1","1","1","1"],"f":[],"b":[],"type":[],"shape":[],"tensor":[],"func":[]}},"T":{"type":1},"strides":{"list":{"s":[],"i":["1","1","1","1"],"f":[],"b":[],"type":[],"shape":[],"tensor":[],"func":[]}},"data_format":{"s":[78,72,87,67]},"use_cudnn_on_gpu":{"b":true}},"name":"MobilenetV2/expanded_conv_11/project/Conv2D","op":"Conv2D"},{"input":["MobilenetV2/expanded_conv_11/project/Conv2D","MobilenetV2/expanded_conv_11/project/BatchNorm/gamma","MobilenetV2/expanded_conv_11/project/BatchNorm/beta","MobilenetV2/expanded_conv_11/project/BatchNorm/moving_mean","MobilenetV2/expanded_conv_11/project/BatchNorm/moving_variance"],"attr":{"data_format":{"s":[78,72,87,67]},"is_training":{"b":false},"epsilon":{"f":0.0010000000474974513},"T":{"type":1}},"name":"MobilenetV2/expanded_conv_11/project/BatchNorm/FusedBatchNorm","op":"FusedBatchNorm"},{"input":["MobilenetV2/expanded_conv_10/project/BatchNorm/FusedBatchNorm","MobilenetV2/expanded_conv_11/project/BatchNorm/FusedBatchNorm"],"attr":{"T":{"type":1}},"name":"MobilenetV2/expanded_conv_11/add","op":"Add"},{"input":["MobilenetV2/expanded_conv_11/add","MobilenetV2/expanded_conv_12/expand/weights"],"attr":{"padding":{"s":[83,65,77,69]},"dilations":{"list":{"s":[],"i":["1","1","1","1"],"f":[],"b":[],"type":[],"shape":[],"tensor":[],"func":[]}},"T":{"type":1},"data_format":{"s":[78,72,87,67]},"strides":{"list":{"s":[],"i":["1","1","1","1"],"f":[],"b":[],"type":[],"shape":[],"tensor":[],"func":[]}},"use_cudnn_on_gpu":{"b":true}},"name":"MobilenetV2/expanded_conv_12/expand/Conv2D","op":"Conv2D"},{"input":["MobilenetV2/expanded_conv_12/expand/Conv2D","MobilenetV2/expanded_conv_12/expand/BatchNorm/gamma","MobilenetV2/expanded_conv_12/expand/BatchNorm/beta","MobilenetV2/expanded_conv_12/expand/BatchNorm/moving_mean","MobilenetV2/expanded_conv_12/expand/BatchNorm/moving_variance"],"attr":{"epsilon":{"f":0.0010000000474974513},"T":{"type":1},"data_format":{"s":[78,72,87,67]},"is_training":{"b":false}},"name":"MobilenetV2/expanded_conv_12/expand/BatchNorm/FusedBatchNorm","op":"FusedBatchNorm"},{"input":["MobilenetV2/expanded_conv_12/expand/BatchNorm/FusedBatchNorm"],"attr":{"T":{"type":1}},"name":"MobilenetV2/expanded_conv_12/expand/Relu6","op":"Relu6"},{"input":["MobilenetV2/expanded_conv_12/expand/Relu6","MobilenetV2/expanded_conv_7/depthwise/depthwise/SpaceToBatchND/block_shape","MobilenetV2/expanded_conv_7/depthwise/depthwise/SpaceToBatchND/paddings"],"attr":{"T":{"type":1},"Tpaddings":{"type":3},"Tblock_shape":{"type":3}},"name":"MobilenetV2/expanded_conv_12/depthwise/depthwise/SpaceToBatchND","op":"SpaceToBatchND"},{"input":["MobilenetV2/expanded_conv_12/depthwise/depthwise/SpaceToBatchND","MobilenetV2/expanded_conv_12/depthwise/depthwise_weights"],"attr":{"padding":{"s":[86,65,76,73,68]},"dilations":{"list":{"s":[],"i":["1","1","1","1"],"f":[],"b":[],"type":[],"shape":[],"tensor":[],"func":[]}},"T":{"type":1},"data_format":{"s":[78,72,87,67]},"strides":{"list":{"s":[],"i":["1","1","1","1"],"f":[],"b":[],"type":[],"shape":[],"tensor":[],"func":[]}}},"name":"MobilenetV2/expanded_conv_12/depthwise/depthwise","op":"DepthwiseConv2dNative"},{"input":["MobilenetV2/expanded_conv_12/depthwise/depthwise","MobilenetV2/expanded_conv_7/depthwise/depthwise/SpaceToBatchND/block_shape","MobilenetV2/expanded_conv_7/depthwise/depthwise/BatchToSpaceND/crops"],"attr":{"Tblock_shape":{"type":3},"Tcrops":{"type":3},"T":{"type":1}},"name":"MobilenetV2/expanded_conv_12/depthwise/depthwise/BatchToSpaceND","op":"BatchToSpaceND"},{"input":["MobilenetV2/expanded_conv_12/depthwise/depthwise/BatchToSpaceND","MobilenetV2/expanded_conv_12/depthwise/BatchNorm/gamma","MobilenetV2/expanded_conv_12/depthwise/BatchNorm/beta","MobilenetV2/expanded_conv_12/depthwise/BatchNorm/moving_mean","MobilenetV2/expanded_conv_12/depthwise/BatchNorm/moving_variance"],"attr":{"epsilon":{"f":0.0010000000474974513},"T":{"type":1},"data_format":{"s":[78,72,87,67]},"is_training":{"b":false}},"name":"MobilenetV2/expanded_conv_12/depthwise/BatchNorm/FusedBatchNorm","op":"FusedBatchNorm"},{"input":["MobilenetV2/expanded_conv_12/depthwise/BatchNorm/FusedBatchNorm"],"attr":{"T":{"type":1}},"name":"MobilenetV2/expanded_conv_12/depthwise/Relu6","op":"Relu6"},{"input":["MobilenetV2/expanded_conv_12/depthwise/Relu6","MobilenetV2/expanded_conv_12/project/weights"],"attr":{"strides":{"list":{"s":[],"i":["1","1","1","1"],"f":[],"b":[],"type":[],"shape":[],"tensor":[],"func":[]}},"data_format":{"s":[78,72,87,67]},"use_cudnn_on_gpu":{"b":true},"padding":{"s":[83,65,77,69]},"dilations":{"list":{"s":[],"i":["1","1","1","1"],"f":[],"b":[],"type":[],"shape":[],"tensor":[],"func":[]}},"T":{"type":1}},"name":"MobilenetV2/expanded_conv_12/project/Conv2D","op":"Conv2D"},{"input":["MobilenetV2/expanded_conv_12/project/Conv2D","MobilenetV2/expanded_conv_12/project/BatchNorm/gamma","MobilenetV2/expanded_conv_12/project/BatchNorm/beta","MobilenetV2/expanded_conv_12/project/BatchNorm/moving_mean","MobilenetV2/expanded_conv_12/project/BatchNorm/moving_variance"],"attr":{"epsilon":{"f":0.0010000000474974513},"T":{"type":1},"data_format":{"s":[78,72,87,67]},"is_training":{"b":false}},"name":"MobilenetV2/expanded_conv_12/project/BatchNorm/FusedBatchNorm","op":"FusedBatchNorm"},{"input":["MobilenetV2/expanded_conv_11/add","MobilenetV2/expa…
conv_12/project/BatchNorm/FusedBatchNorm"],"attr":{"T":{"type":1}},"name":"MobilenetV2/expanded_conv_12/add","op":"Add"},{"input":["MobilenetV2/expanded_conv_12/add","MobilenetV2/expanded_conv_13/expand/weights"],"attr":{"strides":{"list":{"s":[],"i":["1","1","1","1"],"f":[],"b":[],"type":[],"shape":[],"tensor":[],"func":[]}},"data_format":{"s":[78,72,87,67]},"use_cudnn_on_gpu":{"b":true},"padding":{"s":[83,65,77,69]},"dilations":{"list":{"s":[],"i":["1","1","1","1"],"f":[],"b":[],"type":[],"shape":[],"tensor":[],"func":[]}},"T":{"type":1}},"name":"MobilenetV2/expanded_conv_13/expand/Conv2D","op":"Conv2D"},{"input":["MobilenetV2/expanded_conv_13/expand/Conv2D","MobilenetV2/expanded_conv_13/expand/BatchNorm/gamma","MobilenetV2/expanded_conv_13/expand/BatchNorm/beta","MobilenetV2/expanded_conv_13/expand/BatchNorm/moving_mean","MobilenetV2/expanded_conv_13/expand/BatchNorm/moving_variance"],"attr":{"epsilon":{"f":0.0010000000474974513},"T":{"type":1},"data_format":{"s":[78,72,87,67]},"is_training":{"b":false}},"name":"MobilenetV2/expanded_conv_13/expand/BatchNorm/FusedBatchNorm","op":"FusedBatchNorm"},{"input":["MobilenetV2/expanded_conv_13/expand/BatchNorm/FusedBatchNorm"],"attr":{"T":{"type":1}},"name":"MobilenetV2/expanded_conv_13/expand/Relu6","op":"Relu6"},{"input":["MobilenetV2/expanded_conv_13/expand/Relu6","MobilenetV2/expanded_conv_7/depthwise/depthwise/SpaceToBatchND/block_shape","MobilenetV2/expanded_conv_7/depthwise/depthwise/SpaceToBatchND/paddings"],"attr":{"T":{"type":1},"Tpaddings":{"type":3},"Tblock_shape":{"type":3}},"name":"MobilenetV2/expanded_conv_13/depthwise/depthwise/SpaceToBatchND","op":"SpaceToBatchND"},{"input":["MobilenetV2/expanded_conv_13/depthwise/depthwise/SpaceToBatchND","MobilenetV2/expanded_conv_13/depthwise/depthwise_weights"],"attr":{"T":{"type":1},"strides":{"list":{"s":[],"i":["1","1","1","1"],"f":[],"b":[],"type":[],"shape":[],"tensor":[],"func":[]}},"data_format":{"s":[78,72,87,67]},"padding":{"s":[86,65,76,73,68]},"dilations":{"list":{"s":[],"i":["1","1","1","1"],"f":[],"b":[],"type":[],"shape":[],"tensor":[],"func":[]}}},"name":"MobilenetV2/expanded_conv_13/depthwise/depthwise","op":"DepthwiseConv2dNative"},{"input":["MobilenetV2/expanded_conv_13/depthwise/depthwise","MobilenetV2/expanded_conv_7/depthwise/depthwise/SpaceToBatchND/block_shape","MobilenetV2/expanded_conv_7/depthwise/depthwise/BatchToSpaceND/crops"],"attr":{"Tcrops":{"type":3},"T":{"type":1},"Tblock_shape":{"type":3}},"name":"MobilenetV2/expanded_conv_13/depthwise/depthwise/BatchToSpaceND","op":"BatchToSpaceND"},{"input":["MobilenetV2/expanded_conv_13/depthwise/depthwise/BatchToSpaceND","MobilenetV2/expanded_conv_13/depthwise/BatchNorm/gamma","MobilenetV2/expanded_conv_13/depthwise/BatchNorm/beta","MobilenetV2/expanded_conv_13/depthwise/BatchNorm/moving_mean","MobilenetV2/expanded_conv_13/depthwise/BatchNorm/moving_variance"],"attr":{"T":{"type":1},"data_format":{"s":[78,72,87,67]},"is_training":{"b":false},"epsilon":{"f":0.0010000000474974513}},"name":"MobilenetV2/expanded_conv_13/depthwise/BatchNorm/FusedBatchNorm","op":"FusedBatchNorm"},{"input":["MobilenetV2/expanded_conv_13/depthwise/BatchNorm/FusedBatchNorm"],"attr":{"T":{"type":1}},"name":"MobilenetV2/expanded_conv_13/depthwise/Relu6","op":"Relu6"},{"input":["MobilenetV2/expanded_conv_13/depthwise/Relu6","MobilenetV2/expanded_conv_13/project/weights"],"attr":{"dilations":{"list":{"s":[],"i":["1","1","1","1"],"f":[],"b":[],"type":[],"shape":[],"tensor":[],"func":[]}},"T":{"type":1},"strides":{"list":{"s":[],"i":["1","1","1","1"],"f":[],"b":[],"type":[],"shape":[],"tensor":[],"func":[]}},"data_format":{"s":[78,72,87,67]},"use_cudnn_on_gpu":{"b":true},"padding":{"s":[83,65,77,69]}},"name":"MobilenetV2/expanded_conv_13/project/Conv2D","op":"Conv2D"},{"input":["MobilenetV2/expanded_conv_13/project/Conv2D","MobilenetV2/expanded_conv_13/project/BatchNorm/gamma","MobilenetV2/expanded_conv_13/project/BatchNorm/beta","MobilenetV2/expanded_conv_13/project/BatchNorm/moving_mean","MobilenetV2/expanded_conv_13/project/BatchNorm/moving_variance"],"attr":{"is_training":{"b":false},"epsilon":{"f":0.0010000000474974513},"T":{"type":1},"data_format":{"s":[78,72,87,67]}},"name":"MobilenetV2/expanded_conv_13/project/BatchNorm/FusedBatchNorm","op":"FusedBatchNorm"},{"input":["MobilenetV2/expanded_conv_13/project/BatchNorm/FusedBatchNorm","MobilenetV2/expanded_conv_14/expand/weights"],"attr":{"dilations":{"list":{"s":[],"i":["1","1","1","1"],"f":[],"b":[],"type":[],"shape":[],"tensor":[],"func":[]}},"T":{"type":1},"strides":{"list":{"s":[],"i":["1","1","1","1"],"f":[],"b":[],"type":[],"shape":[],"tensor":[],"func":[]}},"data_format":{"s":[78,72,87,67]},"use_cudnn_on_gpu":{"b":true},"padding":{"s":[83,65,77,69]}},"name":"MobilenetV2/expanded_conv_14/expand/Conv2D","op":"Conv2D"},{"input":["MobilenetV2/expanded_conv_14/expand/Conv2D","MobilenetV2/expanded_conv_14/expand/BatchNorm/gamma","MobilenetV2/expanded_conv_14/expand/BatchNorm/beta","MobilenetV2/expanded_conv_14/expand/BatchNorm/moving_mean","MobilenetV2/expanded_conv_14/expand/BatchNorm/moving_variance"],"attr":{"epsilon":{"f":0.0010000000474974513},"T":{"type":1},"data_format":{"s":[78,72,87,67]},"is_training":{"b":false}},"name":"MobilenetV2/expanded_conv_14/expand/BatchNorm/FusedBatchNorm","op":"FusedBatchNorm"},{"input":["MobilenetV2/expanded_conv_14/expand/BatchNorm/FusedBatchNorm"],"attr":{"T":{"type":1}},"name":"MobilenetV2/expanded_conv_14/expand/Relu6","op":"Relu6"},{"input":["MobilenetV2/expanded_conv_14/expand/Relu6","MobilenetV2/expanded_conv_14/depthwise/depthwise/SpaceToBatchND/block_shape","MobilenetV2/expanded_conv_14/depthwise/depthwise/SpaceToBatchND/paddings"],"attr":{"T":{"type":1},"Tpaddings":{"type":3},"Tblock_shape":{"type":3}},"name":"MobilenetV2/expanded_conv_14/depthwise/depthwise/SpaceToBatchND","op":"SpaceToBatchND"},{"input":["MobilenetV2/expanded_conv_14/depthwise/depthwise/SpaceToBatchND","MobilenetV2/expanded_conv_14/depthwise/depthwise_weights"],"attr":{"padding":{"s":[86,65,76,73,68]},"dilations":{"list":{"s":[],"i":["1","1","1","1"],"f":[],"b":[],"type":[],"shape":[],"tensor":[],"func":[]}},"T":{"type":1},"data_format":{"s":[78,72,87,67]},"strides":{"list":{"s":[],"i":["1","1","1","1"],"f":[],"b":[],"type":[],"shape":[],"tensor":[],"func":[]}}},"name":"MobilenetV2/expanded_conv_14/depthwise/depthwise","op":"DepthwiseConv2dNative"},{"input":["MobilenetV2/expanded_conv_14/depthwise/depthwise","MobilenetV2/expanded_conv_14/depthwise/depthwise/SpaceToBatchND/block_shape","MobilenetV2/expanded_conv_14/depthwise/depthwise/BatchToSpaceND/crops"],"attr":{"T":{"type":1},"Tblock_shape":{"type":3},"Tcrops":{"type":3}},"name":"MobilenetV2/expanded_conv_14/depthwise/depthwise/BatchToSpaceND","op":"BatchToSpaceND"},{"input":["MobilenetV2/expanded_conv_14/depthwise/depthwise/BatchToSpaceND","MobilenetV2/expanded_conv_14/depthwise/BatchNorm/gamma","MobilenetV2/expanded_conv_14/depthwise/BatchNorm/beta","MobilenetV2/expanded_conv_14/depthwise/BatchNorm/moving_mean","MobilenetV2/expanded_conv_14/depthwise/BatchNorm/moving_variance"],"attr":{"T":{"type":1},"data_format":{"s":[78,72,87,67]},"is_training":{"b":false},"epsilon":{"f":0.0010000000474974513}},"name":"MobilenetV2/expanded_conv_14/depthwise/BatchNorm/FusedBatchNorm","op":"FusedBatchNorm"},{"input":["MobilenetV2/expanded_conv_14/depthwise/BatchNorm/FusedBatchNorm"],"attr":{"T":{"type":1}},"name":"MobilenetV2/expanded_conv_14/depthwise/Relu6","op":"Relu6"},{"input":["MobilenetV2/expanded_conv_14/depthwise/Relu6","MobilenetV2/expanded_conv_14/project/weights"],"attr":{"dilations":{"list":{"s":[],"i":["1","1","1","1"],"f":[],"b":[],"type":[],"shape":[],"tensor":[],"func":[]}},"T":{"type":1},"data_format":{"s":[78,72,87,67]},"strides":{"list":{"s":[],"i":["1","1","1","1"],"f":[],"b":[],"type":[],"shape":[],"tensor":[],"func":[]}},"use_cudnn_on_gpu":{"b":true},"padding":{"s":[83,65,77,69]}},"name":"MobilenetV2/expanded_conv_14/project/Conv2D","op":"Conv2D"},{"input":["MobilenetV2/expanded_conv_14/project/Conv2D","MobilenetV2/expanded_conv_14/project/BatchNorm/gamma","MobilenetV2/expanded_conv_14/project/BatchNorm/beta","MobilenetV2/expanded_conv_14/project/BatchNorm/moving_mean","MobilenetV2/expanded_conv_14/project/BatchNorm/moving_variance"],"attr":{"data_format":{"s":[78,72,87,67]},"is_training":{"b":false},"epsilon":{"f":0.0010000000474974513},"T":{"type":1}},"name":"MobilenetV2/expanded_conv_14/project/BatchNorm/FusedBatchNorm","op":"FusedBatchNorm"},{"input":["MobilenetV2/expanded_conv_13/project/BatchNorm/FusedBatchNorm","MobilenetV2/expanded_conv_14/project/BatchNorm/FusedBatchNorm"],"attr":{"T":{"type":1}},"name":"MobilenetV2/expanded_conv_14/add","op":"Add"},{"input":["MobilenetV2/expanded_conv_14/add","MobilenetV2/expanded_conv_15/expand/weights"],"attr":{"data_format":{"s":[78,72,87,67]},"strides":{"list":{"s":[],"i":["1","1","1","1"],"f":[],"b":[],"type":[],"shape":[],"tensor":[],"func":[]}},"use_cudnn_on_gpu":{"b":true},"padding":{"s":[83,65,77,69]},"dilations":{"list":{"s":[],"i":["1","1","1","1"],"f":[],"b":[],"type":[],"shape":[],"tensor":[],"func":[]}},"T":{"type":1}},"name":"MobilenetV2/expanded_conv_15/expand/Conv2D","op":"Conv2D"},{"input":["MobilenetV2/expanded_conv_15/expand/Conv2D","MobilenetV2/expanded_conv_15/expand/BatchNorm/gamma","MobilenetV2/expanded_conv_15/expand/BatchNorm/beta","MobilenetV2/expanded_conv_15/expand/BatchNorm/moving_mean","MobilenetV2/expanded_conv_15/expand/BatchNorm/moving_variance"],"attr":{"epsilon":{"f":0.0010000000474974513},"T":{"type":1},"data_format":{"s":[78,72,87,67]},"is_training":{"b":false}},"name":"MobilenetV2/expanded_conv_15/expand/BatchNorm/FusedBatchNorm","op":"FusedBatchNorm"},{"input":["MobilenetV2/expanded_conv_15/expand/BatchNorm/FusedBatchNorm"],"attr":{"T":{"type":1}},"name":"MobilenetV2/expanded_conv_15/expand/Relu6","op":"Relu6"},{"input":["MobilenetV2/expanded_conv_15/expand/Relu6","MobilenetV2/expanded_conv_14/depthwise/depthwise/SpaceToBatchND/block_shape","MobilenetV2/expanded_conv_14/depthwise/depthwise/SpaceToBatchND/paddings"],"attr":{"Tblock_shape":{"type":3},"T":{"type":1},"Tpaddings":{"type":3}},"name":"MobilenetV2/expanded_conv_15/depthwise/depthwise/SpaceToBatchND","op":"SpaceToBatchND"},{"input":["MobilenetV2/expanded_conv_15/depthwise/depthwise/SpaceToBatchND","MobilenetV2/expanded_conv_15/depthwise/depthwise_weights"],"attr":{"dilations":{"list":{"s":[],"i":["1","1","1","1"],"f":[],"b":[],"type":[],"shape":[],"tensor":[],"func":[]}},"padding":{"s":[86,65,76,73,68]},"T":{"type":1},"data_format":{"s":[78,72,87,67]},"strides":{"list":{"s":[],"i":["1","1","1","1"],"f":[],"b":[],"type":[],"shape":[],"tensor":[],"func":[]}}},"name":"MobilenetV2/expanded_conv_15/depthwise/depthwise","op":"DepthwiseConv2dNative"},{"input":["MobilenetV2/expanded_conv_15/depthwise/depthwise","MobilenetV2/expanded_conv_14/depthwise/depthwise/SpaceToBatchND/block_shape","MobilenetV2/expanded_conv_14/depthwise/depthwise/BatchToSpaceND/crops"],"attr":{"Tblock_shape":{"type":3},"Tcrops":{"type":3},"T":{"type":1}},"name":"MobilenetV2/expanded_conv_15/depthwise/depthwise/BatchToSpaceND","op":"BatchToSpaceND"},{"input":["MobilenetV2/expanded_conv_15/depthwise/depthwise/BatchToSpaceND","MobilenetV2/expanded_conv_15/depthwise/BatchNorm/gamma","MobilenetV2/expanded_conv_15/depthwise/BatchNorm/beta","MobilenetV2/expanded_conv_15/depthwise/BatchNorm/moving_mean","MobilenetV2/expanded_conv_15/depthwise/BatchNorm/moving_variance"],"attr":{"data_format":{"s":[78,72,87,67]},"is_training":{"b":false},"epsilon":{"f":0.0010000000474974513},"T":{"type":1}},"name":"MobilenetV2/expanded_conv_15/depthwise/BatchNorm/FusedBatchNorm","op":"FusedBatchNorm"},{"input":["MobilenetV2/expanded_conv_15/depthwise/BatchNorm/FusedBatchNorm"],"attr":{"T":{"type":1}},"name":"MobilenetV2/expanded_conv_15/depthwise/Relu6","op":"Relu6"},{"input":["MobilenetV2/expanded_conv_15/depthwise/Relu6","MobilenetV2/expanded_conv_15/project/weights"],"attr":{"dilations":{"list":{"s":[],"i":["1","1","1","1"],"f":[],"b":[],"type":[],"shape":[],"tensor":[],"func":[]}},"T":{"type":1},"strides":{"list":{"s":[],"i":["1","1","1","1"],"f":[],"b":[],"type":[],"shape":[],"tensor":[],"func":[]}},"data_format":{"s":[78,72,87,67]},"use_cudnn_on_gpu":{"b":true},"padding":{"s":[83,65,77,69]}},"name":"MobilenetV2/expanded_conv_15/project/Conv2D","op":"Conv2D"},{"input":["MobilenetV2/expanded_conv_15/project/Conv2D","MobilenetV2/expanded_conv_15/project/BatchNorm/gamma","MobilenetV2/expanded_conv_15/project/BatchNorm/beta","MobilenetV2/expanded_conv_15/project/BatchNorm/moving_mean","MobilenetV2/expanded_conv_15/project/BatchNorm/moving_variance"],"attr":{"is_training":{"b":false},"epsilon":{"f":0.0010000000474974513},"T":{"type":1},"data_format":{"s":[78,72,87,67]}},"name":"MobilenetV2/expanded_conv_15/project/BatchNorm/FusedBatchNorm","op":"FusedBatchNorm"},{"input":["MobilenetV2/expanded_conv_14/add","MobilenetV2/expanded_conv_15/project/BatchNorm/FusedBatchNorm"],"attr":{"T":{"type":1}},"name":"MobilenetV2/expanded_conv_15/add","op":"Add"},{"input":["MobilenetV2/expanded_conv_15/add","MobilenetV2/expanded_conv_16/expand/weights"],"attr":{"dilations":{"list":{"s":[],"i":["1","1","1","1"],"f":[],"b":[],"type":[],"shape":[],"tensor":[],"func":[]}},"T":{"type":1},"strides":{"list":{"s":[],"i":["1","1","1","1"],"f":[],"b":[],"type":[],"shape":[],"tensor":[],"func":[]}},"data_format":{"s":[78,72,87,67]},"use_cudnn_on_gpu":{"b":true},"padding":{"s":[83,65,77,69]}},"name":"MobilenetV2/expanded_conv_16/expand/Conv2D","op":"Conv2D"},{"input":["MobilenetV2/expanded_conv_16/expand/Conv2D","MobilenetV2/expanded_conv_16/expand/BatchNorm/gamma","MobilenetV2/expanded_conv_16/expand/BatchNorm/beta","MobilenetV2/expanded_conv_16/expand/BatchNorm/moving_mean","MobilenetV2/expanded_conv_16/expand/BatchNorm/moving_variance"],"attr":{"data_format":{"s":[78,72,87,67]},"is_training":{"b":false},"epsilon":{"f":0.0010000000474974513},"T":{"type":1}},"name":"MobilenetV2/expanded_conv_16/expand/BatchNorm/FusedBatchNorm","op":"FusedBatchNorm"},{"input":["MobilenetV2/expanded_conv_16/expand/BatchNorm/FusedBatchNorm"],"attr":{"T":{"type":1}},"name":"MobilenetV2/expanded_conv_16/expand/Relu6","op":"Relu6"},{"input":["MobilenetV2/expanded_conv_16/expand/Relu6","MobilenetV2/expanded_conv_14/depthwise/depthwise/SpaceToBatchND/block_shape","MobilenetV2/expanded_conv_14/depthwise/depthwise/SpaceToBatchND/paddings"],"attr":{"Tpaddings":{"type":3},"Tblock_shape":{"type":3},"T":{"type":1}},"name":"MobilenetV2/expanded_conv_16/depthwise/depthwise/SpaceToBatchND","op":"SpaceToBatchND"},{"input":["MobilenetV2/expanded_conv_16/depthwise/depthwise/SpaceToBatchND","MobilenetV2/expanded_conv_16/depthwise/depthwise_weights"],"attr":{"strides":{"list":{"s":[],"i":["1","1","1","1"],"f":[],"b":[],"type":[],"shape":[],"tensor":[],"func":[]}},"data_format":{"s":[78,72,87,67]},"dilations":{"list":{"s":[],"i":["1","1","1","1"],"f":[],"b":[],"type":[],"shape":[],"tensor":[],"func":[]}},"padding":{"s":[86,65,76,73,68]},"T":{"type":1}},"name":"MobilenetV2/expanded_conv_16/depthwise/depthwise","op":"DepthwiseConv2dNative"},{"input":["MobilenetV2/expanded_conv_16/depthwise/depthwise","MobilenetV2/expanded_conv_14/depthwise/depthwise/SpaceToBatchND/block_shape","MobilenetV2/expanded_conv_14/depthwise/depthwise/BatchToSpaceND/crops"],"attr":{"Tblock_shape":{"type":3},"Tcrops":{"type":3},"T":{"type":1}},"name":"MobilenetV2/expanded_conv_16/depthwise/depthwise/BatchToSpaceND","op":"BatchToSpaceND"},{"input":["MobilenetV2/expanded_conv_16/depthwise/depthwise/BatchToSpaceND","MobilenetV2/expanded_conv_16/depthwise/BatchNorm/gamma","MobilenetV2/expanded_conv_16/depthwise/BatchNorm/beta","MobilenetV2/expanded_conv_16/depthwise/BatchNorm/moving_mean","MobilenetV2/expanded_conv_16/depthwise/BatchNorm/moving_variance"],"attr":{"epsilon":{"f":0.0010000000474974513},"T":{"type":1},"data_format":{"s":[78,72,87,67]},"is_training":{"b":false}},"name":"MobilenetV2/expanded_conv_16/depthwise/BatchNorm/FusedBatchNorm","op":"FusedBatchNorm"},{"input":["MobilenetV2/expanded_conv_16/depthwise/BatchNorm/FusedBatchNorm"],"attr":{"T":{"type":1}},"name":"MobilenetV2/expanded_conv_16/depthwise/Relu6","op":"Relu6"},{"input":["MobilenetV2/expanded_conv_16/depthwise/Relu6","MobilenetV2/expanded_conv_16/project/weights"],"attr":{"padding":{"s":[83,65,77,69]},"dilations":{"list":{"s":[],"i":["1","1","1","1"],"f":[],"b":[],"type":[],"shape":[],"tensor":[],"func":[]}},"T":{"type":1},"data_format":{"s":[78,72,87,67]},"strides":{"list":{"s":[],"i":["1","1","1","1"],"f":[],"b":[],"type":[],"shape":[],"tensor":[],"func":[]}},"use_cudnn_on_gpu":{"b":true}},"name":"MobilenetV2/expanded_conv_16/project/Conv2D","op":"Conv2D"},{"input":["MobilenetV2/expanded_conv_16/project/Conv2D","MobilenetV2/expanded_conv_16/project/BatchNorm/gamma","MobilenetV2/expanded_conv_16/project/BatchNorm/beta","MobilenetV2/expanded_conv_16/project/BatchNorm/moving_mean","MobilenetV2/expanded_conv_16/project/BatchNorm/moving_variance"],"attr":{"T":{"type":1},"data_format":{"s":[78,72,87,67]},"is_training":{"b":false},"epsilon":{"f":0.0010000000474974513}},"name":"MobilenetV2/expanded_conv_16/project/BatchNorm/FusedBatchNorm","op":"FusedBatchNorm"},{"input":["MobilenetV2/expanded_conv_16/project/BatchNorm/FusedBatchNorm"],"attr":{"data_format":{"s":[78,72,87,67]},"strides":{"list":{"s":[],"i":["1","65","65","1"],"f":[],"b":[],"type":[],"shape":[],"tensor":[],"func":[]}},"ksize":{"list":{"s":[],"i":["1","65","65","1"],"f":[],"b":[],"type":[],"shape":[],"tensor":[],"func":[]}},"padding":{"s":[86,65,76,73,68]},"T":{"type":1}},"name":"AvgPool2D/AvgPool","op":"AvgPool"},{"input":["MobilenetV2/expanded_conv_16/project/BatchNorm/FusedBatchNorm","aspp0/weights"],"attr":{"padding":{"s":[83,65,77,69]},"dilations":{"list":{"s":[],"i":["1","1","1","1"],"f":[],"b":[],"type":[],"shape":[],"tensor":[],"func":[]}},"T":{"type":1},"data_format":{"s":[78,72,87,67]},"strides":{"list":{"s":[],"i":["1","1","1","1"],"f":[],"b":[],"type":[],"shape":[],"tensor":[],"func":[]}},"use_cudnn_on_gpu":{"b":true}},"name":"aspp0/Conv2D","op":"Conv2D"},{"input":["AvgPool2D/AvgPool","image_pooling/weights"],"attr":{"padding":{"s":[83,65,77,69]},"dilations":{"list":{"s":[],"i":["1","1","1","1"],"f":[],"b":[],"type":[],"shape":[],"tensor":[],"func":[]}},"T":{"type":1},"data_format":{"s":[78,72,87,67]},"strides":{"list":{"s":[],"i":["1","1","1","1"],"f":[],"b":[],"type":[],"shape":[],"tensor":[],"func":[]}},"use_cudnn_on_gpu":{"b":true}},"name":"image_pooling/Conv2D","op":"Conv2D"},{"input":["aspp0/Conv2D","aspp0/BatchNorm/gamma","aspp0/BatchNorm/beta","aspp0/BatchNorm/moving_mean","aspp0/BatchNorm/moving_variance"],"attr":{"is_training":{"b":false},"epsilon":{"f":0.000010009999641624745},"T":{"type":1},"data_format":{"s":[78,72,87,67]}},"name":"aspp0/BatchNorm/FusedBatchNorm","op":"FusedBatchNorm"},{"input":["image_pooling/Conv2D","image_pooling/BatchNorm/gamma","image_pooling/BatchNorm/beta","image_pooling/BatchNorm/moving_mean","image_pooling/BatchNorm/moving_variance"],"attr":{"data_format":{"s":[78,72,87,67]},"is_training":{"b":false},"epsilon":{"f":0.000010009999641624745},"T":{"type":1}},"name":"image_pooling/BatchNorm/FusedBatchNorm","op":"FusedBatchNorm"},{"input":["aspp0/BatchNorm/FusedBatchNorm"],"attr":{"T":{"type":1}},"name":"aspp0/Relu","op":"Relu"},{"input":["image_pooling/BatchNorm/FusedBatchNorm"],"attr":{"T":{"type":1}},"name":"image_pooling/Relu","op":"Relu"},{"input":["image_pooling/Relu","ResizeBilinear_1/size"],"attr":{"align_corners":{"b":true},"T":{"type":1}},"name":"ResizeBilinear_1","op":"ResizeBilinear"},{"input":["ResizeBilinear_1","aspp0/Relu","Assert/Assert/data_1"],"attr":{"N":{"i":"2"},"Tidx":{"type":3},"T":{"type":1}},"name":"concat","op":"ConcatV2"},{"input":["concat","concat_projection/weights"],"attr":{"use_cudnn_on_gpu":{"b":true},"padding":{"s":[83,65,77,69]},"dilations":{"list":{"s":[],"i":["1","1","1","1"],"f":[],"b":[],"type":[],"shape":[],"tensor":[],"func":[]}},"T":{"type":1},"data_format":{"s":[78,72,87,67]},"strides":{"list":{"s":[],"i":["1","1","1","1"],"f":[],"b":[],"type":[],"shape":[],"tensor":[],"func":[]}}},"name":"concat_projection/Conv2D","op":"Conv2D"},{"input":["concat_projection/Conv2D","concat_projection/BatchNorm/gamma","concat_projection/BatchNorm/beta","concat_projection/BatchNorm/moving_mean","concat_projection/BatchNorm/moving_variance"],"attr":{"data_format":{"s":[78,72,87,67]},"is_training":{"b":false},"epsilon":{"f":0.000010009999641624745},"T":{"type":1}},"name":"concat_projection/BatchNorm/FusedBatchNorm","op":"FusedBatchNorm"},{"input":["concat_projection/BatchNorm/FusedBatchNorm"],"attr":{"T":{"type":1}},"name":"concat_projection/Relu","op":"Relu"},{"input":["concat_projection/Relu","logits/semantic/weights"],"attr":{"use_cudnn_on_gpu":{"b":true},"padding":{"s":[83,65,77,69]},"dilations":{"list":{"s":[],"i":["1","1","1","1"],"f":[],"b":[],"type":[],"shape":[],"tensor":[],"func":[]}},"T":{"type":1},"strides":{"list":{"s":[],"i":["1","1","1","1"],"f":[],"b":[],"type":[],"shape":[],"tensor":[],"func":[]}},"data_format":{"s":[78,72,87,67]}},"name":"logits/semantic/Conv2D","op":"Conv2D"},{"input":["logits/semantic/Conv2D","logits/semantic/biases"],"attr":{"T":{"type":1},"data_format":{"s":[78,72,87,67]}},"name":"logits/semantic/BiasAdd","op":"BiasAdd"},{"input":["logits/semantic/BiasAdd","ResizeBilinear_1/size"],"attr":{"T":{"type":1},"align_corners":{"b":true}},"name":"ResizeBilinear_2","op":"ResizeBilinear"},{"input":["ResizeBilinear_2","strided_slice_7"],"attr":{"T":{"type":1},"align_corners":{"b":true}},"name":"ResizeBilinear_3","op":"ResizeBilinear"},{"input":["ResizeBilinear_3","Assert/Assert/data_1"],"attr":{"Tidx":{"type":3},"T":{"type":1},"output_type":{"type":9}},"name":"ArgMax","op":"ArgMax"},{"input":["ArgMax","SemanticPredictions/begin","SemanticPredictions/size"],"attr":{"Index":{"type":3},"T":{"type":9}},"name":"SemanticPredictions","op":"Slice"}],"library":{"function":[],"gradient":[]},"versions":{"badConsumers":[]}},"weightsManifest":[{"paths":["group1-shard1of3","group1-shard2of3","group1-shard3of3"],"weights":[{"name":"image_pooling/weights","shape":[1,1,320,256],"dtype":"float32"},{"name":"image_pooling/BatchNorm/gamma","shape":[256],"dtype":"float32"},{"name":"image_pooling/BatchNorm/beta","shape":[256],"dtype":"float32"},{"name":"image_pooling/BatchNorm/moving_mean","shape":[256],"dtype":"float32"},{"name":"image_pooling/BatchNorm/moving_variance","shape":[256],"dtype":"float32"},{"name":"mul_1/x","shape":[],"dtype":"float32"},{"name":"sub_1/x","shape":[],"dtype":"int32"},{"name":"stack_2","shape":[2],"dtype":"int32"},{"name":"Reshape","shape":[1,1,3],"dtype":"float32"},{"name":"stack/0","shape":[],"dtype":"int32"},{"name":"ToFloat/x","shape":[],"dtype":"float32"},{"name":"MobilenetV2/Conv/weights","shape":[3,3,3,32],"dtype":"float32"},{"name":"MobilenetV2/Conv/BatchNorm/gamma","shape":[32],"dtype":"float32"},{"name":"MobilenetV2/Conv/BatchNorm/beta","shape":[32],"dtype":"float32"},{"name":"MobilenetV2/Conv/BatchNorm/moving_mean","shape":[32],"dtype":"float32"},{"name":"MobilenetV2/Conv/BatchNorm/moving_variance","shape":[32],"dtype":"float32"},{"name":"MobilenetV2/expanded_conv/depthwise/depthwise_weights","shape":[3,3,32,1],"dtype":"float32"},{"name":"MobilenetV2/expanded_conv/depthwise/BatchNorm/gamma","shape":[32],"dtype":"float32"},{"name":"MobilenetV2/expanded_conv/depthwise/BatchNorm/beta","shape":[32],"dtype":"float32"},{"name":"MobilenetV2/expanded_conv/depthwise/BatchNorm/moving_mean","shape":[32],"dtype":"float32"},{"name":"MobilenetV2/expanded_conv/depthwise/BatchNorm/moving_variance","shape":[32],"dtype":"float32"},{"name":"MobilenetV2/expanded_conv/project/weights","shape":[1,1,32,16],"dtype":"float32"},{"name":"MobilenetV2/expanded_conv/project/BatchNorm/gamma","shape":[16],"dtype":"float32"},{"name":"MobilenetV2/expanded_conv/project/BatchNorm/beta","shape":[16],"dtype":"float32"},{"name":"MobilenetV2/expanded_conv/project/BatchNorm/moving_mean","shape":[16],"dtype":"float32"},{"name":"MobilenetV2/expanded_conv/project/BatchNorm/moving_variance","shape":[16],"dtype":"float32"},{"name":"MobilenetV2/expanded_conv_1/expand/weights","shape":[1,1,16,96],"dtype":"float32"},{"name":"MobilenetV2/expanded_conv_1/expand/BatchNorm/gamma","shape":[96],"dtype":"float32"},{"name":"MobilenetV2/expanded_conv_1/expand/BatchNorm/beta","shape":[96],"dtype":"float32"},{"name":"MobilenetV2/expanded_conv_1/expand/BatchNorm/moving_mean","shape":[96],"dtype":"float32"},{"name":"MobilenetV2/expanded_conv_1/expand/BatchNorm/moving_variance","shape":[96],"dtype":"float32"},{"name":"MobilenetV2/expanded_conv_1/depthwise/depthwise_weights","shape":[3,3,96,1],"dtype":"float32"},{"name":"MobilenetV2/expanded_conv_1/depthwise/BatchNorm/gamma","shape":[96],"dtype":"float32"},{"name":"MobilenetV2/expanded_conv_1/depthwise/BatchNorm/beta","shape":[96],"dtype":"float32"},{"name":"MobilenetV2/expanded_conv_1/depthwise/BatchNorm/moving_mean","shape":[96],"dtype":"float32"},{"name":"MobilenetV2/expanded_conv_1/depthwise/BatchNorm/moving_variance","shape":[96],"dtype":"float32"},{"name":"MobilenetV2/expanded_conv_1/project/weights","shape":[1,1,96,24],"dtype":"float32"},{"name":"MobilenetV2/expanded_conv_1/project/BatchNorm/gamma","shape":[24],"dtype":"float32"},{"name":"MobilenetV2/expanded_conv_1/project/BatchNorm/beta","shape":[24],"dtype":"float32"},{"name":"MobilenetV2/expanded_conv_1/project/BatchNorm/moving_mean","shape":[24],"dtype":"float32"},{"name":"MobilenetV2/expanded_conv_1/project/BatchNorm/moving_variance","shape":[24],"dtype":"float32"},{"name":"MobilenetV2/expanded_conv_2/expand/weights","shape":[1,1,24,144],"dtype":"float32"},{"name":"MobilenetV2/expanded_conv_2/expand/BatchNorm/gamma","shape":[144],"dtype":"float32"},{"name":"MobilenetV2/expanded_conv_2/expand/BatchNorm/beta","shape":[144],"dtype":"float32"},{"name":"MobilenetV2/expanded_conv_2/expand/BatchNorm/moving_mean","shape":[144],"dtype":"float32"},{"name":"MobilenetV2/expanded_conv_2/expand/BatchNorm/moving_variance","shape":[144],"dtype":"float32"},{"name":"MobilenetV2/expanded_conv_2/depthwise/depthwise_weights","shape":[3,3,144,1],"dtype":"float32"},{"name":"MobilenetV2/expanded_conv_2/depthwise/BatchNorm/gamma","shape":[144],"dtype":"float32"},{"name":"MobilenetV2/expanded_conv_2/depthwise/BatchNorm/beta","shape":[144],"dtype":"float32"},{"name":"MobilenetV2/expanded_conv_2/depthwise/BatchNorm/moving_mean","shape":[144],"dtype":"float32"},{"name":"MobilenetV2/expanded_conv_2/depthwise/BatchNorm/moving_variance","shape":[144],"dtype":"float32"},{"name":"MobilenetV2/expanded_conv_2/project/weights","shape":[1,1,144,24],"dtype":"float32"},{"name":"MobilenetV2/expanded_conv_2/project/BatchNorm/gamma","shape":[24],"dtype":"float32"},{"name":"MobilenetV2/expanded_conv_2/project/BatchNorm/beta","shape":[24],"dtype":"float32"},{"name":"MobilenetV2/expanded_conv_2/project/BatchNorm/moving_mean","shape":[24],"dtype":"float32"},{"name":"MobilenetV2/expanded_conv_2/project/BatchNorm/moving_variance","shape":[24],"dtype":"float32"},{"name":"MobilenetV2/expanded_conv_3/expand/weights","shape":[1,1,24,144],"dtype":"float32"},{"name":"MobilenetV2/expanded_conv_3/expand/BatchNorm/gamma","shape":[144],"dtype":"float32"},{"name":"MobilenetV2/expanded_conv_3/expand/BatchNorm/beta","shape":[144],"dtype":"float32"},{"name":"MobilenetV2/expanded_conv_3/expand/BatchNorm/moving_mean","shape":[144],"dtype":"float32"},{"name":"MobilenetV2/expanded_conv_3/expand/BatchNorm/moving_variance","shape":[144],"dtype":"float32"},{"name":"MobilenetV2/expanded_conv_3/depthwise/depthwise_weights","shape":[3,3,144,1],"dtype":"float32"},{"name":"MobilenetV2/expanded_conv_3/depthwise/BatchNorm/gamma","shape":[144],"dtype":"float32"},{"name":"MobilenetV2/expanded_conv_3/depthwise/BatchNorm/beta","shape":[144],"dtype":"float32"},{"name":"MobilenetV2/expanded_conv_3/depthwise/BatchNorm/moving_mean","shape":[144],"dtype":"float32"},{"name":"MobilenetV2/expanded_conv_3/depthwise/BatchNorm/moving_variance","shape":[144],"dtype":"float32"},{"name":"MobilenetV2/expanded_conv_3/project/weights","shape":[1,1,144,32],"dtype":"float32"},{"name":"MobilenetV2/expanded_conv_3/project/BatchNorm/gamma","shape":[32],"dtype":"float32"},{"name":"MobilenetV2/expanded_conv_3/project/BatchNorm/beta","shape":[32],"dtype":"float32"},{"name":"MobilenetV2/expanded_conv_3/project/BatchNorm/moving_mean","shape":[32],"dtype":"float32"},{"name":"MobilenetV2/expanded_conv_3/project/BatchNorm/moving_variance","shape":[32],"dtype":"float32"},{"name":"MobilenetV2/expanded_conv_4/expand/weights","shape":[1,1,32,192],"dtype":"float32"},{"name":"MobilenetV2/expanded_conv_4/expand/BatchNorm/gamma","shape":[192],"dtype":"float32"},{"name":"MobilenetV2/expanded_conv_4/expand/BatchNorm/beta","shape":[192],"dtype":"float32"},{"name":"MobilenetV2/expanded_conv_4/expand/BatchNorm/moving_mean","shape":[192],"dtype":"float32"},{"name":"MobilenetV2/expanded_conv_4/expand/BatchNorm/moving_variance","shape":[192],"dtype":"float32"},{"name":"MobilenetV2/expanded_conv_4/depthwise/depthwise_weights","shape":[3,3,192,1],"dtype":"float32"},{"name":"MobilenetV2/expanded_conv_4/depthwise/BatchNorm/gamma","shape":[192],"dtype":"float32"},{"name":"MobilenetV2/expanded_conv_4/depthwise/BatchNorm/beta","shape":[192],"dtype":"float32"},{"name":"MobilenetV2/expanded_conv_4/depthwise/BatchNorm/moving_mean","shape":[192],"dtype":"float32"},{"name":"MobilenetV2/expanded_conv_4/depthwise/BatchNorm/moving_variance","shape":[192],"dtype":"float32"},{"name":"MobilenetV2/expanded_conv_4/project/weights","shape":[1,1,192,32],"dtype":"float32"},{"name":"MobilenetV2/expanded_conv_4/project/BatchNorm/gamma","shape":[32],"dtype":"float32"},{"name":"MobilenetV2/expanded_conv_4/project/BatchNorm/beta","shape":[32],"dtype":"float32"},{"name":"MobilenetV2/expanded_conv_4/project/BatchNorm/moving_mean","shape":[32],"dtype":"float32"},{"name":"MobilenetV2/expanded_conv_4/project/BatchNorm/moving_variance","shape":[32],"dtype":"float32"},{"name":"MobilenetV2/expanded_conv_5/expand/weights","shape":[1,1,32,192],"dtype":"float32"},{"name":"MobilenetV2/expanded_conv_5/expand/BatchNorm/gamma","shape":[192],"dtype":"float32"},{"name":"MobilenetV2/expanded_conv_5/expand/BatchNorm/beta","shape":[192],"dtype":"float32"},{"name":"MobilenetV2/expanded_conv_5/expand/BatchNorm/moving_mean","shape":[192],"dtype":"float32"},{"name":"MobilenetV2/expanded_conv_5/expand/BatchNorm/moving_variance","shape":[192],"dtype":"float32"},{"name":"MobilenetV2/expanded_conv_5/depthwise/depthwise_weights","shape":[3,3,192,1],"dtype":"float32"},{"name":"MobilenetV2/expanded_conv_5/depthwise/BatchNorm/gamma","shape":[192],"dtype":"float32"},{"name":"MobilenetV2/expanded_conv_5/depthwise/BatchNorm/beta","shape":[192],"dtype":"float32"},{"name":"MobilenetV2/expanded_conv_5/depthwise/BatchNorm/moving_mean","shape":[192],"dtype":"float32"},{"name":"MobilenetV2/expanded_conv_5/depthwise/BatchNorm/moving_variance","shape":[192],"dtype":"float32"},{"name":"MobilenetV2/expanded_conv_5/project/weights","shape":[1,1,192,32],"dtype":"float32"},{"name":"MobilenetV2/expanded_conv_5/project/BatchNorm/gamma","shape":[32],"dtype":"float32"},{"name":"MobilenetV2/expanded_conv_5/project/BatchNorm/beta","shape":[32],"dtype":"float32"},{"name":"MobilenetV2/expanded_conv_5/project/BatchNorm/moving_mean","shape":[32],"dtype":"float32"},{"name":"MobilenetV2/expanded_conv_5/project/BatchNorm/moving_variance","shape":[32],"dtype":"float32"},{"name":"MobilenetV2/expanded_conv_6/expand/weights","shape":[1,1,32,192],"dtype":"float32"},{"name":"MobilenetV2/expanded_conv_6/expand/BatchNorm/gamma","shape":[192],"dtype":"float32"},{"name":"MobilenetV2/expanded_conv_6/expand/BatchNorm/beta","shape":[192],"dtype":"float32"},{"name":"MobilenetV2/expanded_conv_6/expand/BatchNorm/moving_mean","shape":[192],"dtype":"float32"},{"name":"MobilenetV2/expanded_conv_6/expand/BatchNorm/moving_variance","shape":[192],"dtype":"float32"},{"name":"MobilenetV2/expanded_conv_6/depthwise/depthwise_weights","shape":[3,3,192,1],"dtype":"float32"},{"name":"MobilenetV2/expanded_conv_6/depthwise/BatchNorm/gamma","shape":[192],"dtype":"float32"},{"name":"MobilenetV2/expanded_conv_6/depthwise/BatchNorm/beta","shape":[192],"dtype":"float32"},{"name":"MobilenetV2/expanded_conv_6/depthwise/BatchNorm/moving_mean","shape":[192],"dtype":"float32"},{"name":"MobilenetV2/expanded_conv_6/depthwise/BatchNorm/moving_variance","shape":[192],"dtype":"float32"},{"name":"MobilenetV2/expanded_conv_6/project/weights","shape":[1,1,192,64],"dtype":"float32"},{"name":"MobilenetV2/expanded_conv_6/project/BatchNorm/gamma","shape":[64],"dtype":"float32"},{"name":"MobilenetV2/expanded_conv_6/project/BatchNorm/beta","shape":[64],"dtype":"float32"},{"name":"MobilenetV2/expanded_conv_6/project/BatchNorm/moving_mean","shape":[64],"dtype":"float32"},{"name":"MobilenetV2/expanded_conv_6/project/BatchNorm/moving_variance","shape":[64],"dtype":"float32"},{"name":"MobilenetV2/expanded_conv_7/expand/weights","shape":[1,1,64,384],"dtype":"float32"},{"name":"MobilenetV2/expanded_conv_7/expand/BatchNorm/gamma","shape":[384],"dtype":"float32"},{"name":"MobilenetV2/expanded_conv_7/expand/BatchNorm/beta","shape":[384],"dtype":"float32"},{"name":"MobilenetV2/expanded_conv_7/expand/BatchNorm/moving_mean","shape":[384],"dtype":"float32"},{"name":"MobilenetV2/expanded_conv_7/expand/BatchNorm/moving_variance","shape":[384],"dtype":"float32"},{"name":"MobilenetV2/expanded_conv_7/depthwise/depthwise_weights","shape":[3,3,384,1],"dtype":"float32"},{"name":"MobilenetV2/expanded_conv_7/depthwise/BatchNorm/gamma","shape":[384],"dtype":"float32"},{"name":"MobilenetV2/expanded_conv_7/depthwise/BatchNorm/beta","shape":[384],"dtype":"float32"},{"name":"MobilenetV2/expanded_conv_7/depthwise/BatchNorm/moving_mean","shape":[384],"dtype":"float32"},{"name":"MobilenetV2/expanded_conv_7/depthwise/BatchNorm/moving_variance","shape":[384],"dtype":"float32"},{"name":"MobilenetV2/expanded_conv_7/project/weights","shape":[1,1,384,64],"dtype":"float32"},{"name":"MobilenetV2/expanded_conv_7/project/BatchNorm/gamma","shape":[64],"dtype":"float32"},{"name":"MobilenetV2/expanded_conv_7/project/BatchNorm/beta","shape":[64],"dtype":"float32"},{"name":"MobilenetV2/expanded_conv_7/project/BatchNorm/moving_mean","shape":[64],"dtype":"float32"},{"name":"MobilenetV2/expanded_conv_7/project/BatchNorm/moving_variance","shape":[64],"dtype":"float32"},{"name":"MobilenetV2/expanded_conv_8/expand/weights","shape":[1,1,64,384],"dtype":"float32"},{"name":"MobilenetV2/expanded_conv_8/expand/BatchNorm/gamma","shape":[384],"dtype":"float32"},{"name":"MobilenetV2/expanded_conv_8/expand/BatchNorm/beta","shape":[384],"dtype":"float32"},{"name":"MobilenetV2/expanded_conv_8/expand/BatchNorm/moving_mean","shape":[384],"dtype":"float32"},{"name":"MobilenetV2/expanded_conv_8/expand/BatchNorm/moving_variance","shape":[384],"dtype":"float32"},{"name":"MobilenetV2/expanded_conv_8/depthwise/depthwise_weights","shape":[3,3,384,1],"dtype":"float32"},{"name":"MobilenetV2/expanded_conv_8/depthwise/BatchNorm/gamma","shape":[384],"dtype":"float32"},{"name":"MobilenetV2/expanded_conv_8/depthwise/BatchNorm/beta","shape":[384],"dtype":"float32"},{"name":"MobilenetV2/expanded_conv_8/depthwise/BatchNorm/moving_mean","shape":[384],"dtype":"float32"},{"name":"MobilenetV2/expanded_conv_8/depthwise/BatchNorm/moving_variance","shape":[384],"dtype":"float32"},{"name":"MobilenetV2/expanded_conv_8/project/weights","shape":[1,1,384,64],"dtype":"float32"},{"name":"MobilenetV2/expanded_conv_8/project/BatchNorm/gamma","shape":[64],"dtype":"float32"},{"name":"MobilenetV2/expanded_conv_8/project/BatchNorm/beta","shape":[64],"dtype":"float32"},{"name":"MobilenetV2/expanded_conv_8/project/BatchNorm/moving_mean","shape":[64],"dtype":"float32"},{"name":"MobilenetV2/expanded_conv_8/project/BatchNorm/moving_variance","shape":[64],"dtype":"float32"},{"name":"MobilenetV2/expanded_conv_9/expand/weights","shape":[1,1,64,384],"dtype":"float32"},{"name":"MobilenetV2/expanded_conv_9/expand/BatchNorm/gamma","shape":[384],"dtype":"float32"},{"name":"MobilenetV2/expanded_conv_9/expand/BatchNorm/beta","shape":[384],"dtype":"float32"},{"name":"MobilenetV2/expanded_conv_9/expand/BatchNorm/moving_mean","shape":[384],"dtype":"float32"},{"name":"MobilenetV2/expanded_conv_9/expand/BatchNorm/moving_variance","shape":[384],"dtype":"float32"},{"name":"MobilenetV2/expanded_conv_9/depthwise/depthwise_weights","shape":[3,3,384,1],"dtype":"float32"},{"name":"MobilenetV2/expanded_conv_9/depthwise/BatchNorm/gamma","shape":[384],"dtype":"float32"},{"name":"MobilenetV2/expanded_conv_9/depthwise/BatchNorm/beta","shape":[384],"dtype":"float32"},{"name":"MobilenetV2/expanded_conv_9/depthwise/BatchNorm/moving_mean","shape":[384],"dtype":"float32"},{"name":"MobilenetV2/expanded_conv_9/depthwise/BatchNorm/moving_variance","shape":[384],"dtype":"float32"},{"name":"MobilenetV2/expanded_conv_9/project/weights","shape":[1,1,384,64],"dtype":"float32"},{"name":"MobilenetV2/expanded_conv_9/project/BatchNorm/gamma","shape":[64],"dtype":"float32"},{"name":"MobilenetV2/expanded_conv_9/project/BatchNorm/beta","shape":[64],"dtype":"float32"},{"name":"MobilenetV2/expanded_conv_9/project/BatchNorm/moving_mean","shape":[64],"dtype":"float32"},{"name":"MobilenetV2/expanded_conv_9/project/BatchNorm/moving_variance","shape":[64],"dtype":"float32"},{"name":"MobilenetV2/expanded_conv_10/expand/weights","shape":[1,1,64,384],"dtype":"float32"},{"name":"MobilenetV2/expanded_conv_10/expand/BatchNorm/gamma","shape":[384],"dtype":"float32"},{"name":"MobilenetV2/expanded_conv_10/expand/BatchNorm/beta","shape":[384],"dtype":"float32"},{"name":"MobilenetV2/expanded_conv_10/expand/BatchNorm/moving_mean","shape":[384],"dtype":"float32"},{"name":"MobilenetV2/expanded_conv_10/expand/BatchNorm/moving_variance","shape":[384],"dtype":"float32"},{"name":"MobilenetV2/expanded_conv_10/depthwise/depthwise_weights","shape":[3,3,384,1],"dtype":"float32"},{"name":"MobilenetV2/expanded_conv_10/depthwise/BatchNorm/gamma","shape":[384],"dtype":"float32"},{"name":"MobilenetV2/expanded_conv_10/depthwise/BatchNorm/beta","shape":[384],"dtype":"float32"},{"name":"MobilenetV2/expanded_conv_10/depthwise/BatchNorm/moving_mean","shape":[384],"dtype":"float32"},{"name":"MobilenetV2/expanded_conv_10/depthwise/BatchNorm/moving_variance","shape":[384],"dtype":"float32"},{"name":"MobilenetV2/expanded_conv_10/project/weights","shape":[1,1,384,96],"dtype":"float32"},{"name":"MobilenetV2/expanded_conv_10/project/BatchNorm/gamma","shape":[96],"dtype":"float32"},{"name":"MobilenetV2/expanded_conv_10/project/BatchNorm/beta","shape":[96],"dtype":"float32"},{"name":"MobilenetV2/expanded_conv_10/project/BatchNorm/moving_mean","shape":[96],"dtype":"float32"},{"name":"MobilenetV2/expanded_conv_10/project/BatchNorm/moving_variance","shape":[96],"dtype":"float32"},{"name":"MobilenetV2/expanded_conv_11/expand/weights","shape":[1,1,96,576],"dtype":"float32"},{"name":"MobilenetV2/expanded_conv_11/expand/BatchNorm/gamma","shape":[576],"dtype":"float32"},{"name":"MobilenetV2/expanded_conv_11/expand/BatchNorm/beta","shape":[576],"dtype":"float32"},{"name":"MobilenetV2/expanded_conv_11/expand/BatchNorm/moving_mean","shape":[576],"dtype":"float32"},{"name":"MobilenetV2/expanded_conv_11/expand/BatchNorm/moving_variance","shape":[576],"dtype":"float32"},{"name":"MobilenetV2/expanded_conv_11/depthwise/depthwise_weights","shape":[3,3,576,1],"dtype":"float32"},{"name":"MobilenetV2/expanded_conv_11/depthwise/BatchNorm/gamma","shape":[576],"dtype":"float32"},{"name":"MobilenetV2/expanded_conv_11/depthwise/BatchNorm/beta","shape":[576],"dtype":"float32"},{"name":"MobilenetV2/expanded_conv_11/depthwise/BatchNorm/moving_mean","shape":[576],"dtype":"float32"},{"name":"MobilenetV2/expanded_conv_11/depthwise/BatchNorm/moving_variance","shape":[576],"dtype":"float32"},{"name":"MobilenetV2/expanded_conv_11/project/weights","shape":[1,1,576,96],"dtype":"float32"},{"name":"MobilenetV2/expanded_conv_11/project/BatchNorm/gamma","shape":[96],"dtype":"float32"},{"name":"MobilenetV2/expanded_conv_11/project/BatchNorm/beta","shape":[96],"dtype":"float32"},{"name":"MobilenetV2/expanded_conv_11/project/BatchNorm/moving_mean","shape":[96],"dtype":"float32"},{"name":"MobilenetV2/expanded_conv_11/project/BatchNorm/moving_variance","shape":[96],"dtype":"float32"},{"name":"MobilenetV2/expanded_conv_12/expand/weights","shape":[1,1,96,576],"dtype":"float32"},{"name":"MobilenetV2/expanded_conv_12/expand/BatchNorm/gamma","shape":[576],"dtype":"float32"},{"name":"MobilenetV2/expanded_conv_12/expand/BatchNorm/beta","shape":[576],"dtype":"float32"},{"name":"MobilenetV2/expanded_conv_12/expand/BatchNorm/moving_mean","shape":[576],"dtype":"float32"},{"name":"MobilenetV2/expanded_conv_12/expand/BatchNorm/moving_variance","shape":[576],"dtype":"float32"},{"name":"MobilenetV2/expanded_conv_12/depthwise/depthwise_weights","shape":[3,3,576,1],"dtype":"float32"},{"name":"MobilenetV2/expanded_conv_12/depthwise/BatchNorm/gamma","shape":[576],"dtype":"float32"},{"name":"MobilenetV2/expanded_conv_12/depthwise/BatchNorm/beta","shape":[576],"dtype":"float32"},{"name":"MobilenetV2/expanded_conv_12/depthwise/BatchNorm/moving_mean","shape":[576],"dtype":"float32"},{"name":"MobilenetV2/expanded_conv_12/depthwise/BatchNorm/moving_variance","shape":[576],"dtype":"float32"},{"name":"MobilenetV2/expanded_conv_12/project/weights","shape":[1,1,576,96],"dtype":"float32"},{"name":"MobilenetV2/expanded_conv_12/project/BatchNorm/gamma","shape":[96],"dtype":"float32"},{"name":"MobilenetV2/expanded_conv_12/project/BatchNorm/beta","shape":[96],"dtype":"float32"},{"name":"MobilenetV2/expanded_conv_12/project/BatchNorm/moving_mean","shape":[96],"dtype":"float32"},{"name":"MobilenetV2/expanded_conv_12/project/BatchNorm/moving_variance","shape":[96],"dtype":"float32"},{"name":"MobilenetV2/expanded_conv_13/expand/weights","shape":[1,1,96,576],"dtype":"float32"},{"name":"MobilenetV2/expanded_conv_13/expand/BatchNorm/gamma","shape":[576],"dtype":"float32"},{"name":"MobilenetV2/expanded_conv_13/expand/BatchNorm/beta","shape":[576],"dtype":"float32"},{"name":"MobilenetV2/expanded_conv_13/expand/BatchNorm/moving_mean","shape":[576],"dtype":"float32"},{"name":"MobilenetV2/expanded_conv_13/expand/BatchNorm/moving_variance","shape":[576],"dtype":"float32"},{"name":"MobilenetV2/expanded_conv_7/depthwise/depthwise/SpaceToBatchND/paddings","shape":[2,2],"dtype":"int32"},{"name":"MobilenetV2/expanded_conv_13/depthwise/depthwise_weights","shape":[3,3,576,1],"dtype":"float32"},{"name":"MobilenetV2/expanded_conv_7/depthwise/depthwise/SpaceToBatchND/block_shape","shape":[2],"dtype":"int32"},{"name":"MobilenetV2/expanded_conv_7/depthwise/depthwise/BatchToSpaceND/crops","shape":[2,2],"dtype":"int32"},{"name":"MobilenetV2/expanded_conv_13/depthwise/BatchNorm/gamma","shape":[576],"dtype":"float32"},{"name":"MobilenetV2/expanded_conv_13/depthwise/BatchNorm/beta","shape":[576],"dtype":"float32"},{"name":"MobilenetV2/expanded_conv_13/depthwise/BatchNorm/moving_mean","shape":[576],"dtype":"float32"},{"name":"MobilenetV2/expanded_conv_13/depthwise/BatchNorm/moving_variance","shape":[576],"dtype":"float32"},{"name":"MobilenetV2/expanded_conv_13/project/weights","shape":[1,1,576,160],"dtype":"float32"},{"name":"MobilenetV2/expanded_conv_13/project/BatchNorm/gamma","shape":[160],"dtype":"float32"},{"name":"MobilenetV2/expanded_conv_13/project/BatchNorm/beta","shape":[160],"dtype":"float32"},{"name":"MobilenetV2/expanded_conv_13/project/BatchNorm/moving_mean","shape":[160],"dtype":"float32"},{"name":"MobilenetV2/expanded_conv_13/project/BatchNorm/moving_variance","shape":[160],"dtype":"float32"},{"name":"MobilenetV2/expanded_conv_14/expand/weights","shape":[1,1,160,960],"dtype":"float32"},{"name":"MobilenetV2/expanded_conv_14/expand/BatchNorm/gamma","shape":[960],"dtype":"float32"},{"name":"MobilenetV2/expanded_conv_14/expand/BatchNorm/beta","shape":[960],"dtype":"float32"},{"name":"MobilenetV2/expanded_conv_14/expand/BatchNorm/moving_mean","shape":[960],"dtype":"float32"},{"name":"MobilenetV2/expanded_conv_14/expand/BatchNorm/moving_variance","shape":[960],"dtype":"float32"},{"name":"MobilenetV2/expanded_conv_14/depthwise/depthwise_weights","shape":[3,3,960,1],"dtype":"float32"},{"name":"MobilenetV2/expanded_conv_14/depthwise/BatchNorm/gamma","shape":[960],"dtype":"float32"},{"name":"MobilenetV2/expanded_conv_14/depthwise/BatchNorm/beta","shape":[960],"dtype":"float32"},{"name":"MobilenetV2/expanded_conv_14/depthwise/BatchNorm/moving_mean","shape":[960],"dtype":"float32"},{"name":"MobilenetV2/expanded_conv_14/depthwise/BatchNorm/moving_variance","shape":[960],"dtype":"float32"},{"name":"MobilenetV2/expanded_conv_14/project/weights","shape":[1,1,960,160],"dtype":"float32"},{"name":"MobilenetV2/expanded_conv_14/project/BatchNorm/gamma","shape":[160],"dtype":"float32"},{"name":"MobilenetV2/expanded_conv_14/project/BatchNorm/beta","shape":[160],"dtype":"float32"},{"name":"MobilenetV2/expanded_conv_14/project/BatchNorm/moving_mean","shape":[160],"dtype":"float32"},{"name":"MobilenetV2/expanded_conv_14/project/BatchNorm/moving_variance","shape":[160],"dtype":"float32"},{"name":"MobilenetV2/expanded_conv_15/expand/weights","shape":[1,1,160,960],"dtype":"float32"},{"name":"MobilenetV2/expanded_conv_15/expand/BatchNorm/gamma","shape":[960],"dtype":"float32"},{"name":"MobilenetV2/expanded_conv_15/expand/BatchNorm/beta","shape":[960],"dtype":"float32"},{"name":"MobilenetV2/expanded_conv_15/expand/BatchNorm/moving_mean","shape":[960],"dtype":"float32"},{"name":"MobilenetV2/expanded_conv_15/expand/BatchNorm/moving_variance","shape":[960],"dtype":"float32"},{"name":"MobilenetV2/expanded_conv_15/depthwise/depthwise_weights","shape":[3,3,960,1],"dtype":"float32"},{"name":"MobilenetV2/expanded_conv_15/depthwise/BatchNorm/gamma","shape":[960],"dtype":"float32"},{"name":"MobilenetV2/expanded_conv_15/depthwise/BatchNorm/beta","shape":[960],"dtype":"float32"},{"name":"MobilenetV2/expanded_conv_15/depthwise/BatchNorm/moving_mean","shape":[960],"dtype":"float32"},{"name":"MobilenetV2/expanded_conv_15/depthwise/BatchNorm/moving_variance","shape":[960],"dtype":"float32"},{"name":"MobilenetV2/expanded_conv_15/project/weights","shape":[1,1,960,160],"dtype":"float32"},{"name":"MobilenetV2/expanded_conv_15/project/BatchNorm/gamma","shape":[160],"dtype":"float32"},{"name":"MobilenetV2/expanded_conv_15/project/BatchNorm/beta","shape":[160],"dtype":"float32"},{"name":"MobilenetV2/expanded_conv_15/project/BatchNorm/moving_mean","shape":[160],"dtype":"float32"},{"name":"MobilenetV2/expanded_conv_15/project/BatchNorm/moving_variance","shape":[160],"dtype":"float32"},{"name":"MobilenetV2/expanded_conv_16/expand/weights","shape":[1,1,160,960],"dtype":"float32"},{"name":"MobilenetV2/expanded_conv_16/expand/BatchNorm/gamma","shape":[960],"dtype":"float32"},{"name":"MobilenetV2/expanded_conv_16/expand/BatchNorm/beta","shape":[960],"dtype":"float32"},{"name":"MobilenetV2/expanded_conv_16/expand/BatchNorm/moving_mean","shape":[960],"dtype":"float32"},{"name":"MobilenetV2/expanded_conv_16/expand/BatchNorm/moving_variance","shape":[960],"dtype":"float32"},{"name":"MobilenetV2/expanded_conv_14/depthwise/depthwise/SpaceToBatchND/paddings","shape":[2,2],"dtype":"int32"},{"name":"MobilenetV2/expanded_conv_16/depthwise/depthwise_weights","shape":[3,3,960,1],"dtype":"float32"},{"name":"MobilenetV2/expanded_conv_14/depthwise/depthwise/SpaceToBatchND/block_shape","shape":[2],"dtype":"int32"},{"name":"MobilenetV2/expanded_conv_14/depthwise/depthwise/BatchToSpaceND/crops","shape":[2,2],"dtype":"int32"},{"name":"MobilenetV2/expanded_conv_16/depthwise/BatchNorm/gamma","shape":[960],"dtype":"float32"},{"name":"MobilenetV2/expanded_conv_16/depthwise/BatchNorm/beta","shape":[960],"dtype":"float32"},{"name":"MobilenetV2/expanded_conv_16/depthwise/BatchNorm/moving_mean","shape":[960],"dtype":"float32"},{"name":"MobilenetV2/expanded_conv_16/depthwise/BatchNorm/moving_variance","shape":[960],"dtype":"float32"},{"name":"MobilenetV2/expanded_conv_16/project/weights","shape":[1,1,960,320],"dtype":"float32"},{"name":"MobilenetV2/expanded_conv_16/project/BatchNorm/gamma","shape":[320],"dtype":"float32"},{"name":"MobilenetV2/expanded_conv_16/project/BatchNorm/beta","shape":[320],"dtype":"float32"},{"name":"MobilenetV2/expanded_conv_16/project/BatchNorm/moving_mean","shape":[320],"dtype":"float32"},{"name":"MobilenetV2/expanded_conv_16/project/BatchNorm/moving_variance","shape":[320],"dtype":"float32"},{"name":"aspp0/weights","shape":[1,1,320,256],"dtype":"float32"},{"name":"aspp0/BatchNorm/gamma","shape":[256],"dtype":"float32"},{"name":"aspp0/BatchNorm/beta","shape":[256],"dtype":"float32"},{"name":"aspp0/BatchNorm/moving_mean","shape":[256],"dtype":"float32"},{"name":"aspp0/BatchNorm/moving_variance","shape":[256],"dtype":"float32"},{"name":"concat_projection/weights","shape":[1,1,512,256],"dtype":"float32"},{"name":"concat_projection/BatchNorm/gamma","shape":[256],"dtype":"float32"},{"name":"concat_projection/BatchNorm/beta","shape":[256],"dtype":"float32"},{"name":"concat_projection/BatchNorm/moving_mean","shape":[256],"dtype":"float32"},{"name":"concat_projection/BatchNorm/moving_variance","shape":[256],"dtype":"float32"},{"name":"logits/semantic/weights","shape":[1,1,256,21],"dtype":"float32"},{"name":"logits/semantic/biases","shape":[21],"dtype":"float32"},{"name":"ResizeBilinear_1/size","shape":[2],"dtype":"int32"},{"name":"strided_slice_7","shape":[2],"dtype":"int32"},{"name":"Assert/Assert/data_1","shape":[],"dtype":"int32"},{"name":"SemanticPredictions/begin","shape":[3],"dtype":"int32"},{"name":"SemanticPredictions/size/0","shape":[],"dtype":"int32"},{"name":"strided_slice_3/stack","shape":[1],"dtype":"int32"},{"name":"strided_slice/stack_1","shape":[1],"dtype":"int32"},{"name":"strided_slice_4/stack_1","shape":[1],"dtype":"int32"},{"name":"strided_slice_4/stack","shape":[1],"dtype":"int32"}]}]}