{"format": "graph-model", "generatedBy": null, "convertedBy": "TensorFlow.js Converter v1.0.0", "modelTopology": {"node": [{"name": "image_pooling/Conv2D/merged_input", "op": "Const", "attr": {"value": {"tensor": {"dtype": "DT_FLOAT", "tensorShape": {"dim": [{"size": "1"}, {"size": "1"}, {"size": "2048"}, {"size": "256"}]}}}, "dtype": {"type": "DT_FLOAT"}}}, {"name": "image_pooling/BatchNorm/FusedBatchNorm/Offset", "op": "Const", "attr": {"value": {"tensor": {"dtype": "DT_FLOAT", "tensorShape": {"dim": [{"size": "256"}]}}}, "dtype": {"type": "DT_FLOAT"}}}, {"name": "ResizeBilinear_1/size", "op": "Const", "attr": {"value": {"tensor": {"dtype": "DT_INT32", "tensorShape": {"dim": [{"size": "2"}]}}}, "dtype": {"type": "DT_INT32"}}}, {"name": "aspp0/Conv2D/merged_input", "op": "Const", "attr": {"value": {"tensor": {"dtype": "DT_FLOAT", "tensorShape": {"dim": [{"size": "1"}, {"size": "1"}, {"size": "2048"}, {"size": "256"}]}}}, "dtype": {"type": "DT_FLOAT"}}}, {"name": "aspp0/BatchNorm/FusedBatchNorm/Offset", "op": "Const", "attr": {"value": {"tensor": {"dtype": "DT_FLOAT", "tensorShape": {"dim": [{"size": "256"}]}}}, "dtype": {"type": "DT_FLOAT"}}}, {"name": "aspp1_depthwise/depthwise/SpaceToBatchND/paddings", "op": "Const", "attr": {"value": {"tensor": {"dtype": "DT_INT32", "tensorShape": {"dim": [{"size": "2"}, {"size": "2"}]}}}, "dtype": {"type": "DT_INT32"}}}, {"name": "aspp1_depthwise/depthwise_weights", "op": "Const", "attr": {"value": {"tensor": {"dtype": "DT_FLOAT", "tensorShape": {"dim": [{"size": "3"}, {"size": "3"}, {"size": "2048"}, {"size": "1"}]}}}, "dtype": {"type": "DT_FLOAT"}}}, {"name": "aspp1_depthwise/depthwise/SpaceToBatchND/block_shape", "op": "Const", "attr": {"value": {"tensor": {"dtype": "DT_INT32", "tensorShape": {"dim": [{"size": "2"}]}}}, "dtype": {"type": "DT_INT32"}}}, {"name": "aspp1_depthwise/BatchNorm/FusedBatchNorm/Scaled", "op": "Const", "attr": {"value": {"tensor": {"dtype": "DT_FLOAT", "tensorShape": {"dim": [{"size": "2048"}]}}}, "dtype": {"type": "DT_FLOAT"}}}, {"name": "aspp1_depthwise/BatchNorm/FusedBatchNorm/Offset", "op": "Const", "attr": {"value": {"tensor": {"dtype": "DT_FLOAT", "tensorShape": {"dim": [{"size": "2048"}]}}}, "dtype": {"type": "DT_FLOAT"}}}, {"name": "aspp1_pointwise/Conv2D/merged_input", "op": "Const", "attr": {"value": {"tensor": {"dtype": "DT_FLOAT", "tensorShape": {"dim": [{"size": "1"}, {"size": "1"}, {"size": "2048"}, {"size": "256"}]}}}, "dtype": {"type": "DT_FLOAT"}}}, {"name": "aspp1_pointwise/BatchNorm/FusedBatchNorm/Offset", "op": "Const", "attr": {"value": {"tensor": {"dtype": "DT_FLOAT", "tensorShape": {"dim": [{"size": "256"}]}}}, "dtype": {"type": "DT_FLOAT"}}}, {"name": "aspp2_depthwise/depthwise/SpaceToBatchND/paddings", "op": "Const", "attr": {"value": {"tensor": {"dtype": "DT_INT32", "tensorShape": {"dim": [{"size": "2"}, {"size": "2"}]}}}, "dtype": {"type": "DT_INT32"}}}, {"name": "aspp2_depthwise/depthwise_weights", "op": "Const", "attr": {"value": {"tensor": {"dtype": "DT_FLOAT", "tensorShape": {"dim": [{"size": "3"}, {"size": "3"}, {"size": "2048"}, {"size": "1"}]}}}, "dtype": {"type": "DT_FLOAT"}}}, {"name": "aspp2_depthwise/depthwise/SpaceToBatchND/block_shape", "op": "Const", "attr": {"value": {"tensor": {"dtype": "DT_INT32", "tensorShape": {"dim": [{"size": "2"}]}}}, "dtype": {"type": "DT_INT32"}}}, {"name": "aspp2_depthwise/BatchNorm/FusedBatchNorm/Scaled", "op": "Const", "attr": {"value": {"tensor": {"dtype": "DT_FLOAT", "tensorShape": {"dim": [{"size": "2048"}]}}}, "dtype": {"type": "DT_FLOAT"}}}, {"name": "aspp2_depthwise/BatchNorm/FusedBatchNorm/Offset", "op": "Const", "attr": {"value": {"tensor": {"dtype": "DT_FLOAT", "tensorShape": {"dim": [{"size": "2048"}]}}}, "dtype": {"type": "DT_FLOAT"}}}, {"name": "aspp2_pointwise/Conv2D/merged_input", "op": "Const", "attr": {"value": {"tensor": {"dtype": "DT_FLOAT", "tensorShape": {"dim": [{"size": "1"}, {"size": "1"}, {"size": "2048"}, {"size": "256"}]}}}, "dtype": {"type": "DT_FLOAT"}}}, {"name": "aspp2_pointwise/BatchNorm/FusedBatchNorm/Offset", "op": "Const", "attr": {"value": {"tensor": {"dtype": "DT_FLOAT", "tensorShape": {"dim": [{"size": "256"}]}}}, "dtype": {"type": "DT_FLOAT"}}}, {"name": "xception_65/exit_flow/block1/unit_1/xception_module/separable_conv1_depthwise/depthwise_weights", "op": "Const", "attr": {"value": {"tensor": {"dtype": "DT_FLOAT", "tensorShape": {"dim": [{"size": "3"}, {"size": "3"}, {"size": "728"}, {"size": "1"}]}}}, "dtype": {"type": "DT_FLOAT"}}}, {"name": "xception_65/exit_flow/block1/unit_1/xception_module/separable_conv1_depthwise/BatchNorm/FusedBatchNorm/Scaled", "op": "Const", "attr": {"value": {"tensor": {"dtype": "DT_FLOAT", "tensorShape": {"dim": [{"size": "728"}]}}}, "dtype": {"type": "DT_FLOAT"}}}, {"name": "xception_65/exit_flow/block1/unit_1/xception_module/separable_conv1_depthwise/BatchNorm/FusedBatchNorm/Offset", "op": "Const", "attr": {"value": {"tensor": {"dtype": "DT_FLOAT", "tensorShape": {"dim": [{"size": "728"}]}}}, "dtype": {"type": "DT_FLOAT"}}}, {"name": "xception_65/exit_flow/block1/unit_1/xception_module/separable_conv1_pointwise/Conv2D/merged_input", "op": "Const", "attr": {"value": {"tensor": {"dtype": "DT_FLOAT", "tensorShape": {"dim": [{"size": "1"}, {"size": "1"}, {"size": "728"}, {"size": "728"}]}}}, "dtype": {"type": "DT_FLOAT"}}}, {"name": "xception_65/exit_flow/block1/unit_1/xception_module/separable_conv1_pointwise/BatchNorm/FusedBatchNorm/Offset", "op": "Const", "attr": {"value": {"tensor": {"dtype": "DT_FLOAT", "tensorShape": {"dim": [{"size": "728"}]}}}, "dtype": {"type": "DT_FLOAT"}}}, {"name": "xception_65/exit_flow/block1/unit_1/xception_module/separable_conv2_depthwise/depthwise_weights", "op": "Const", "attr": {"value": {"tensor": {"dtype": "DT_FLOAT", "tensorShape": {"dim": [{"size": "3"}, {"size": "3"}, {"size": "728"}, {"size": "1"}]}}}, "dtype": {"type": "DT_FLOAT"}}}, {"name": "xception_65/exit_flow/block1/unit_1/xception_module/separable_conv2_depthwise/BatchNorm/FusedBatchNorm/Scaled", "op": "Const", "attr": {"dtype": {"type": "DT_FLOAT"}, "value": {"tensor": {"dtype": "DT_FLOAT", "tensorShape": {"dim": [{"size": "728"}]}}}}}, {"name": "xception_65/exit_flow/block1/unit_1/xception_module/separable_conv2_depthwise/BatchNorm/FusedBatchNorm/Offset", "op": "Const", "attr": {"value": {"tensor": {"dtype": "DT_FLOAT", "tensorShape": {"dim": [{"size": "728"}]}}}, "dtype": {"type": "DT_FLOAT"}}}, {"name": "xception_65/exit_flow/block1/unit_1/xception_module/separable_conv2_pointwise/Conv2D/merged_input", "op": "Const", "attr": {"value": {"tensor": {"dtype": "DT_FLOAT", "tensorShape": {"dim": [{"size": "1"}, {"size": "1"}, {"size": "728"}, {"size": "1024"}]}}}, "dtype": {"type": "DT_FLOAT"}}}, {"name": "xception_65/exit_flow/block1/unit_1/xception_module/separable_conv2_pointwise/BatchNorm/FusedBatchNorm/Offset", "op": "Const", "attr": {"value": {"tensor": {"dtype": "DT_FLOAT", "tensorShape": {"dim": [{"size": "1024"}]}}}, "dtype": {"type": "DT_FLOAT"}}}, {"name": "xception_65/exit_flow/block1/unit_1/xception_module/separable_conv3_depthwise/depthwise_weights", "op": "Const", "attr": {"dtype": {"type": "DT_FLOAT"}, "value": {"tensor": {"dtype": "DT_FLOAT", "tensorShape": {"dim": [{"size": "3"}, {"size": "3"}, {"size": "1024"}, {"size": "1"}]}}}}}, {"name": "xception_65/exit_flow/block1/unit_1/xception_module/separable_conv3_depthwise/BatchNorm/FusedBatchNorm/Scaled", "op": "Const", "attr": {"dtype": {"type": "DT_FLOAT"}, "value": {"tensor": {"dtype": "DT_FLOAT", "tensorShape": {"dim": [{"size": "1024"}]}}}}}, {"name": "xception_65/exit_flow/block1/unit_1/xception_module/separable_conv3_depthwise/BatchNorm/FusedBatchNorm/Offset", "op": "Const", "attr": {"value": {"tensor": {"dtype": "DT_FLOAT", "tensorShape": {"dim": [{"size": "1024"}]}}}, "dtype": {"type": "DT_FLOAT"}}}, {"name": "xception_65/exit_flow/block1/unit_1/xception_module/separable_conv3_pointwise/Conv2D/merged_input", "op": "Const", "attr": {"value": {"tensor": {"dtype": "DT_FLOAT", "tensorShape": {"dim": [{"size": "1"}, {"size": "1"}, {"size": "1024"}, {"size": "1024"}]}}}, "dtype": {"type": "DT_FLOAT"}}}, {"name": "xception_65/exit_flow/block1/unit_1/xception_module/separable_conv3_pointwise/BatchNorm/FusedBatchNorm/Offset", "op": "Const", "attr": {"value": {"tensor": {"dtype": "DT_FLOAT", "tensorShape": {"dim": [{"size": "1024"}]}}}, "dtype": {"type": "DT_FLOAT"}}}, {"name": "xception_65/middle_flow/block1/unit_16/xception_module/separable_conv1_depthwise/depthwise_weights", "op": "Const", "attr": {"value": {"tensor": {"dtype": "DT_FLOAT", "tensorShape": {"dim": [{"size": "3"}, {"size": "3"}, {"size": "728"}, {"size": "1"}]}}}, "dtype": {"type": "DT_FLOAT"}}}, {"name": "xception_65/middle_flow/block1/unit_16/xception_module/separable_conv1_depthwise/BatchNorm/FusedBatchNorm/Scaled", "op": "Const", "attr": {"value": {"tensor": {"dtype": "DT_FLOAT", "tensorShape": {"dim": [{"size": "728"}]}}}, "dtype": {"type": "DT_FLOAT"}}}, {"name": "xception_65/middle_flow/block1/unit_16/xception_module/separable_conv1_depthwise/BatchNorm/FusedBatchNorm/Offset", "op": "Const", "attr": {"dtype": {"type": "DT_FLOAT"}, "value": {"tensor": {"dtype": "DT_FLOAT", "tensorShape": {"dim": [{"size": "728"}]}}}}}, {"name": "xception_65/middle_flow/block1/unit_16/xception_module/separable_conv1_pointwise/Conv2D/merged_input", "op": "Const", "attr": {"value": {"tensor": {"dtype": "DT_FLOAT", "tensorShape": {"dim": [{"size": "1"}, {"size": "1"}, {"size": "728"}, {"size": "728"}]}}}, "dtype": {"type": "DT_FLOAT"}}}, {"name": "xception_65/middle_flow/block1/unit_16/xception_module/separable_conv1_pointwise/BatchNorm/FusedBatchNorm/Offset", "op": "Const", "attr": {"value": {"tensor": {"dtype": "DT_FLOAT", "tensorShape": {"dim": [{"size": "728"}]}}}, "dtype": {"type": "DT_FLOAT"}}}, {"name": "xception_65/middle_flow/block1/unit_16/xception_module/separable_conv2_depthwise/depthwise_weights", "op": "Const", "attr": {"value": {"tensor": {"dtype": "DT_FLOAT", "tensorShape": {"dim": [{"size": "3"}, {"size": "3"}, {"size": "728"}, {"size": "1"}]}}}, "dtype": {"type": "DT_FLOAT"}}}, {"name": "xception_65/middle_flow/block1/unit_16/xception_module/separable_conv2_depthwise/BatchNorm/FusedBatchNorm/Scaled", "op": "Const", "attr": {"value": {"tensor": {"dtype": "DT_FLOAT", "tensorShape": {"dim": [{"size": "728"}]}}}, "dtype": {"type": "DT_FLOAT"}}}, {"name": "xception_65/middle_flow/block1/unit_16/xception_module/separable_conv2_depthwise/BatchNorm/FusedBatchNorm/Offset", "op": "Const", "attr": {"dtype": {"type": "DT_FLOAT"}, "value": {"tensor": {"dtype": "DT_FLOAT", "tensorShape": {"dim": [{"size": "728"}]}}}}}, {"name": "xception_65/middle_flow/block1/unit_16/xception_module/separable_conv2_pointwise/Conv2D/merged_input", "op": "Const", "attr": {"value": {"tensor": {"dtype": "DT_FLOAT", "tensorShape": {"dim": [{"size": "1"}, {"size": "1"}, {"size": "728"}, {"size": "728"}]}}}, "dtype": {"type": "DT_FLOAT"}}}, {"name": "xception_65/middle_flow/block1/unit_16/xception_module/separable_conv2_pointwise/BatchNorm/FusedBatchNorm/Offset", "op": "Const", "attr": {"value": {"tensor": {"dtype": "DT_FLOAT", "tensorShape": {"dim": [{"size": "728"}]}}}, "dtype": {"type": "DT_FLOAT"}}}, {"name": "xception_65/middle_flow/block1/unit_16/xception_module/separable_conv3_depthwise/depthwise_weights", "op": "Const", "attr": {"value": {"tensor": {"dtype": "DT_FLOAT", "tensorShape": {"dim": [{"size": "3"}, {"size": "3"}, {"size": "728"}, {"size": "1"}]}}}, "dtype": {"type": "DT_FLOAT"}}}, {"name": "xception_65/middle_flow/block1/unit_16/xception_module/separable_conv3_depthwise/BatchNorm/FusedBatchNorm/Scaled", "op": "Const", "attr": {"dtype": {"type": "DT_FLOAT"}, "value": {"tensor": {"dtype": "DT_FLOAT", "tensorShape": {"dim": [{"size": "728"}]}}}}}, {"name": "xception_65/middle_flow/block1/unit_16/xception_module/separable_conv3_depthwise/BatchNorm/FusedBatchNorm/Offset", "op": "Const", "attr": {"value": {"tensor": {"dtype": "DT_FLOAT", "tensorShape": {"dim": [{"size": "728"}]}}}, "dtype": {"type": "DT_FLOAT"}}}, {"name": "xception_65/middle_flow/block1/unit_16/xception_module/separable_conv3_pointwise/Conv2D/merged_input", "op": "Const", "attr": {"value": {"tensor": {"dtype": "DT_FLOAT", "tensorShape": {"dim": [{"size": "1"}, {"size": "1"}, {"size": "728"}, {"size": "728"}]}}}, "dtype": {"type": "DT_FLOAT"}}}, {"name": "xception_65/middle_flow/block1/unit_16/xception_module/separable_conv3_pointwise/BatchNorm/FusedBatchNorm/Offset", "op": "Const", "attr": {"value": {"tensor": {"dtype": "DT_FLOAT", "tensorShape": {"dim": [{"size": "728"}]}}}, "dtype": {"type": "DT_FLOAT"}}}, {"name": "xception_65/middle_flow/block1/unit_15/xception_module/separable_conv1_depthwise/depthwise_weights", "op": "Const", "attr": {"value": {"tensor": {"dtype": "DT_FLOAT", "tensorShape": {"dim": [{"size": "3"}, {"size": "3"}, {"size": "728"}, {"size": "1"}]}}}, "dtype": {"type": "DT_FLOAT"}}}, {"name": "xception_65/middle_flow/block1/unit_15/xception_module/separable_conv1_depthwise/BatchNorm/FusedBatchNorm/Scaled", "op": "Const", "attr": {"value": {"tensor": {"dtype": "DT_FLOAT", "tensorShape": {"dim": [{"size": "728"}]}}}, "dtype": {"type": "DT_FLOAT"}}}, {"name": "xception_65/middle_flow/block1/unit_15/xception_module/separable_conv1_depthwise/BatchNorm/FusedBatchNorm/Offset", "op": "Const", "attr": {"value": {"tensor": {"dtype": "DT_FLOAT", "tensorShape": {"dim": [{"size": "728"}]}}}, "dtype": {"type": "DT_FLOAT"}}}, {"name": "xception_65/middle_flow/block1/unit_15/xception_module/separable_conv1_pointwise/Conv2D/merged_input", "op": "Const", "attr": {"value": {"tensor": {"dtype": "DT_FLOAT", "tensorShape": {"dim": [{"size": "1"}, {"size": "1"}, {"size": "728"}, {"size": "728"}]}}}, "dtype": {"type": "DT_FLOAT"}}}, {"name": "xception_65/middle_flow/block1/unit_15/xception_module/separable_conv1_pointwise/BatchNorm/FusedBatchNorm/Offset", "op": "Const", "attr": {"value": {"tensor": {"dtype": "DT_FLOAT", "tensorShape": {"dim": [{"size": "728"}]}}}, "dtype": {"type": "DT_FLOAT"}}}, {"name": "xception_65/middle_flow/block1/unit_15/xception_module/separable_conv2_depthwise/depthwise_weights", "op": "Const", "attr": {"value": {"tensor": {"dtype": "DT_FLOAT", "tensorShape": {"dim": [{"size": "3"}, {"size": "3"}, {"size": "728"}, {"size": "1"}]}}}, "dtype": {"type": "DT_FLOAT"}}}, {"name": "xception_65/middle_flow/block1/unit_15/xception_module/separable_conv2_depthwise/BatchNorm/FusedBatchNorm/Scaled", "op": "Const", "attr": {"value": {"tensor": {"dtype": "DT_FLOAT", "tensorShape": {"dim": [{"size": "728"}]}}}, "dtype": {"type": "DT_FLOAT"}}}, {"name": "xception_65/middle_flow/block1/unit_15/xception_module/separable_conv2_depthwise/BatchNorm/FusedBatchNorm/Offset", "op": "Const", "attr": {"value": {"tensor": {"dtype": "DT_FLOAT", "tensorShape": {"dim": [{"size": "728"}]}}}, "dtype": {"type": "DT_FLOAT"}}}, {"name": "xception_65/middle_flow/block1/unit_15/xception_module/separable_conv2_pointwise/Conv2D/merged_input", "op": "Const", "attr": {"value": {"tensor": {"dtype": "DT_FLOAT", "tensorShape": {"dim": [{"size": "1"}, {"size": "1"}, {"size": "728"}, {"size": "728"}]}}}, "dtype": {"type": "DT_FLOAT"}}}, {"name": "xception_65/middle_flow/block1/unit_15/xception_module/separable_conv2_pointwise/BatchNorm/FusedBatchNorm/Offset", "op": "Const", "attr": {"value": {"tensor": {"dtype": "DT_FLOAT", "tensorShape": {"dim": [{"size": "728"}]}}}, "dtype": {"type": "DT_FLOAT"}}}, {"name": "xception_65/middle_flow/block1/unit_15/xception_module/separable_conv3_depthwise/depthwise_weights", "op": "Const", "attr": {"value": {"tensor": {"dtype": "DT_FLOAT", "tensorShape": {"dim": [{"size": "3"}, {"size": "3"}, {"size": "728"}, {"size": "1"}]}}}, "dtype": {"type": "DT_FLOAT"}}}, {"name": "xception_65/middle_flow/block1/unit_15/xception_module/separable_conv3_depthwise/BatchNorm/FusedBatchNorm/Scaled", "op": "Const", "attr": {"value": {"tensor": {"dtype": "DT_FLOAT", "tensorShape": {"dim": [{"size": "728"}]}}}, "dtype": {"type": "DT_FLOAT"}}}, {"name": "xception_65/middle_flow/block1/unit_15/xception_module/separable_conv3_depthwise/BatchNorm/FusedBatchNorm/Offset", "op": "Const", "attr": {"value": {"tensor": {"dtype": "DT_FLOAT", "tensorShape": {"dim": [{"size": "728"}]}}}, "dtype": {"type": "DT_FLOAT"}}}, {"name": "xception_65/middle_flow/block1/unit_15/xception_module/separable_conv3_pointwise/Conv2D/merged_input", "op": "Const", "attr": {"value": {"tensor": {"dtype": "DT_FLOAT", "tensorShape": {"dim": [{"size": "1"}, {"size": "1"}, {"size": "728"}, {"size": "728"}]}}}, "dtype": {"type": "DT_FLOAT"}}}, {"name": "xception_65/middle_flow/block1/unit_15/xception_module/separable_conv3_pointwise/BatchNorm/FusedBatchNorm/Offset", "op": "Const", "attr": {"value": {"tensor": {"dtype": "DT_FLOAT", "tensorShape": {"dim": [{"size": "728"}]}}}, "dtype": {"type": "DT_FLOAT"}}}, {"name": "xception_65/middle_flow/block1/unit_14/xception_module/separable_conv1_depthwise/depthwise_weights", "op": "Const", "attr": {"value": {"tensor": {"dtype": "DT_FLOAT", "tensorShape": {"dim": [{"size": "3"}, {"size": "3"}, {"size": "728"}, {"size": "1"}]}}}, "dtype": {"type": "DT_FLOAT"}}}, {"name": "xception_65/middle_flow/block1/unit_14/xception_module/separable_conv1_depthwise/BatchNorm/FusedBatchNorm/Scaled", "op": "Const", "attr": {"value": {"tensor": {"dtype": "DT_FLOAT", "tensorShape": {"dim": [{"size": "728"}]}}}, "dtype": {"type": "DT_FLOAT"}}}, {"name": "xception_65/middle_flow/block1/unit_14/xception_module/separable_conv1_depthwise/BatchNorm/FusedBatchNorm/Offset", "op": "Const", "attr": {"value": {"tensor": {"dtype": "DT_FLOAT", "tensorShape": {"dim": [{"size": "728"}]}}}, "dtype": {"type": "DT_FLOAT"}}}, {"name": "xception_65/middle_flow/block1/unit_14/xception_module/separable_conv1_pointwise/Conv2D/merged_input", "op": "Const", "attr": {"value": {"tensor": {"dtype": "DT_FLOAT", "tensorShape": {"dim": [{"size": "1"}, {"size": "1"}, {"size": "728"}, {"size": "728"}]}}}, "dtype": {"type": "DT_FLOAT"}}}, {"name": "xception_65/middle_flow/block1/unit_14/xception_module/separable_conv1_pointwise/BatchNorm/FusedBatchNorm/Offset", "op": "Const", "attr": {"value": {"tensor": {"dtype": "DT_FLOAT", "tensorShape": {"dim": [{"size": "728"}]}}}, "dtype": {"type": "DT_FLOAT"}}}, {"name": "xception_65/middle_flow/block1/unit_14/xception_module/separable_conv2_depthwise/depthwise_weights", "op": "Const", "attr": {"value": {"tensor": {"dtype": "DT_FLOAT", "tensorShape": {"dim": [{"size": "3"}, {"size": "3"}, {"size": "728"}, {"size": "1"}]}}}, "dtype": {"type": "DT_FLOAT"}}}, {"name": "xception_65/middle_flow/block1/unit_14/xception_module/separable_conv2_depthwise/BatchNorm/FusedBatchNorm/Scaled", "op": "Const", "attr": {"value": {"tensor": {"dtype": "DT_FLOAT", "tensorShape": {"dim": [{"size": "728"}]}}}, "dtype": {"type": "DT_FLOAT"}}}, {"name": "xception_65/middle_flow/block1/unit_14/xception_module/separable_conv2_depthwise/BatchNorm/FusedBatchNorm/Offset", "op": "Const", "attr": {"value": {"tensor": {"dtype": "DT_FLOAT", "tensorShape": {"dim": [{"size": "728"}]}}}, "dtype": {"type": "DT_FLOAT"}}}, {"name": "xception_65/middle_flow/block1/unit_14/xception_module/separable_conv2_pointwise/Conv2D/merged_input", "op": "Const", "attr": {"dtype": {"type": "DT_FLOAT"}, "value": {"tensor": {"dtype": "DT_FLOAT", "tensorShape": {"dim": [{"size": "1"}, {"size": "1"}, {"size": "728"}, {"size": "728"}]}}}}}, {"name": "xception_65/middle_flow/block1/unit_14/xception_module/separable_conv2_pointwise/BatchNorm/FusedBatchNorm/Offset", "op": "Const", "attr": {"value": {"tensor": {"dtype": "DT_FLOAT", "tensorShape": {"dim": [{"size": "728"}]}}}, "dtype": {"type": "DT_FLOAT"}}}, {"name": "xception_65/middle_flow/block1/unit_14/xception_module/separable_conv3_depthwise/depthwise_weights", "op": "Const", "attr": {"value": {"tensor": {"dtype": "DT_FLOAT", "tensorShape": {"dim": [{"size": "3"}, {"size": "3"}, {"size": "728"}, {"size": "1"}]}}}, "dtype": {"type": "DT_FLOAT"}}}, {"name": "xception_65/middle_flow/block1/unit_14/xception_module/separable_conv3_depthwise/BatchNorm/FusedBatchNorm/Scaled", "op": "Const", "attr": {"value": {"tensor": {"dtype": "DT_FLOAT", "tensorShape": {"dim": [{"size": "728"}]}}}, "dtype": {"type": "DT_FLOAT"}}}, {"name": "xception_65/middle_flow/block1/unit_14/xception_module/separable_conv3_depthwise/BatchNorm/FusedBatchNorm/Offset", "op": "Const", "attr": {"value": {"tensor": {"dtype": "DT_FLOAT", "tensorShape": {"dim": [{"size": "728"}]}}}, "dtype": {"type": "DT_FLOAT"}}}, {"name": "xception_65/middle_flow/block1/unit_14/xception_module/separable_conv3_pointwise/Conv2D/merged_input", "op": "Const", "attr": {"dtype": {"type": "DT_FLOAT"}, "value": {"tensor": {"dtype": "DT_FLOAT", "tensorShape": {"dim": [{"size": "1"}, {"size": "1"}, {"size": "728"}, {"size": "728"}]}}}}}, {"name": "xception_65/middle_flow/block1/unit_14/xception_module/separable_conv3_pointwise/BatchNorm/FusedBatchNorm/Offset", "op": "Const", "attr": {"value": {"tensor": {"dtype": "DT_FLOAT", "tensorShape": {"dim": [{"size": "728"}]}}}, "dtype": {"type": "DT_FLOAT"}}}, {"name": "xception_65/middle_flow/block1/unit_13/xception_module/separable_conv1_depthwise/depthwise_weights", "op": "Const", "attr": {"value": {"tensor": {"dtype": "DT_FLOAT", "tensorShape": {"dim": [{"size": "3"}, {"size": "3"}, {"size": "728"}, {"size": "1"}]}}}, "dtype": {"type": "DT_FLOAT"}}}, {"name": "xception_65/middle_flow/block1/unit_13/xception_module/separable_conv1_depthwise/BatchNorm/FusedBatchNorm/Scaled", "op": "Const", "attr": {"value": {"tensor": {"dtype": "DT_FLOAT", "tensorShape": {"dim": [{"size": "728"}]}}}, "dtype": {"type": "DT_FLOAT"}}}, {"name": "xception_65/middle_flow/block1/unit_13/xception_module/separable_conv1_depthwise/BatchNorm/FusedBatchNorm/Offset", "op": "Const", "attr": {"value": {"tensor": {"dtype": "DT_FLOAT", "tensorShape": {"dim": [{"size": "728"}]}}}, "dtype": {"type": "DT_FLOAT"}}}, {"name": "xception_65/middle_flow/block1/unit_13/xception_module/separable_conv1_pointwise/Conv2D/merged_input", "op": "Const", "attr": {"value": {"tensor": {"dtype": "DT_FLOAT", "tensorShape": {"dim": [{"size": "1"}, {"size": "1"}, {"size": "728"}, {"size": "728"}]}}}, "dtype": {"type": "DT_FLOAT"}}}, {"name": "xception_65/middle_flow/block1/unit_13/xception_module/separable_conv1_pointwise/BatchNorm/FusedBatchNorm/Offset", "op": "Const", "attr": {"value": {"tensor": {"dtype": "DT_FLOAT", "tensorShape": {"dim": [{"size": "728"}]}}}, "dtype": {"type": "DT_FLOAT"}}}, {"name": "xception_65/middle_flow/block1/unit_13/xception_module/separable_conv2_depthwise/depthwise_weights", "op": "Const", "attr": {"value": {"tensor": {"dtype": "DT_FLOAT", "tensorShape": {"dim": [{"size": "3"}, {"size": "3"}, {"size": "728"}, {"size": "1"}]}}}, "dtype": {"type": "DT_FLOAT"}}}, {"name": "xception_65/middle_flow/block1/unit_13/xception_module/separable_conv2_depthwise/BatchNorm/FusedBatchNorm/Scaled", "op": "Const", "attr": {"value": {"tensor": {"dtype": "DT_FLOAT", "tensorShape": {"dim": [{"size": "728"}]}}}, "dtype": {"type": "DT_FLOAT"}}}, {"name": "xception_65/middle_flow/block1/unit_13/xception_module/separable_conv2_depthwise/BatchNorm/FusedBatchNorm/Offset", "op": "Const", "attr": {"value": {"tensor": {"dtype": "DT_FLOAT", "tensorShape": {"dim": [{"size": "728"}]}}}, "dtype": {"type": "DT_FLOAT"}}}, {"name": "xception_65/middle_flow/block1/unit_13/xception_module/separable_conv2_pointwise/Conv2D/merged_input", "op": "Const", "attr": {"value": {"tensor": {"dtype": "DT_FLOAT", "tensorShape": {"dim": [{"size": "1"}, {"size": "1"}, {"size": "728"}, {"size": "728"}]}}}, "dtype": {"type": "DT_FLOAT"}}}, {"name": "xception_65/middle_flow/block1/unit_13/xception_module/separable_conv2_pointwise/BatchNorm/FusedBatchNorm/Offset", "op": "Const", "attr": {"value": {"tensor": {"dtype": "DT_FLOAT", "tensorShape": {"dim": [{"size": "728"}]}}}, "dtype": {"type": "DT_FLOAT"}}}, {"name": "xception_65/middle_flow/block1/unit_13/xception_module/separable_conv3_depthwise/depthwise_weights", "op": "Const", "attr": {"value": {"tensor": {"dtype": "DT_FLOAT", "tensorShape": {"dim": [{"size": "3"}, {"size": "3"}, {"size": "728"}, {"size": "1"}]}}}, "dtype": {"type": "DT_FLOAT"}}}, {"name": "xception_65/middle_flow/block1/unit_13/xception_module/separable_conv3_depthwise/BatchNorm/FusedBatchNorm/Scaled", "op": "Const", "attr": {"value": {"tensor": {"dtype": "DT_FLOAT", "tensorShape": {"dim": [{"size": "728"}]}}}, "dtype": {"type": "DT_FLOAT"}}}, {"name": "xception_65/middle_flow/block1/unit_13/xception_module/separable_conv3_depthwise/BatchNorm/FusedBatchNorm/Offset", "op": "Const", "attr": {"dtype": {"type": "DT_FLOAT"}, "value": {"tensor": {"dtype": "DT_FLOAT", "tensorShape": {"dim": [{"size": "728"}]}}}}}, {"name": "xception_65/middle_flow/block1/unit_13/xception_module/separable_conv3_pointwise/Conv2D/merged_input", "op": "Const", "attr": {"value": {"tensor": {"dtype": "DT_FLOAT", "tensorShape": {"dim": [{"size": "1"}, {"size": "1"}, {"size": "728"}, {"size": "728"}]}}}, "dtype": {"type": "DT_FLOAT"}}}, {"name": "xception_65/middle_flow/block1/unit_13/xception_module/separable_conv3_pointwise/BatchNorm/FusedBatchNorm/Offset", "op": "Const", "attr": {"value": {"tensor": {"dtype": "DT_FLOAT", "tensorShape": {"dim": [{"size": "728"}]}}}, "dtype": {"type": "DT_FLOAT"}}}, {"name": "xception_65/middle_flow/block1/unit_12/xception_module/separable_conv1_depthwise/depthwise_weights", "op": "Const", "attr": {"value": {"tensor": {"dtype": "DT_FLOAT", "tensorShape": {"dim": [{"size": "3"}, {"size": "3"}, {"size": "728"}, {"size": "1"}]}}}, "dtype": {"type": "DT_FLOAT"}}}, {"name": "xception_65/middle_flow/block1/unit_12/xception_module/separable_conv1_depthwise/BatchNorm/FusedBatchNorm/Scaled", "op": "Const", "attr": {"value": {"tensor": {"dtype": "DT_FLOAT", "tensorShape": {"dim": [{"size": "728"}]}}}, "dtype": {"type": "DT_FLOAT"}}}, {"name": "xception_65/middle_flow/block1/unit_12/xception_module/separable_conv1_depthwise/BatchNorm/FusedBatchNorm/Offset", "op": "Const", "attr": {"dtype": {"type": "DT_FLOAT"}, "value": {"tensor": {"dtype": "DT_FLOAT", "tensorShape": {"dim": [{"size": "728"}]}}}}}, {"name": "xception_65/middle_flow/block1/unit_12/xception_module/separable_conv1_pointwise/Conv2D/merged_input", "op": "Const", "attr": {"dtype": {"type": "DT_FLOAT"}, "value": {"tensor": {"dtype": "DT_FLOAT", "tensorShape": {"dim": [{"size": "1"}, {"size": "1"}, {"size": "728"}, {"size": "728"}]}}}}}, {"name": "xception_65/middle_flow/block1/unit_12/xception_module/separable_conv1_pointwise/BatchNorm/FusedBatchNorm/Offset", "op": "Const", "attr": {"value": {"tensor": {"dtype": "DT_FLOAT", "tensorShape": {"dim": [{"size": "728"}]}}}, "dtype": {"type": "DT_FLOAT"}}}, {"name": "xception_65/middle_flow/block1/unit_12/xception_module/separable_conv2_depthwise/depthwise_weights", "op": "Const", "attr": {"value": {"tensor": {"dtype": "DT_FLOAT", "tensorShape": {"dim": [{"size": "3"}, {"size": "3"}, {"size": "728"}, {"size": "1"}]}}}, "dtype": {"type": "DT_FLOAT"}}}, {"name": "xception_65/middle_flow/block1/unit_12/xception_module/separable_conv2_depthwise/BatchNorm/FusedBatchNorm/Scaled", "op": "Const", "attr": {"value": {"tensor": {"dtype": "DT_FLOAT", "tensorShape": {"dim": [{"size": "728"}]}}}, "dtype": {"type": "DT_FLOAT"}}}, {"name": "xception_65/middle_flow/block1/unit_12/xception_module/separable_conv2_depthwise/BatchNorm/FusedBatchNorm/Offset", "op": "Const", "attr": {"value": {"tensor": {"dtype": "DT_FLOAT", "tensorShape": {"dim": [{"size": "728"}]}}}, "dtype": {"type": "DT_FLOAT"}}}, {"name": "xception_65/middle_flow/block1/unit_12/xception_module/separable_conv2_pointwise/Conv2D/merged_input", "op": "Const", "attr": {"value": {"tensor": {"dtype": "DT_FLOAT", "tensorShape": {"dim": [{"size": "1"}, {"size": "1"}, {"size": "728"}, {"size": "728"}]}}}, "dtype": {"type": "DT_FLOAT"}}}, {"name": "xception_65/middle_flow/block1/unit_12/xception_module/separable_conv2_pointwise/BatchNorm/FusedBatchNorm/Offset", "op": "Const", "attr": {"value": {"tensor": {"dtype": "DT_FLOAT", "tensorShape": {"dim": [{"size": "728"}]}}}, "dtype": {"type": "DT_FLOAT"}}}, {"name": "xception_65/middle_flow/block1/unit_12/xception_module/separable_conv3_depthwise/depthwise_weights", "op": "Const", "attr": {"value": {"tensor": {"dtype": "DT_FLOAT", "tensorShape": {"dim": [{"size": "3"}, {"size": "3"}, {"size": "728"}, {"size": "1"}]}}}, "dtype": {"type": "DT_FLOAT"}}}, {"name": "xception_65/middle_flow/block1/unit_12/xception_module/separable_conv3_depthwise/BatchNorm/FusedBatchNorm/Scaled", "op": "Const", "attr": {"value": {"tensor": {"dtype": "DT_FLOAT", "tensorShape": {"dim": [{"size": "728"}]}}}, "dtype": {"type": "DT_FLOAT"}}}, {"name": "xception_65/middle_flow/block1/unit_12/xception_module/separable_conv3_depthwise/BatchNorm/FusedBatchNorm/Offset", "op": "Const", "attr": {"value": {"tensor": {"dtype": "DT_FLOAT", "tensorShape": {"dim": [{"size": "728"}]}}}, "dtype": {"type": "DT_FLOAT"}}}, {"name": "xception_65/middle_flow/block1/unit_12/xception_module/separable_conv3_pointwise/Conv2D/merged_input", "op": "Const", "attr": {"value": {"tensor": {"dtype": "DT_FLOAT", "tensorShape": {"dim": [{"size": "1"}, {"size": "1"}, {"size": "728"}, {"size": "728"}]}}}, "dtype": {"type": "DT_FLOAT"}}}, {"name": "xception_65/middle_flow/block1/unit_12/xception_module/separable_conv3_pointwise/BatchNorm/FusedBatchNorm/Offset", "op": "Const", "attr": {"value": {"tensor": {"dtype": "DT_FLOAT", "tensorShape": {"dim": [{"size": "728"}]}}}, "dtype": {"type": "DT_FLOAT"}}}, {"name": "xception_65/middle_flow/block1/unit_11/xception_module/separable_conv1_depthwise/depthwise_weights", "op": "Const", "attr": {"value": {"tensor": {"dtype": "DT_FLOAT", "tensorShape": {"dim": [{"size": "3"}, {"size": "3"}, {"size": "728"}, {"size": "1"}]}}}, "dtype": {"type": "DT_FLOAT"}}}, {"name": "xception_65/middle_flow/block1/unit_11/xception_module/separable_conv1_depthwise/BatchNorm/FusedBatchNorm/Scaled", "op": "Const", "attr": {"value": {"tensor": {"dtype": "DT_FLOAT", "tensorShape": {"dim": [{"size": "728"}]}}}, "dtype": {"type": "DT_FLOAT"}}}, {"name": "xception_65/middle_flow/block1/unit_11/xception_module/separable_conv1_depthwise/BatchNorm/FusedBatchNorm/Offset", "op": "Const", "attr": {"value": {"tensor": {"dtype": "DT_FLOAT", "tensorShape": {"dim": [{"size": "728"}]}}}, "dtype": {"type": "DT_FLOAT"}}}, {"name": "xception_65/middle_flow/block1/unit_11/xception_module/separable_conv1_pointwise/Conv2D/merged_input", "op": "Const", "attr": {"dtype": {"type": "DT_FLOAT"}, "value": {"tensor": {"dtype": "DT_FLOAT", "tensorShape": {"dim": [{"size": "1"}, {"size": "1"}, {"size": "728"}, {"size": "728"}]}}}}}, {"name": "xception_65/middle_flow/block1/unit_11/xception_module/separable_conv1_pointwise/BatchNorm/FusedBatchNorm/Offset", "op": "Const", "attr": {"value": {"tensor": {"dtype": "DT_FLOAT", "tensorShape": {"dim": [{"size": "728"}]}}}, "dtype": {"type": "DT_FLOAT"}}}, {"name": "xception_65/middle_flow/block1/unit_11/xception_module/separable_conv2_depthwise/depthwise_weights", "op": "Const", "attr": {"value": {"tensor": {"dtype": "DT_FLOAT", "tensorShape": {"dim": [{"size": "3"}, {"size": "3"}, {"size": "728"}, {"size": "1"}]}}}, "dtype": {"type": "DT_FLOAT"}}}, {"name": "xception_65/middle_flow/block1/unit_11/xception_module/separable_conv2_depthwise/BatchNorm/FusedBatchNorm/Scaled", "op": "Const", "attr": {"value": {"tensor": {"dtype": "DT_FLOAT", "tensorShape": {"dim": [{"size": "728"}]}}}, "dtype": {"type": "DT_FLOAT"}}}, {"name": "xception_65/middle_flow/block1/unit_11/xception_module/separable_conv2_depthwise/BatchNorm/FusedBatchNorm/Offset", "op": "Const", "attr": {"value": {"tensor": {"dtype": "DT_FLOAT", "tensorShape": {"dim": [{"size": "728"}]}}}, "dtype": {"type": "DT_FLOAT"}}}, {"name": "xception_65/middle_flow/block1/unit_11/xception_module/separable_conv2_pointwise/Conv2D/merged_input", "op": "Const", "attr": {"value": {"tensor": {"dtype": "DT_FLOAT", "tensorShape": {"dim": [{"size": "1"}, {"size": "1"}, {"size": "728"}, {"size": "728"}]}}}, "dtype": {"type": "DT_FLOAT"}}}, {"name": "xception_65/middle_flow/block1/unit_11/xception_module/separable_conv2_pointwise/BatchNorm/FusedBatchNorm/Offset", "op": "Const", "attr": {"value": {"tensor": {"dtype": "DT_FLOAT", "tensorShape": {"dim": [{"size": "728"}]}}}, "dtype": {"type": "DT_FLOAT"}}}, {"name": "xception_65/middle_flow/block1/unit_11/xception_module/separable_conv3_depthwise/depthwise_weights", "op": "Const", "attr": {"value": {"tensor": {"dtype": "DT_FLOAT", "tensorShape": {"dim": [{"size": "3"}, {"size": "3"}, {"size": "728"}, {"size": "1"}]}}}, "dtype": {"type": "DT_FLOAT"}}}, {"name": "xception_65/middle_flow/block1/unit_11/xception_module/separable_conv3_depthwise/BatchNorm/FusedBatchNorm/Scaled", "op": "Const", "attr": {"value": {"tensor": {"dtype": "DT_FLOAT", "tensorShape": {"dim": [{"size": "728"}]}}}, "dtype": {"type": "DT_FLOAT"}}}, {"name": "xception_65/middle_flow/block1/unit_11/xception_module/separable_conv3_depthwise/BatchNorm/FusedBatchNorm/Offset", "op": "Const", "attr": {"value": {"tensor": {"dtype": "DT_FLOAT", "tensorShape": {"dim": [{"size": "728"}]}}}, "dtype": {"type": "DT_FLOAT"}}}, {"name": "xception_65/middle_flow/block1/unit_11/xception_module/separable_conv3_pointwise/Conv2D/merged_input", "op": "Const", "attr": {"value": {"tensor": {"dtype": "DT_FLOAT", "tensorShape": {"dim": [{"size": "1"}, {"size": "1"}, {"size": "728"}, {"size": "728"}]}}}, "dtype": {"type": "DT_FLOAT"}}}, {"name": "xception_65/middle_flow/block1/unit_11/xception_module/separable_conv3_pointwise/BatchNorm/FusedBatchNorm/Offset", "op": "Const", "attr": {"value": {"tensor": {"dtype": "DT_FLOAT", "tensorShape": {"dim": [{"size": "728"}]}}}, "dtype": {"type": "DT_FLOAT"}}}, {"name": "xception_65/middle_flow/block1/unit_10/xception_module/separable_conv1_depthwise/depthwise_weights", "op": "Const", "attr": {"value": {"tensor": {"dtype": "DT_FLOAT", "tensorShape": {"dim": [{"size": "3"}, {"size": "3"}, {"size": "728"}, {"size": "1"}]}}}, "dtype": {"type": "DT_FLOAT"}}}, {"name": "xception_65/middle_flow/block1/unit_10/xception_module/separable_conv1_depthwise/BatchNorm/FusedBatchNorm/Scaled", "op": "Const", "attr": {"value": {"tensor": {"dtype": "DT_FLOAT", "tensorShape": {"dim": [{"size": "728"}]}}}, "dtype": {"type": "DT_FLOAT"}}}, {"name": "xception_65/middle_flow/block1/unit_10/xception_module/separable_conv1_depthwise/BatchNorm/FusedBatchNorm/Offset", "op": "Const", "attr": {"value": {"tensor": {"dtype": "DT_FLOAT", "tensorShape": {"dim": [{"size": "728"}]}}}, "dtype": {"type": "DT_FLOAT"}}}, {"name": "xception_65/middle_flow/block1/unit_10/xception_module/separable_conv1_pointwise/Conv2D/merged_input", "op": "Const", "attr": {"dtype": {"type": "DT_FLOAT"}, "value": {"tensor": {"dtype": "DT_FLOAT", "tensorShape": {"dim": [{"size": "1"}, {"size": "1"}, {"size": "728"}, {"size": "728"}]}}}}}, {"name": "xception_65/middle_flow/block1/unit_10/xception_module/separable_conv1_pointwise/BatchNorm/FusedBatchNorm/Offset", "op": "Const", "attr": {"value": {"tensor": {"dtype": "DT_FLOAT", "tensorShape": {"dim": [{"size": "728"}]}}}, "dtype": {"type": "DT_FLOAT"}}}, {"name": "xception_65/middle_flow/block1/unit_10/xception_module/separable_conv2_depthwise/depthwise_weights", "op": "Const", "attr": {"value": {"tensor": {"dtype": "DT_FLOAT", "tensorShape": {"dim": [{"size": "3"}, {"size": "3"}, {"size": "728"}, {"size": "1"}]}}}, "dtype": {"type": "DT_FLOAT"}}}, {"name": "xception_65/middle_flow/block1/unit_10/xception_module/separable_conv2_depthwise/BatchNorm/FusedBatchNorm/Scaled", "op": "Const", "attr": {"value": {"tensor": {"dtype": "DT_FLOAT", "tensorShape": {"dim": [{"size": "728"}]}}}, "dtype": {"type": "DT_FLOAT"}}}, {"name": "xception_65/middle_flow/block1/unit_10/xception_module/separable_conv2_depthwise/BatchNorm/FusedBatchNorm/Offset", "op": "Const", "attr": {"value": {"tensor": {"dtype": "DT_FLOAT", "tensorShape": {"dim": [{"size": "728"}]}}}, "dtype": {"type": "DT_FLOAT"}}}, {"name": "xception_65/middle_flow/block1/unit_10/xception_module/separable_conv2_pointwise/Conv2D/merged_input", "op": "Const", "attr": {"value": {"tensor": {"dtype": "DT_FLOAT", "tensorShape": {"dim": [{"size": "1"}, {"size": "1"}, {"size": "728"}, {"size": "728"}]}}}, "dtype": {"type": "DT_FLOAT"}}}, {"name": "xception_65/middle_flow/block1/unit_10/xception_module/separable_conv2_pointwise/BatchNorm/FusedBatchNorm/Offset", "op": "Const", "attr": {"value": {"tensor": {"dtype": "DT_FLOAT", "tensorShape": {"dim": [{"size": "728"}]}}}, "dtype": {"type": "DT_FLOAT"}}}, {"name": "xception_65/middle_flow/block1/unit_10/xception_module/separable_conv3_depthwise/depthwise_weights", "op": "Const", "attr": {"value": {"tensor": {"dtype": "DT_FLOAT", "tensorShape": {"dim": [{"size": "3"}, {"size": "3"}, {"size": "728"}, {"size": "1"}]}}}, "dtype": {"type": "DT_FLOAT"}}}, {"name": "xception_65/middle_flow/block1/unit_10/xception_module/separable_conv3_depthwise/BatchNorm/FusedBatchNorm/Scaled", "op": "Const", "attr": {"dtype": {"type": "DT_FLOAT"}, "value": {"tensor": {"dtype": "DT_FLOAT", "tensorShape": {"dim": [{"size": "728"}]}}}}}, {"name": "xception_65/middle_flow/block1/unit_10/xception_module/separable_conv3_depthwise/BatchNorm/FusedBatchNorm/Offset", "op": "Const", "attr": {"value": {"tensor": {"dtype": "DT_FLOAT", "tensorShape": {"dim": [{"size": "728"}]}}}, "dtype": {"type": "DT_FLOAT"}}}, {"name": "xception_65/middle_flow/block1/unit_10/xception_module/separable_conv3_pointwise/Conv2D/merged_input", "op": "Const", "attr": {"value": {"tensor": {"dtype": "DT_FLOAT", "tensorShape": {"dim": [{"size": "1"}, {"size": "1"}, {"size": "728"}, {"size": "728"}]}}}, "dtype": {"type": "DT_FLOAT"}}}, {"name": "xception_65/middle_flow/block1/unit_10/xception_module/separable_conv3_pointwise/BatchNorm/FusedBatchNorm/Offset", "op": "Const", "attr": {"dtype": {"type": "DT_FLOAT"}, "value": {"tensor": {"dtype": "DT_FLOAT", "tensorShape": {"dim": [{"size": "728"}]}}}}}, {"name": "xception_65/middle_flow/block1/unit_9/xception_module/separable_conv1_depthwise/depthwise_weights", "op": "Const", "attr": {"value": {"tensor": {"dtype": "DT_FLOAT", "tensorShape": {"dim": [{"size": "3"}, {"size": "3"}, {"size": "728"}, {"size": "1"}]}}}, "dtype": {"type": "DT_FLOAT"}}}, {"name": "xception_65/middle_flow/block1/unit_9/xception_module/separable_conv1_depthwise/BatchNorm/FusedBatchNorm/Scaled", "op": "Const", "attr": {"value": {"tensor": {"dtype": "DT_FLOAT", "tensorShape": {"dim": [{"size": "728"}]}}}, "dtype": {"type": "DT_FLOAT"}}}, {"name": "xception_65/middle_flow/block1/unit_9/xception_module/separable_conv1_depthwise/BatchNorm/FusedBatchNorm/Offset", "op": "Const", "attr": {"value": {"tensor": {"dtype": "DT_FLOAT", "tensorShape": {"dim": [{"size": "728"}]}}}, "dtype": {"type": "DT_FLOAT"}}}, {"name": "xception_65/middle_flow/block1/unit_9/xception_module/separable_conv1_pointwise/Conv2D/merged_input", "op": "Const", "attr": {"value": {"tensor": {"dtype": "DT_FLOAT", "tensorShape": {"dim": [{"size": "1"}, {"size": "1"}, {"size": "728"}, {"size": "728"}]}}}, "dtype": {"type": "DT_FLOAT"}}}, {"name": "xception_65/middle_flow/block1/unit_9/xception_module/separable_conv1_pointwise/BatchNorm/FusedBatchNorm/Offset", "op": "Const", "attr": {"value": {"tensor": {"dtype": "DT_FLOAT", "tensorShape": {"dim": [{"size": "728"}]}}}, "dtype": {"type": "DT_FLOAT"}}}, {"name": "xception_65/middle_flow/block1/unit_9/xception_module/separable_conv2_depthwise/depthwise_weights", "op": "Const", "attr": {"dtype": {"type": "DT_FLOAT"}, "value": {"tensor": {"dtype": "DT_FLOAT", "tensorShape": {"dim": [{"size": "3"}, {"size": "3"}, {"size": "728"}, {"size": "1"}]}}}}}, {"name": "xception_65/middle_flow/block1/unit_9/xception_module/separable_conv2_depthwise/BatchNorm/FusedBatchNorm/Scaled", "op": "Const", "attr": {"value": {"tensor": {"dtype": "DT_FLOAT", "tensorShape": {"dim": [{"size": "728"}]}}}, "dtype": {"type": "DT_FLOAT"}}}, {"name": "xception_65/middle_flow/block1/unit_9/xception_module/separable_conv2_depthwise/BatchNorm/FusedBatchNorm/Offset", "op": "Const", "attr": {"value": {"tensor": {"dtype": "DT_FLOAT", "tensorShape": {"dim": [{"size": "728"}]}}}, "dtype": {"type": "DT_FLOAT"}}}, {"name": "xception_65/middle_flow/block1/unit_9/xception_module/separable_conv2_pointwise/Conv2D/merged_input", "op": "Const", "attr": {"value": {"tensor": {"dtype": "DT_FLOAT", "tensorShape": {"dim": [{"size": "1"}, {"size": "1"}, {"size": "728"}, {"size": "728"}]}}}, "dtype": {"type": "DT_FLOAT"}}}, {"name": "xception_65/middle_flow/block1/unit_9/xception_module/separable_conv2_pointwise/BatchNorm/FusedBatchNorm/Offset", "op": "Const", "attr": {"value": {"tensor": {"dtype": "DT_FLOAT", "tensorShape": {"dim": [{"size": "728"}]}}}, "dtype": {"type": "DT_FLOAT"}}}, {"name": "xception_65/middle_flow/block1/unit_9/xception_module/separable_conv3_depthwise/depthwise_weights", "op": "Const", "attr": {"value": {"tensor": {"dtype": "DT_FLOAT", "tensorShape": {"dim": [{"size": "3"}, {"size": "3"}, {"size": "728"}, {"size": "1"}]}}}, "dtype": {"type": "DT_FLOAT"}}}, {"name": "xception_65/middle_flow/block1/unit_9/xception_module/separable_conv3_depthwise/BatchNorm/FusedBatchNorm/Scaled", "op": "Const", "attr": {"value": {"tensor": {"dtype": "DT_FLOAT", "tensorShape": {"dim": [{"size": "728"}]}}}, "dtype": {"type": "DT_FLOAT"}}}, {"name": "xception_65/middle_flow/block1/unit_9/xception_module/separable_conv3_depthwise/BatchNorm/FusedBatchNorm/Offset", "op": "Const", "attr": {"value": {"tensor": {"dtype": "DT_FLOAT", "tensorShape": {"dim": [{"size": "728"}]}}}, "dtype": {"type": "DT_FLOAT"}}}, {"name": "xception_65/middle_flow/block1/unit_9/xception_module/separable_conv3_pointwise/Conv2D/merged_input", "op": "Const", "attr": {"value": {"tensor": {"dtype": "DT_FLOAT", "tensorShape": {"dim": [{"size": "1"}, {"size": "1"}, {"size": "728"}, {"size": "728"}]}}}, "dtype": {"type": "DT_FLOAT"}}}, {"name": "xception_65/middle_flow/block1/unit_9/xception_module/separable_conv3_pointwise/BatchNorm/FusedBatchNorm/Offset", "op": "Const", "attr": {"dtype": {"type": "DT_FLOAT"}, "value": {"tensor": {"dtype": "DT_FLOAT", "tensorShape": {"dim": [{"size": "728"}]}}}}}, {"name": "xception_65/middle_flow/block1/unit_8/xception_module/separable_conv1_depthwise/depthwise_weights", "op": "Const", "attr": {"value": {"tensor": {"dtype": "DT_FLOAT", "tensorShape": {"dim": [{"size": "3"}, {"size": "3"}, {"size": "728"}, {"size": "1"}]}}}, "dtype": {"type": "DT_FLOAT"}}}, {"name": "xception_65/middle_flow/block1/unit_8/xception_module/separable_conv1_depthwise/BatchNorm/FusedBatchNorm/Scaled", "op": "Const", "attr": {"value": {"tensor": {"dtype": "DT_FLOAT", "tensorShape": {"dim": [{"size": "728"}]}}}, "dtype": {"type": "DT_FLOAT"}}}, {"name": "xception_65/middle_flow/block1/unit_8/xception_module/separable_conv1_depthwise/BatchNorm/FusedBatchNorm/Offset", "op": "Const", "attr": {"value": {"tensor": {"dtype": "DT_FLOAT", "tensorShape": {"dim": [{"size": "728"}]}}}, "dtype": {"type": "DT_FLOAT"}}}, {"name": "xception_65/middle_flow/block1/unit_8/xception_module/separable_conv1_pointwise/Conv2D/merged_input", "op": "Const", "attr": {"value": {"tensor": {"dtype": "DT_FLOAT", "tensorShape": {"dim": [{"size": "1"}, {"size": "1"}, {"size": "728"}, {"size": "728"}]}}}, "dtype": {"type": "DT_FLOAT"}}}, {"name": "xception_65/middle_flow/block1/unit_8/xception_module/separable_conv1_pointwise/BatchNorm/FusedBatchNorm/Offset", "op": "Const", "attr": {"dtype": {"type": "DT_FLOAT"}, "value": {"tensor": {"dtype": "DT_FLOAT", "tensorShape": {"dim": [{"size": "728"}]}}}}}, {"name": "xception_65/middle_flow/block1/unit_8/xception_module/separable_conv2_depthwise/depthwise_weights", "op": "Const", "attr": {"value": {"tensor": {"dtype": "DT_FLOAT", "tensorShape": {"dim": [{"size": "3"}, {"size": "3"}, {"size": "728"}, {"size": "1"}]}}}, "dtype": {"type": "DT_FLOAT"}}}, {"name": "xception_65/middle_flow/block1/unit_8/xception_module/separable_conv2_depthwise/BatchNorm/FusedBatchNorm/Scaled", "op": "Const", "attr": {"value": {"tensor": {"dtype": "DT_FLOAT", "tensorShape": {"dim": [{"size": "728"}]}}}, "dtype": {"type": "DT_FLOAT"}}}, {"name": "xception_65/middle_flow/block1/unit_8/xception_module/separable_conv2_depthwise/BatchNorm/FusedBatchNorm/Offset", "op": "Const", "attr": {"value": {"tensor": {"dtype": "DT_FLOAT", "tensorShape": {"dim": [{"size": "728"}]}}}, "dtype": {"type": "DT_FLOAT"}}}, {"name": "xception_65/middle_flow/block1/unit_8/xception_module/separable_conv2_pointwise/Conv2D/merged_input", "op": "Const", "attr": {"value": {"tensor": {"dtype": "DT_FLOAT", "tensorShape": {"dim": [{"size": "1"}, {"size": "1"}, {"size": "728"}, {"size": "728"}]}}}, "dtype": {"type": "DT_FLOAT"}}}, {"name": "xception_65/middle_flow/block1/unit_8/xception_module/separable_conv2_pointwise/BatchNorm/FusedBatchNorm/Offset", "op": "Const", "attr": {"value": {"tensor": {"dtype": "DT_FLOAT", "tensorShape": {"dim": [{"size": "728"}]}}}, "dtype": {"type": "DT_FLOAT"}}}, {"name": "xception_65/middle_flow/block1/unit_8/xception_module/separable_conv3_depthwise/depthwise_weights", "op": "Const", "attr": {"value": {"tensor": {"dtype": "DT_FLOAT", "tensorShape": {"dim": [{"size": "3"}, {"size": "3"}, {"size": "728"}, {"size": "1"}]}}}, "dtype": {"type": "DT_FLOAT"}}}, {"name": "xception_65/middle_flow/block1/unit_8/xception_module/separable_conv3_depthwise/BatchNorm/FusedBatchNorm/Scaled", "op": "Const", "attr": {"value": {"tensor": {"dtype": "DT_FLOAT", "tensorShape": {"dim": [{"size": "728"}]}}}, "dtype": {"type": "DT_FLOAT"}}}, {"name": "xception_65/middle_flow/block1/unit_8/xception_module/separable_conv3_depthwise/BatchNorm/FusedBatchNorm/Offset", "op": "Const", "attr": {"dtype": {"type": "DT_FLOAT"}, "value": {"tensor": {"dtype": "DT_FLOAT", "tensorShape": {"dim": [{"size": "728"}]}}}}}, {"name": "xception_65/middle_flow/block1/unit_8/xception_module/separable_conv3_pointwise/Conv2D/merged_input", "op": "Const", "attr": {"dtype": {"type": "DT_FLOAT"}, "value": {"tensor": {"dtype": "DT_FLOAT", "tensorShape": {"dim": [{"size": "1"}, {"size": "1"}, {"size": "728"}, {"size": "728"}]}}}}}, {"name": "xception_65/middle_flow/block1/unit_8/xception_module/separable_conv3_pointwise/BatchNorm/FusedBatchNorm/Offset", "op": "Const", "attr": {"dtype": {"type": "DT_FLOAT"}, "value": {"tensor": {"dtype": "DT_FLOAT", "tensorShape": {"dim": [{"size": "728"}]}}}}}, {"name": "xception_65/middle_flow/block1/unit_7/xception_module/separable_conv1_depthwise/depthwise_weights", "op": "Const", "attr": {"value": {"tensor": {"dtype": "DT_FLOAT", "tensorShape": {"dim": [{"size": "3"}, {"size": "3"}, {"size": "728"}, {"size": "1"}]}}}, "dtype": {"type": "DT_FLOAT"}}}, {"name": "xception_65/middle_flow/block1/unit_7/xception_module/separable_conv1_depthwise/BatchNorm/FusedBatchNorm/Scaled", "op": "Const", "attr": {"value": {"tensor": {"dtype": "DT_FLOAT", "tensorShape": {"dim": [{"size": "728"}]}}}, "dtype": {"type": "DT_FLOAT"}}}, {"name": "xception_65/middle_flow/block1/unit_7/xception_module/separable_conv1_depthwise/BatchNorm/FusedBatchNorm/Offset", "op": "Const", "attr": {"value": {"tensor": {"dtype": "DT_FLOAT", "tensorShape": {"dim": [{"size": "728"}]}}}, "dtype": {"type": "DT_FLOAT"}}}, {"name": "xception_65/middle_flow/block1/unit_7/xception_module/separable_conv1_pointwise/Conv2D/merged_input", "op": "Const", "attr": {"value": {"tensor": {"dtype": "DT_FLOAT", "tensorShape": {"dim": [{"size": "1"}, {"size": "1"}, {"size": "728"}, {"size": "728"}]}}}, "dtype": {"type": "DT_FLOAT"}}}, {"name": "xception_65/middle_flow/block1/unit_7/xception_module/separable_conv1_pointwise/BatchNorm/FusedBatchNorm/Offset", "op": "Const", "attr": {"value": {"tensor": {"dtype": "DT_FLOAT", "tensorShape": {"dim": [{"size": "728"}]}}}, "dtype": {"type": "DT_FLOAT"}}}, {"name": "xception_65/middle_flow/block1/unit_7/xception_module/separable_conv2_depthwise/depthwise_weights", "op": "Const", "attr": {"value": {"tensor": {"dtype": "DT_FLOAT", "tensorShape": {"dim": [{"size": "3"}, {"size": "3"}, {"size": "728"}, {"size": "1"}]}}}, "dtype": {"type": "DT_FLOAT"}}}, {"name": "xception_65/middle_flow/block1/unit_7/xception_module/separable_conv2_depthwise/BatchNorm/FusedBatchNorm/Scaled", "op": "Const", "attr": {"value": {"tensor": {"dtype": "DT_FLOAT", "tensorShape": {"dim": [{"size": "728"}]}}}, "dtype": {"type": "DT_FLOAT"}}}, {"name": "xception_65/middle_flow/block1/unit_7/xception_module/separable_conv2_depthwise/BatchNorm/FusedBatchNorm/Offset", "op": "Const", "attr": {"dtype": {"type": "DT_FLOAT"}, "value": {"tensor": {"dtype": "DT_FLOAT", "tensorShape": {"dim": [{"size": "728"}]}}}}}, {"name": "xception_65/middle_flow/block1/unit_7/xception_module/separable_conv2_pointwise/Conv2D/merged_input", "op": "Const", "attr": {"value": {"tensor": {"dtype": "DT_FLOAT", "tensorShape": {"dim": [{"size": "1"}, {"size": "1"}, {"size": "728"}, {"size": "728"}]}}}, "dtype": {"type": "DT_FLOAT"}}}, {"name": "xception_65/middle_flow/block1/unit_7/xception_module/separable_conv2_pointwise/BatchNorm/FusedBatchNorm/Offset", "op": "Const", "attr": {"value": {"tensor": {"dtype": "DT_FLOAT", "tensorShape": {"dim": [{"size": "728"}]}}}, "dtype": {"type": "DT_FLOAT"}}}, {"name": "xception_65/middle_flow/block1/unit_7/xception_module/separable_conv3_depthwise/depthwise_weights", "op": "Const", "attr": {"value": {"tensor": {"dtype": "DT_FLOAT", "tensorShape": {"dim": [{"size": "3"}, {"size": "3"}, {"size": "728"}, {"size": "1"}]}}}, "dtype": {"type": "DT_FLOAT"}}}, {"name": "xception_65/middle_flow/block1/unit_7/xception_module/separable_conv3_depthwise/BatchNorm/FusedBatchNorm/Scaled", "op": "Const", "attr": {"value": {"tensor": {"dtype": "DT_FLOAT", "tensorShape": {"dim": [{"size": "728"}]}}}, "dtype": {"type": "DT_FLOAT"}}}, {"name": "xception_65/middle_flow/block1/unit_7/xception_module/separable_conv3_depthwise/BatchNorm/FusedBatchNorm/Offset", "op": "Const", "attr": {"dtype": {"type": "DT_FLOAT"}, "value": {"tensor": {"dtype": "DT_FLOAT", "tensorShape": {"dim": [{"size": "728"}]}}}}}, {"name": "xception_65/middle_flow/block1/unit_7/xception_module/separable_conv3_pointwise/Conv2D/merged_input", "op": "Const", "attr": {"value": {"tensor": {"dtype": "DT_FLOAT", "tensorShape": {"dim": [{"size": "1"}, {"size": "1"}, {"size": "728"}, {"size": "728"}]}}}, "dtype": {"type": "DT_FLOAT"}}}, {"name": "xception_65/middle_flow/block1/unit_7/xception_module/separable_conv3_pointwise/BatchNorm/FusedBatchNorm/Offset", "op": "Const", "attr": {"value": {"tensor": {"dtype": "DT_FLOAT", "tensorShape": {"dim": [{"size": "728"}]}}}, "dtype": {"type": "DT_FLOAT"}}}, {"name": "xception_65/middle_flow/block1/unit_6/xception_module/separable_conv1_depthwise/depthwise_weights", "op": "Const", "attr": {"dtype": {"type": "DT_FLOAT"}, "value": {"tensor": {"dtype": "DT_FLOAT", "tensorShape": {"dim": [{"size": "3"}, {"size": "3"}, {"size": "728"}, {"size": "1"}]}}}}}, {"name": "xception_65/middle_flow/block1/unit_6/xception_module/separable_conv1_depthwise/BatchNorm/FusedBatchNorm/Scaled", "op": "Const", "attr": {"value": {"tensor": {"dtype": "DT_FLOAT", "tensorShape": {"dim": [{"size": "728"}]}}}, "dtype": {"type": "DT_FLOAT"}}}, {"name": "xception_65/middle_flow/block1/unit_6/xception_module/separable_conv1_depthwise/BatchNorm/FusedBatchNorm/Offset", "op": "Const", "attr": {"value": {"tensor": {"dtype": "DT_FLOAT", "tensorShape": {"dim": [{"size": "728"}]}}}, "dtype": {"type": "DT_FLOAT"}}}, {"name": "xception_65/middle_flow/block1/unit_6/xception_module/separable_conv1_pointwise/Conv2D/merged_input", "op": "Const", "attr": {"value": {"tensor": {"dtype": "DT_FLOAT", "tensorShape": {"dim": [{"size": "1"}, {"size": "1"}, {"size": "728"}, {"size": "728"}]}}}, "dtype": {"type": "DT_FLOAT"}}}, {"name": "xception_65/middle_flow/block1/unit_6/xception_module/separable_conv1_pointwise/BatchNorm/FusedBatchNorm/Offset", "op": "Const", "attr": {"dtype": {"type": "DT_FLOAT"}, "value": {"tensor": {"dtype": "DT_FLOAT", "tensorShape": {"dim": [{"size": "728"}]}}}}}, {"name": "xception_65/middle_flow/block1/unit_6/xception_module/separable_conv2_depthwise/depthwise_weights", "op": "Const", "attr": {"value": {"tensor": {"dtype": "DT_FLOAT", "tensorShape": {"dim": [{"size": "3"}, {"size": "3"}, {"size": "728"}, {"size": "1"}]}}}, "dtype": {"type": "DT_FLOAT"}}}, {"name": "xception_65/middle_flow/block1/unit_6/xception_module/separable_conv2_depthwise/BatchNorm/FusedBatchNorm/Scaled", "op": "Const", "attr": {"value": {"tensor": {"dtype": "DT_FLOAT", "tensorShape": {"dim": [{"size": "728"}]}}}, "dtype": {"type": "DT_FLOAT"}}}, {"name": "xception_65/middle_flow/block1/unit_6/xception_module/separable_conv2_depthwise/BatchNorm/FusedBatchNorm/Offset", "op": "Const", "attr": {"value": {"tensor": {"dtype": "DT_FLOAT", "tensorShape": {"dim": [{"size": "728"}]}}}, "dtype": {"type": "DT_FLOAT"}}}, {"name": "xception_65/middle_flow/block1/unit_6/xception_module/separable_conv2_pointwise/Conv2D/merged_input", "op": "Const", "attr": {"value": {"tensor": {"dtype": "DT_FLOAT", "tensorShape": {"dim": [{"size": "1"}, {"size": "1"}, {"size": "728"}, {"size": "728"}]}}}, "dtype": {"type": "DT_FLOAT"}}}, {"name": "xception_65/middle_flow/block1/unit_6/xception_module/separable_conv2_pointwise/BatchNorm/FusedBatchNorm/Offset", "op": "Const", "attr": {"value": {"tensor": {"dtype": "DT_FLOAT", "tensorShape": {"dim": [{"size": "728"}]}}}, "dtype": {"type": "DT_FLOAT"}}}, {"name": "xception_65/middle_flow/block1/unit_6/xception_module/separable_conv3_depthwise/depthwise_weights", "op": "Const", "attr": {"value": {"tensor": {"dtype": "DT_FLOAT", "tensorShape": {"dim": [{"size": "3"}, {"size": "3"}, {"size": "728"}, {"size": "1"}]}}}, "dtype": {"type": "DT_FLOAT"}}}, {"name": "xception_65/middle_flow/block1/unit_6/xception_module/separable_conv3_depthwise/BatchNorm/FusedBatchNorm/Scaled", "op": "Const", "attr": {"value": {"tensor": {"dtype": "DT_FLOAT", "tensorShape": {"dim": [{"size": "728"}]}}}, "dtype": {"type": "DT_FLOAT"}}}, {"name": "xception_65/middle_flow/block1/unit_6/xception_module/separable_conv3_depthwise/BatchNorm/FusedBatchNorm/Offset", "op": "Const", "attr": {"value": {"tensor": {"dtype": "DT_FLOAT", "tensorShape": {"dim": [{"size": "728"}]}}}, "dtype": {"type": "DT_FLOAT"}}}, {"name": "xception_65/middle_flow/block1/unit_6/xception_module/separable_conv3_pointwise/Conv2D/merged_input", "op": "Const", "attr": {"value": {"tensor": {"dtype": "DT_FLOAT", "tensorShape": {"dim": [{"size": "1"}, {"size": "1"}, {"size": "728"}, {"size": "728"}]}}}, "dtype": {"type": "DT_FLOAT"}}}, {"name": "xception_65/middle_flow/block1/unit_6/xception_module/separable_conv3_pointwise/BatchNorm/FusedBatchNorm/Offset", "op": "Const", "attr": {"value": {"tensor": {"dtype": "DT_FLOAT", "tensorShape": {"dim": [{"size": "728"}]}}}, "dtype": {"type": "DT_FLOAT"}}}, {"name": "xception_65/middle_flow/block1/unit_5/xception_module/separable_conv1_depthwise/depthwise_weights", "op": "Const", "attr": {"value": {"tensor": {"dtype": "DT_FLOAT", "tensorShape": {"dim": [{"size": "3"}, {"size": "3"}, {"size": "728"}, {"size": "1"}]}}}, "dtype": {"type": "DT_FLOAT"}}}, {"name": "xception_65/middle_flow/block1/unit_5/xception_module/separable_conv1_depthwise/BatchNorm/FusedBatchNorm/Scaled", "op": "Const", "attr": {"value": {"tensor": {"dtype": "DT_FLOAT", "tensorShape": {"dim": [{"size": "728"}]}}}, "dtype": {"type": "DT_FLOAT"}}}, {"name": "xception_65/middle_flow/block1/unit_5/xception_module/separable_conv1_depthwise/BatchNorm/FusedBatchNorm/Offset", "op": "Const", "attr": {"value": {"tensor": {"dtype": "DT_FLOAT", "tensorShape": {"dim": [{"size": "728"}]}}}, "dtype": {"type": "DT_FLOAT"}}}, {"name": "xception_65/middle_flow/block1/unit_5/xception_module/separable_conv1_pointwise/Conv2D/merged_input", "op": "Const", "attr": {"value": {"tensor": {"dtype": "DT_FLOAT", "tensorShape": {"dim": [{"size": "1"}, {"size": "1"}, {"size": "728"}, {"size": "728"}]}}}, "dtype": {"type": "DT_FLOAT"}}}, {"name": "xception_65/middle_flow/block1/unit_5/xception_module/separable_conv1_pointwise/BatchNorm/FusedBatchNorm/Offset", "op": "Const", "attr": {"value": {"tensor": {"dtype": "DT_FLOAT", "tensorShape": {"dim": [{"size": "728"}]}}}, "dtype": {"type": "DT_FLOAT"}}}, {"name": "xception_65/middle_flow/block1/unit_5/xception_module/separable_conv2_depthwise/depthwise_weights", "op": "Const", "attr": {"value": {"tensor": {"dtype": "DT_FLOAT", "tensorShape": {"dim": [{"size": "3"}, {"size": "3"}, {"size": "728"}, {"size": "1"}]}}}, "dtype": {"type": "DT_FLOAT"}}}, {"name": "xception_65/middle_flow/block1/unit_5/xception_module/separable_conv2_depthwise/BatchNorm/FusedBatchNorm/Scaled", "op": "Const", "attr": {"value": {"tensor": {"dtype": "DT_FLOAT", "tensorShape": {"dim": [{"size": "728"}]}}}, "dtype": {"type": "DT_FLOAT"}}}, {"name": "xception_65/middle_flow/block1/unit_5/xception_module/separable_conv2_depthwise/BatchNorm/FusedBatchNorm/Offset", "op": "Const", "attr": {"value": {"tensor": {"dtype": "DT_FLOAT", "tensorShape": {"dim": [{"size": "728"}]}}}, "dtype": {"type": "DT_FLOAT"}}}, {"name": "xception_65/middle_flow/block1/unit_5/xception_module/separable_conv2_pointwise/Conv2D/merged_input", "op": "Const", "attr": {"value": {"tensor": {"dtype": "DT_FLOAT", "tensorShape": {"dim": [{"size": "1"}, {"size": "1"}, {"size": "728"}, {"size": "728"}]}}}, "dtype": {"type": "DT_FLOAT"}}}, {"name": "xception_65/middle_flow/block1/unit_5/xception_module/separable_conv2_pointwise/BatchNorm/FusedBatchNorm/Offset", "op": "Const", "attr": {"value": {"tensor": {"dtype": "DT_FLOAT", "tensorShape": {"dim": [{"size": "728"}]}}}, "dtype": {"type": "DT_FLOAT"}}}, {"name": "xception_65/middle_flow/block1/unit_5/xception_module/separable_conv3_depthwise/depthwise_weights", "op": "Const", "attr": {"value": {"tensor": {"dtype": "DT_FLOAT", "tensorShape": {"dim": [{"size": "3"}, {"size": "3"}, {"size": "728"}, {"size": "1"}]}}}, "dtype": {"type": "DT_FLOAT"}}}, {"name": "xception_65/middle_flow/block1/unit_5/xception_module/separable_conv3_depthwise/BatchNorm/FusedBatchNorm/Scaled", "op": "Const", "attr": {"value": {"tensor": {"dtype": "DT_FLOAT", "tensorShape": {"dim": [{"size": "728"}]}}}, "dtype": {"type": "DT_FLOAT"}}}, {"name": "xception_65/middle_flow/block1/unit_5/xception_module/separable_conv3_depthwise/BatchNorm/FusedBatchNorm/Offset", "op": "Const", "attr": {"value": {"tensor": {"dtype": "DT_FLOAT", "tensorShape": {"dim": [{"size": "728"}]}}}, "dtype": {"type": "DT_FLOAT"}}}, {"name": "xception_65/middle_flow/block1/unit_5/xception_module/separable_conv3_pointwise/Conv2D/merged_input", "op": "Const", "attr": {"value": {"tensor": {"dtype": "DT_FLOAT", "tensorShape": {"dim": [{"size": "1"}, {"size": "1"}, {"size": "728"}, {"size": "728"}]}}}, "dtype": {"type": "DT_FLOAT"}}}, {"name": "xception_65/middle_flow/block1/unit_5/xception_module/separable_conv3_pointwise/BatchNorm/FusedBatchNorm/Offset", "op": "Const", "attr": {"value": {"tensor": {"dtype": "DT_FLOAT", "tensorShape": {"dim": [{"size": "728"}]}}}, "dtype": {"type": "DT_FLOAT"}}}, {"name": "xception_65/middle_flow/block1/unit_4/xception_module/separable_conv1_depthwise/depthwise_weights", "op": "Const", "attr": {"value": {"tensor": {"dtype": "DT_FLOAT", "tensorShape": {"dim": [{"size": "3"}, {"size": "3"}, {"size": "728"}, {"size": "1"}]}}}, "dtype": {"type": "DT_FLOAT"}}}, {"name": "xception_65/middle_flow/block1/unit_4/xception_module/separable_conv1_depthwise/BatchNorm/FusedBatchNorm/Scaled", "op": "Const", "attr": {"dtype": {"type": "DT_FLOAT"}, "value": {"tensor": {"dtype": "DT_FLOAT", "tensorShape": {"dim": [{"size": "728"}]}}}}}, {"name": "xception_65/middle_flow/block1/unit_4/xception_module/separable_conv1_depthwise/BatchNorm/FusedBatchNorm/Offset", "op": "Const", "attr": {"value": {"tensor": {"dtype": "DT_FLOAT", "tensorShape": {"dim": [{"size": "728"}]}}}, "dtype": {"type": "DT_FLOAT"}}}, {"name": "xception_65/middle_flow/block1/unit_4/xception_module/separable_conv1_pointwise/Conv2D/merged_input", "op": "Const", "attr": {"value": {"tensor": {"dtype": "DT_FLOAT", "tensorShape": {"dim": [{"size": "1"}, {"size": "1"}, {"size": "728"}, {"size": "728"}]}}}, "dtype": {"type": "DT_FLOAT"}}}, {"name": "xception_65/middle_flow/block1/unit_4/xception_module/separable_conv1_pointwise/BatchNorm/FusedBatchNorm/Offset", "op": "Const", "attr": {"value": {"tensor": {"dtype": "DT_FLOAT", "tensorShape": {"dim": [{"size": "728"}]}}}, "dtype": {"type": "DT_FLOAT"}}}, {"name": "xception_65/middle_flow/block1/unit_4/xception_module/separable_conv2_depthwise/depthwise_weights", "op": "Const", "attr": {"value": {"tensor": {"dtype": "DT_FLOAT", "tensorShape": {"dim": [{"size": "3"}, {"size": "3"}, {"size": "728"}, {"size": "1"}]}}}, "dtype": {"type": "DT_FLOAT"}}}, {"name": "xception_65/middle_flow/block1/unit_4/xception_module/separable_conv2_depthwise/BatchNorm/FusedBatchNorm/Scaled", "op": "Const", "attr": {"value": {"tensor": {"dtype": "DT_FLOAT", "tensorShape": {"dim": [{"size": "728"}]}}}, "dtype": {"type": "DT_FLOAT"}}}, {"name": "xception_65/middle_flow/block1/unit_4/xception_module/separable_conv2_depthwise/BatchNorm/FusedBatchNorm/Offset", "op": "Const", "attr": {"value": {"tensor": {"dtype": "DT_FLOAT", "tensorShape": {"dim": [{"size": "728"}]}}}, "dtype": {"type": "DT_FLOAT"}}}, {"name": "xception_65/middle_flow/block1/unit_4/xception_module/separable_conv2_pointwise/Conv2D/merged_input", "op": "Const", "attr": {"value": {"tensor": {"dtype": "DT_FLOAT", "tensorShape": {"dim": [{"size": "1"}, {"size": "1"}, {"size": "728"}, {"size": "728"}]}}}, "dtype": {"type": "DT_FLOAT"}}}, {"name": "xception_65/middle_flow/block1/unit_4/xception_module/separable_conv2_pointwise/BatchNorm/FusedBatchNorm/Offset", "op": "Const", "attr": {"value": {"tensor": {"dtype": "DT_FLOAT", "tensorShape": {"dim": [{"size": "728"}]}}}, "dtype": {"type": "DT_FLOAT"}}}, {"name": "xception_65/middle_flow/block1/unit_4/xception_module/separable_conv3_depthwise/depthwise_weights", "op": "Const", "attr": {"dtype": {"type": "DT_FLOAT"}, "value": {"tensor": {"dtype": "DT_FLOAT", "tensorShape": {"dim": [{"size": "3"}, {"size": "3"}, {"size": "728"}, {"size": "1"}]}}}}}, {"name": "xception_65/middle_flow/block1/unit_4/xception_module/separable_conv3_depthwise/BatchNorm/FusedBatchNorm/Scaled", "op": "Const", "attr": {"value": {"tensor": {"dtype": "DT_FLOAT", "tensorShape": {"dim": [{"size": "728"}]}}}, "dtype": {"type": "DT_FLOAT"}}}, {"name": "xception_65/middle_flow/block1/unit_4/xception_module/separable_conv3_depthwise/BatchNorm/FusedBatchNorm/Offset", "op": "Const", "attr": {"value": {"tensor": {"dtype": "DT_FLOAT", "tensorShape": {"dim": [{"size": "728"}]}}}, "dtype": {"type": "DT_FLOAT"}}}, {"name": "xception_65/middle_flow/block1/unit_4/xception_module/separable_conv3_pointwise/Conv2D/merged_input", "op": "Const", "attr": {"value": {"tensor": {"dtype": "DT_FLOAT", "tensorShape": {"dim": [{"size": "1"}, {"size": "1"}, {"size": "728"}, {"size": "728"}]}}}, "dtype": {"type": "DT_FLOAT"}}}, {"name": "xception_65/middle_flow/block1/unit_4/xception_module/separable_conv3_pointwise/BatchNorm/FusedBatchNorm/Offset", "op": "Const", "attr": {"value": {"tensor": {"dtype": "DT_FLOAT", "tensorShape": {"dim": [{"size": "728"}]}}}, "dtype": {"type": "DT_FLOAT"}}}, {"name": "xception_65/middle_flow/block1/unit_3/xception_module/separable_conv1_depthwise/depthwise_weights", "op": "Const", "attr": {"value": {"tensor": {"dtype": "DT_FLOAT", "tensorShape": {"dim": [{"size": "3"}, {"size": "3"}, {"size": "728"}, {"size": "1"}]}}}, "dtype": {"type": "DT_FLOAT"}}}, {"name": "xception_65/middle_flow/block1/unit_3/xception_module/separable_conv1_depthwise/BatchNorm/FusedBatchNorm/Scaled", "op": "Const", "attr": {"value": {"tensor": {"dtype": "DT_FLOAT", "tensorShape": {"dim": [{"size": "728"}]}}}, "dtype": {"type": "DT_FLOAT"}}}, {"name": "xception_65/middle_flow/block1/unit_3/xception_module/separable_conv1_depthwise/BatchNorm/FusedBatchNorm/Offset", "op": "Const", "attr": {"value": {"tensor": {"dtype": "DT_FLOAT", "tensorShape": {"dim": [{"size": "728"}]}}}, "dtype": {"type": "DT_FLOAT"}}}, {"name": "xception_65/middle_flow/block1/unit_3/xception_module/separable_conv1_pointwise/Conv2D/merged_input", "op": "Const", "attr": {"value": {"tensor": {"dtype": "DT_FLOAT", "tensorShape": {"dim": [{"size": "1"}, {"size": "1"}, {"size": "728"}, {"size": "728"}]}}}, "dtype": {"type": "DT_FLOAT"}}}, {"name": "xception_65/middle_flow/block1/unit_3/xception_module/separable_conv1_pointwise/BatchNorm/FusedBatchNorm/Offset", "op": "Const", "attr": {"value": {"tensor": {"dtype": "DT_FLOAT", "tensorShape": {"dim": [{"size": "728"}]}}}, "dtype": {"type": "DT_FLOAT"}}}, {"name": "xception_65/middle_flow/block1/unit_3/xception_module/separable_conv2_depthwise/depthwise_weights", "op": "Const", "attr": {"dtype": {"type": "DT_FLOAT"}, "value": {"tensor": {"dtype": "DT_FLOAT", "tensorShape": {"dim": [{"size": "3"}, {"size": "3"}, {"size": "728"}, {"size": "1"}]}}}}}, {"name": "xception_65/middle_flow/block1/unit_3/xception_module/separable_conv2_depthwise/BatchNorm/FusedBatchNorm/Scaled", "op": "Const", "attr": {"value": {"tensor": {"dtype": "DT_FLOAT", "tensorShape": {"dim": [{"size": "728"}]}}}, "dtype": {"type": "DT_FLOAT"}}}, {"name": "xception_65/middle_flow/block1/unit_3/xception_module/separable_conv2_depthwise/BatchNorm/FusedBatchNorm/Offset", "op": "Const", "attr": {"value": {"tensor": {"dtype": "DT_FLOAT", "tensorShape": {"dim": [{"size": "728"}]}}}, "dtype": {"type": "DT_FLOAT"}}}, {"name": "xception_65/middle_flow/block1/unit_3/xception_module/separable_conv2_pointwise/Conv2D/merged_input", "op": "Const", "attr": {"value": {"tensor": {"dtype": "DT_FLOAT", "tensorShape": {"dim": [{"size": "1"}, {"size": "1"}, {"size": "728"}, {"size": "728"}]}}}, "dtype": {"type": "DT_FLOAT"}}}, {"name": "xception_65/middle_flow/block1/unit_3/xception_module/separable_conv2_pointwise/BatchNorm/FusedBatchNorm/Offset", "op": "Const", "attr": {"value": {"tensor": {"dtype": "DT_FLOAT", "tensorShape": {"dim": [{"size": "728"}]}}}, "dtype": {"type": "DT_FLOAT"}}}, {"name": "xception_65/middle_flow/block1/unit_3/xception_module/separable_conv3_depthwise/depthwise_weights", "op": "Const", "attr": {"value": {"tensor": {"dtype": "DT_FLOAT", "tensorShape": {"dim": [{"size": "3"}, {"size": "3"}, {"size": "728"}, {"size": "1"}]}}}, "dtype": {"type": "DT_FLOAT"}}}, {"name": "xception_65/middle_flow/block1/unit_3/xception_module/separable_conv3_depthwise/BatchNorm/FusedBatchNorm/Scaled", "op": "Const", "attr": {"dtype": {"type": "DT_FLOAT"}, "value": {"tensor": {"dtype": "DT_FLOAT", "tensorShape": {"dim": [{"size": "728"}]}}}}}, {"name": "xception_65/middle_flow/block1/unit_3/xception_module/separable_conv3_depthwise/BatchNorm/FusedBatchNorm/Offset", "op": "Const", "attr": {"value": {"tensor": {"dtype": "DT_FLOAT", "tensorShape": {"dim": [{"size": "728"}]}}}, "dtype": {"type": "DT_FLOAT"}}}, {"name": "xception_65/middle_flow/block1/unit_3/xception_module/separable_conv3_pointwise/Conv2D/merged_input", "op": "Const", "attr": {"value": {"tensor": {"dtype": "DT_FLOAT", "tensorShape": {"dim": [{"size": "1"}, {"size": "1"}, {"size": "728"}, {"size": "728"}]}}}, "dtype": {"type": "DT_FLOAT"}}}, {"name": "xception_65/middle_flow/block1/unit_3/xception_module/separable_conv3_pointwise/BatchNorm/FusedBatchNorm/Offset", "op": "Const", "attr": {"value": {"tensor": {"dtype": "DT_FLOAT", "tensorShape": {"dim": [{"size": "728"}]}}}, "dtype": {"type": "DT_FLOAT"}}}, {"name": "xception_65/middle_flow/block1/unit_2/xception_module/separable_conv1_depthwise/depthwise_weights", "op": "Const", "attr": {"value": {"tensor": {"dtype": "DT_FLOAT", "tensorShape": {"dim": [{"size": "3"}, {"size": "3"}, {"size": "728"}, {"size": "1"}]}}}, "dtype": {"type": "DT_FLOAT"}}}, {"name": "xception_65/middle_flow/block1/unit_2/xception_module/separable_conv1_depthwise/BatchNorm/FusedBatchNorm/Scaled", "op": "Const", "attr": {"value": {"tensor": {"dtype": "DT_FLOAT", "tensorShape": {"dim": [{"size": "728"}]}}}, "dtype": {"type": "DT_FLOAT"}}}, {"name": "xception_65/middle_flow/block1/unit_2/xception_module/separable_conv1_depthwise/BatchNorm/FusedBatchNorm/Offset", "op": "Const", "attr": {"value": {"tensor": {"dtype": "DT_FLOAT", "tensorShape": {"dim": [{"size": "728"}]}}}, "dtype": {"type": "DT_FLOAT"}}}, {"name": "xception_65/middle_flow/block1/unit_2/xception_module/separable_conv1_pointwise/Conv2D/merged_input", "op": "Const", "attr": {"value": {"tensor": {"dtype": "DT_FLOAT", "tensorShape": {"dim": [{"size": "1"}, {"size": "1"}, {"size": "728"}, {"size": "728"}]}}}, "dtype": {"type": "DT_FLOAT"}}}, {"name": "xception_65/middle_flow/block1/unit_2/xception_module/separable_conv1_pointwise/BatchNorm/FusedBatchNorm/Offset", "op": "Const", "attr": {"dtype": {"type": "DT_FLOAT"}, "value": {"tensor": {"dtype": "DT_FLOAT", "tensorShape": {"dim": [{"size": "728"}]}}}}}, {"name": "xception_65/middle_flow/block1/unit_2/xception_module/separable_conv2_depthwise/depthwise_weights", "op": "Const", "attr": {"value": {"tensor": {"dtype": "DT_FLOAT", "tensorShape": {"dim": [{"size": "3"}, {"size": "3"}, {"size": "728"}, {"size": "1"}]}}}, "dtype": {"type": "DT_FLOAT"}}}, {"name": "xception_65/middle_flow/block1/unit_2/xception_module/separable_conv2_depthwise/BatchNorm/FusedBatchNorm/Scaled", "op": "Const", "attr": {"value": {"tensor": {"dtype": "DT_FLOAT", "tensorShape": {"dim": [{"size": "728"}]}}}, "dtype": {"type": "DT_FLOAT"}}}, {"name": "xception_65/middle_flow/block1/unit_2/xception_module/separable_conv2_depthwise/BatchNorm/FusedBatchNorm/Offset", "op": "Const", "attr": {"value": {"tensor": {"dtype": "DT_FLOAT", "tensorShape": {"dim": [{"size": "728"}]}}}, "dtype": {"type": "DT_FLOAT"}}}, {"name": "xception_65/middle_flow/block1/unit_2/xception_module/separable_conv2_pointwise/Conv2D/merged_input", "op": "Const", "attr": {"value": {"tensor": {"dtype": "DT_FLOAT", "tensorShape": {"dim": [{"size": "1"}, {"size": "1"}, {"size": "728"}, {"size": "728"}]}}}, "dtype": {"type": "DT_FLOAT"}}}, {"name": "xception_65/middle_flow/block1/unit_2/xception_module/separable_conv2_pointwise/BatchNorm/FusedBatchNorm/Offset", "op": "Const", "attr": {"value": {"tensor": {"dtype": "DT_FLOAT", "tensorShape": {"dim": [{"size": "728"}]}}}, "dtype": {"type": "DT_FLOAT"}}}, {"name": "xception_65/middle_flow/block1/unit_2/xception_module/separable_conv3_depthwise/depthwise_weights", "op": "Const", "attr": {"value": {"tensor": {"dtype": "DT_FLOAT", "tensorShape": {"dim": [{"size": "3"}, {"size": "3"}, {"size": "728"}, {"size": "1"}]}}}, "dtype": {"type": "DT_FLOAT"}}}, {"name": "xception_65/middle_flow/block1/unit_2/xception_module/separable_conv3_depthwise/BatchNorm/FusedBatchNorm/Scaled", "op": "Const", "attr": {"value": {"tensor": {"dtype": "DT_FLOAT", "tensorShape": {"dim": [{"size": "728"}]}}}, "dtype": {"type": "DT_FLOAT"}}}, {"name": "xception_65/middle_flow/block1/unit_2/xception_module/separable_conv3_depthwise/BatchNorm/FusedBatchNorm/Offset", "op": "Const", "attr": {"dtype": {"type": "DT_FLOAT"}, "value": {"tensor": {"dtype": "DT_FLOAT", "tensorShape": {"dim": [{"size": "728"}]}}}}}, {"name": "xception_65/middle_flow/block1/unit_2/xception_module/separable_conv3_pointwise/Conv2D/merged_input", "op": "Const", "attr": {"value": {"tensor": {"dtype": "DT_FLOAT", "tensorShape": {"dim": [{"size": "1"}, {"size": "1"}, {"size": "728"}, {"size": "728"}]}}}, "dtype": {"type": "DT_FLOAT"}}}, {"name": "xception_65/middle_flow/block1/unit_2/xception_module/separable_conv3_pointwise/BatchNorm/FusedBatchNorm/Offset", "op": "Const", "attr": {"value": {"tensor": {"dtype": "DT_FLOAT", "tensorShape": {"dim": [{"size": "728"}]}}}, "dtype": {"type": "DT_FLOAT"}}}, {"name": "xception_65/middle_flow/block1/unit_1/xception_module/separable_conv1_depthwise/depthwise_weights", "op": "Const", "attr": {"value": {"tensor": {"dtype": "DT_FLOAT", "tensorShape": {"dim": [{"size": "3"}, {"size": "3"}, {"size": "728"}, {"size": "1"}]}}}, "dtype": {"type": "DT_FLOAT"}}}, {"name": "xception_65/middle_flow/block1/unit_1/xception_module/separable_conv1_depthwise/BatchNorm/FusedBatchNorm/Scaled", "op": "Const", "attr": {"value": {"tensor": {"dtype": "DT_FLOAT", "tensorShape": {"dim": [{"size": "728"}]}}}, "dtype": {"type": "DT_FLOAT"}}}, {"name": "xception_65/middle_flow/block1/unit_1/xception_module/separable_conv1_depthwise/BatchNorm/FusedBatchNorm/Offset", "op": "Const", "attr": {"value": {"tensor": {"dtype": "DT_FLOAT", "tensorShape": {"dim": [{"size": "728"}]}}}, "dtype": {"type": "DT_FLOAT"}}}, {"name": "xception_65/middle_flow/block1/unit_1/xception_module/separable_conv1_pointwise/Conv2D/merged_input", "op": "Const", "attr": {"value": {"tensor": {"dtype": "DT_FLOAT", "tensorShape": {"dim": [{"size": "1"}, {"size": "1"}, {"size": "728"}, {"size": "728"}]}}}, "dtype": {"type": "DT_FLOAT"}}}, {"name": "xception_65/middle_flow/block1/unit_1/xception_module/separable_conv1_pointwise/BatchNorm/FusedBatchNorm/Offset", "op": "Const", "attr": {"value": {"tensor": {"dtype": "DT_FLOAT", "tensorShape": {"dim": [{"size": "728"}]}}}, "dtype": {"type": "DT_FLOAT"}}}, {"name": "xception_65/middle_flow/block1/unit_1/xception_module/separable_conv2_depthwise/depthwise_weights", "op": "Const", "attr": {"value": {"tensor": {"dtype": "DT_FLOAT", "tensorShape": {"dim": [{"size": "3"}, {"size": "3"}, {"size": "728"}, {"size": "1"}]}}}, "dtype": {"type": "DT_FLOAT"}}}, {"name": "xception_65/middle_flow/block1/unit_1/xception_module/separable_conv2_depthwise/BatchNorm/FusedBatchNorm/Scaled", "op": "Const", "attr": {"value": {"tensor": {"dtype": "DT_FLOAT", "tensorShape": {"dim": [{"size": "728"}]}}}, "dtype": {"type": "DT_FLOAT"}}}, {"name": "xception_65/middle_flow/block1/unit_1/xception_module/separable_conv2_depthwise/BatchNorm/FusedBatchNorm/Offset", "op": "Const", "attr": {"value": {"tensor": {"dtype": "DT_FLOAT", "tensorShape": {"dim": [{"size": "728"}]}}}, "dtype": {"type": "DT_FLOAT"}}}, {"name": "xception_65/middle_flow/block1/unit_1/xception_module/separable_conv2_pointwise/Conv2D/merged_input", "op": "Const", "attr": {"value": {"tensor": {"dtype": "DT_FLOAT", "tensorShape": {"dim": [{"size": "1"}, {"size": "1"}, {"size": "728"}, {"size": "728"}]}}}, "dtype": {"type": "DT_FLOAT"}}}, {"name": "xception_65/middle_flow/block1/unit_1/xception_module/separable_conv2_pointwise/BatchNorm/FusedBatchNorm/Offset", "op": "Const", "attr": {"value": {"tensor": {"dtype": "DT_FLOAT", "tensorShape": {"dim": [{"size": "728"}]}}}, "dtype": {"type": "DT_FLOAT"}}}, {"name": "xception_65/exit_flow/block1/unit_1/xception_module/separable_conv1_depthwise/depthwise/SpaceToBatchND/paddings", "op": "Const", "attr": {"dtype": {"type": "DT_INT32"}, "value": {"tensor": {"dtype": "DT_INT32", "tensorShape": {"dim": [{"size": "2"}, {"size": "2"}]}}}}}, {"name": "xception_65/middle_flow/block1/unit_1/xception_module/separable_conv3_depthwise/depthwise_weights", "op": "Const", "attr": {"value": {"tensor": {"dtype": "DT_FLOAT", "tensorShape": {"dim": [{"size": "3"}, {"size": "3"}, {"size": "728"}, {"size": "1"}]}}}, "dtype": {"type": "DT_FLOAT"}}}, {"name": "xception_65/exit_flow/block1/unit_1/xception_module/separable_conv1_depthwise/depthwise/SpaceToBatchND/block_shape", "op": "Const", "attr": {"value": {"tensor": {"dtype": "DT_INT32", "tensorShape": {"dim": [{"size": "2"}]}}}, "dtype": {"type": "DT_INT32"}}}, {"name": "xception_65/exit_flow/block1/unit_1/xception_module/separable_conv1_depthwise/depthwise/BatchToSpaceND/crops", "op": "Const", "attr": {"value": {"tensor": {"dtype": "DT_INT32", "tensorShape": {"dim": [{"size": "2"}, {"size": "2"}]}}}, "dtype": {"type": "DT_INT32"}}}, {"name": "xception_65/middle_flow/block1/unit_1/xception_module/separable_conv3_depthwise/BatchNorm/FusedBatchNorm/Scaled", "op": "Const", "attr": {"value": {"tensor": {"dtype": "DT_FLOAT", "tensorShape": {"dim": [{"size": "728"}]}}}, "dtype": {"type": "DT_FLOAT"}}}, {"name": "xception_65/middle_flow/block1/unit_1/xception_module/separable_conv3_depthwise/BatchNorm/FusedBatchNorm/Offset", "op": "Const", "attr": {"value": {"tensor": {"dtype": "DT_FLOAT", "tensorShape": {"dim": [{"size": "728"}]}}}, "dtype": {"type": "DT_FLOAT"}}}, {"name": "xception_65/middle_flow/block1/unit_1/xception_module/separable_conv3_pointwise/Conv2D/merged_input", "op": "Const", "attr": {"value": {"tensor": {"dtype": "DT_FLOAT", "tensorShape": {"dim": [{"size": "1"}, {"size": "1"}, {"size": "728"}, {"size": "728"}]}}}, "dtype": {"type": "DT_FLOAT"}}}, {"name": "xception_65/middle_flow/block1/unit_1/xception_module/separable_conv3_pointwise/BatchNorm/FusedBatchNorm/Offset", "op": "Const", "attr": {"value": {"tensor": {"dtype": "DT_FLOAT", "tensorShape": {"dim": [{"size": "728"}]}}}, "dtype": {"type": "DT_FLOAT"}}}, {"name": "xception_65/entry_flow/block3/unit_1/xception_module/ArithmeticOptimizer/AddOpsRewrite_Leaf_0_add", "op": "Const", "attr": {"value": {"tensor": {"dtype": "DT_FLOAT", "tensorShape": {"dim": [{"size": "728"}]}}}, "dtype": {"type": "DT_FLOAT"}}}, {"name": "xception_65/entry_flow/block3/unit_1/xception_module/separable_conv1_depthwise/depthwise_weights", "op": "Const", "attr": {"value": {"tensor": {"dtype": "DT_FLOAT", "tensorShape": {"dim": [{"size": "3"}, {"size": "3"}, {"size": "256"}, {"size": "1"}]}}}, "dtype": {"type": "DT_FLOAT"}}}, {"name": "xception_65/entry_flow/block3/unit_1/xception_module/separable_conv1_depthwise/BatchNorm/FusedBatchNorm/Scaled", "op": "Const", "attr": {"dtype": {"type": "DT_FLOAT"}, "value": {"tensor": {"dtype": "DT_FLOAT", "tensorShape": {"dim": [{"size": "256"}]}}}}}, {"name": "xception_65/entry_flow/block3/unit_1/xception_module/separable_conv1_depthwise/BatchNorm/FusedBatchNorm/Offset", "op": "Const", "attr": {"dtype": {"type": "DT_FLOAT"}, "value": {"tensor": {"dtype": "DT_FLOAT", "tensorShape": {"dim": [{"size": "256"}]}}}}}, {"name": "xception_65/entry_flow/block3/unit_1/xception_module/separable_conv1_pointwise/Conv2D/merged_input", "op": "Const", "attr": {"value": {"tensor": {"dtype": "DT_FLOAT", "tensorShape": {"dim": [{"size": "1"}, {"size": "1"}, {"size": "256"}, {"size": "728"}]}}}, "dtype": {"type": "DT_FLOAT"}}}, {"name": "xception_65/entry_flow/block3/unit_1/xception_module/separable_conv1_pointwise/BatchNorm/FusedBatchNorm/Offset", "op": "Const", "attr": {"value": {"tensor": {"dtype": "DT_FLOAT", "tensorShape": {"dim": [{"size": "728"}]}}}, "dtype": {"type": "DT_FLOAT"}}}, {"name": "xception_65/entry_flow/block3/unit_1/xception_module/separable_conv2_depthwise/depthwise_weights", "op": "Const", "attr": {"value": {"tensor": {"dtype": "DT_FLOAT", "tensorShape": {"dim": [{"size": "3"}, {"size": "3"}, {"size": "728"}, {"size": "1"}]}}}, "dtype": {"type": "DT_FLOAT"}}}, {"name": "xception_65/entry_flow/block3/unit_1/xception_module/separable_conv2_depthwise/BatchNorm/FusedBatchNorm/Scaled", "op": "Const", "attr": {"value": {"tensor": {"dtype": "DT_FLOAT", "tensorShape": {"dim": [{"size": "728"}]}}}, "dtype": {"type": "DT_FLOAT"}}}, {"name": "xception_65/entry_flow/block3/unit_1/xception_module/separable_conv2_depthwise/BatchNorm/FusedBatchNorm/Offset", "op": "Const", "attr": {"value": {"tensor": {"dtype": "DT_FLOAT", "tensorShape": {"dim": [{"size": "728"}]}}}, "dtype": {"type": "DT_FLOAT"}}}, {"name": "xception_65/entry_flow/block3/unit_1/xception_module/separable_conv2_pointwise/Conv2D/merged_input", "op": "Const", "attr": {"value": {"tensor": {"dtype": "DT_FLOAT", "tensorShape": {"dim": [{"size": "1"}, {"size": "1"}, {"size": "728"}, {"size": "728"}]}}}, "dtype": {"type": "DT_FLOAT"}}}, {"name": "xception_65/entry_flow/block3/unit_1/xception_module/separable_conv2_pointwise/BatchNorm/FusedBatchNorm/Offset", "op": "Const", "attr": {"value": {"tensor": {"dtype": "DT_FLOAT", "tensorShape": {"dim": [{"size": "728"}]}}}, "dtype": {"type": "DT_FLOAT"}}}, {"name": "xception_65/entry_flow/block3/unit_1/xception_module/separable_conv3_depthwise/depthwise_weights", "op": "Const", "attr": {"value": {"tensor": {"dtype": "DT_FLOAT", "tensorShape": {"dim": [{"size": "3"}, {"size": "3"}, {"size": "728"}, {"size": "1"}]}}}, "dtype": {"type": "DT_FLOAT"}}}, {"name": "xception_65/entry_flow/block3/unit_1/xception_module/separable_conv3_depthwise/BatchNorm/FusedBatchNorm/Scaled", "op": "Const", "attr": {"value": {"tensor": {"dtype": "DT_FLOAT", "tensorShape": {"dim": [{"size": "728"}]}}}, "dtype": {"type": "DT_FLOAT"}}}, {"name": "xception_65/entry_flow/block3/unit_1/xception_module/separable_conv3_depthwise/BatchNorm/FusedBatchNorm/Offset", "op": "Const", "attr": {"value": {"tensor": {"dtype": "DT_FLOAT", "tensorShape": {"dim": [{"size": "728"}]}}}, "dtype": {"type": "DT_FLOAT"}}}, {"name": "xception_65/entry_flow/block3/unit_1/xception_module/separable_conv3_pointwise/Conv2D/merged_input", "op": "Const", "attr": {"value": {"tensor": {"dtype": "DT_FLOAT", "tensorShape": {"dim": [{"size": "1"}, {"size": "1"}, {"size": "728"}, {"size": "728"}]}}}, "dtype": {"type": "DT_FLOAT"}}}, {"name": "xception_65/entry_flow/block2/unit_1/xception_module/separable_conv3_depthwise/depthwise_weights", "op": "Const", "attr": {"value": {"tensor": {"dtype": "DT_FLOAT", "tensorShape": {"dim": [{"size": "3"}, {"size": "3"}, {"size": "256"}, {"size": "1"}]}}}, "dtype": {"type": "DT_FLOAT"}}}, {"name": "xception_65/entry_flow/block2/unit_1/xception_module/separable_conv3_depthwise/BatchNorm/FusedBatchNorm/Scaled", "op": "Const", "attr": {"value": {"tensor": {"dtype": "DT_FLOAT", "tensorShape": {"dim": [{"size": "256"}]}}}, "dtype": {"type": "DT_FLOAT"}}}, {"name": "xception_65/entry_flow/block2/unit_1/xception_module/separable_conv3_depthwise/BatchNorm/FusedBatchNorm/Offset", "op": "Const", "attr": {"value": {"tensor": {"dtype": "DT_FLOAT", "tensorShape": {"dim": [{"size": "256"}]}}}, "dtype": {"type": "DT_FLOAT"}}}, {"name": "xception_65/entry_flow/block2/unit_1/xception_module/separable_conv3_pointwise/Conv2D/merged_input", "op": "Const", "attr": {"dtype": {"type": "DT_FLOAT"}, "value": {"tensor": {"dtype": "DT_FLOAT", "tensorShape": {"dim": [{"size": "1"}, {"size": "1"}, {"size": "256"}, {"size": "256"}]}}}}}, {"name": "xception_65/entry_flow/block2/unit_1/xception_module/separable_conv3_pointwise/BatchNorm/FusedBatchNorm/Offset", "op": "Const", "attr": {"value": {"tensor": {"dtype": "DT_FLOAT", "tensorShape": {"dim": [{"size": "256"}]}}}, "dtype": {"type": "DT_FLOAT"}}}, {"name": "xception_65/entry_flow/block2/unit_1/xception_module/shortcut/Conv2D/merged_input", "op": "Const", "attr": {"value": {"tensor": {"dtype": "DT_FLOAT", "tensorShape": {"dim": [{"size": "1"}, {"size": "1"}, {"size": "128"}, {"size": "256"}]}}}, "dtype": {"type": "DT_FLOAT"}}}, {"name": "xception_65/entry_flow/block2/unit_1/xception_module/shortcut/BatchNorm/FusedBatchNorm/Offset", "op": "Const", "attr": {"value": {"tensor": {"dtype": "DT_FLOAT", "tensorShape": {"dim": [{"size": "256"}]}}}, "dtype": {"type": "DT_FLOAT"}}}, {"name": "xception_65/entry_flow/block3/unit_1/xception_module/shortcut/Conv2D/merged_input", "op": "Const", "attr": {"value": {"tensor": {"dtype": "DT_FLOAT", "tensorShape": {"dim": [{"size": "1"}, {"size": "1"}, {"size": "256"}, {"size": "728"}]}}}, "dtype": {"type": "DT_FLOAT"}}}, {"name": "xception_65/exit_flow/block1/unit_1/xception_module/shortcut/Conv2D/merged_input", "op": "Const", "attr": {"value": {"tensor": {"dtype": "DT_FLOAT", "tensorShape": {"dim": [{"size": "1"}, {"size": "1"}, {"size": "728"}, {"size": "1024"}]}}}, "dtype": {"type": "DT_FLOAT"}}}, {"name": "xception_65/exit_flow/block1/unit_1/xception_module/shortcut/BatchNorm/FusedBatchNorm/Offset", "op": "Const", "attr": {"value": {"tensor": {"dtype": "DT_FLOAT", "tensorShape": {"dim": [{"size": "1024"}]}}}, "dtype": {"type": "DT_FLOAT"}}}, {"name": "xception_65/exit_flow/block2/unit_1/xception_module/separable_conv1_depthwise/depthwise_weights", "op": "Const", "attr": {"value": {"tensor": {"dtype": "DT_FLOAT", "tensorShape": {"dim": [{"size": "3"}, {"size": "3"}, {"size": "1024"}, {"size": "1"}]}}}, "dtype": {"type": "DT_FLOAT"}}}, {"name": "xception_65/exit_flow/block2/unit_1/xception_module/separable_conv1_depthwise/BatchNorm/FusedBatchNorm/Scaled", "op": "Const", "attr": {"value": {"tensor": {"dtype": "DT_FLOAT", "tensorShape": {"dim": [{"size": "1024"}]}}}, "dtype": {"type": "DT_FLOAT"}}}, {"name": "xception_65/exit_flow/block2/unit_1/xception_module/separable_conv1_depthwise/BatchNorm/FusedBatchNorm/Offset", "op": "Const", "attr": {"value": {"tensor": {"dtype": "DT_FLOAT", "tensorShape": {"dim": [{"size": "1024"}]}}}, "dtype": {"type": "DT_FLOAT"}}}, {"name": "xception_65/exit_flow/block2/unit_1/xception_module/separable_conv1_pointwise/Conv2D/merged_input", "op": "Const", "attr": {"value": {"tensor": {"dtype": "DT_FLOAT", "tensorShape": {"dim": [{"size": "1"}, {"size": "1"}, {"size": "1024"}, {"size": "1536"}]}}}, "dtype": {"type": "DT_FLOAT"}}}, {"name": "xception_65/exit_flow/block2/unit_1/xception_module/separable_conv1_pointwise/BatchNorm/FusedBatchNorm/Offset", "op": "Const", "attr": {"value": {"tensor": {"dtype": "DT_FLOAT", "tensorShape": {"dim": [{"size": "1536"}]}}}, "dtype": {"type": "DT_FLOAT"}}}, {"name": "xception_65/exit_flow/block2/unit_1/xception_module/separable_conv2_depthwise/depthwise_weights", "op": "Const", "attr": {"value": {"tensor": {"dtype": "DT_FLOAT", "tensorShape": {"dim": [{"size": "3"}, {"size": "3"}, {"size": "1536"}, {"size": "1"}]}}}, "dtype": {"type": "DT_FLOAT"}}}, {"name": "xception_65/exit_flow/block2/unit_1/xception_module/separable_conv2_depthwise/BatchNorm/FusedBatchNorm/Scaled", "op": "Const", "attr": {"value": {"tensor": {"dtype": "DT_FLOAT", "tensorShape": {"dim": [{"size": "1536"}]}}}, "dtype": {"type": "DT_FLOAT"}}}, {"name": "xception_65/exit_flow/block2/unit_1/xception_module/separable_conv2_depthwise/BatchNorm/FusedBatchNorm/Offset", "op": "Const", "attr": {"dtype": {"type": "DT_FLOAT"}, "value": {"tensor": {"dtype": "DT_FLOAT", "tensorShape": {"dim": [{"size": "1536"}]}}}}}, {"name": "xception_65/exit_flow/block2/unit_1/xception_module/separable_conv2_pointwise/Conv2D/merged_input", "op": "Const", "attr": {"value": {"tensor": {"dtype": "DT_FLOAT", "tensorShape": {"dim": [{"size": "1"}, {"size": "1"}, {"size": "1536"}, {"size": "1536"}]}}}, "dtype": {"type": "DT_FLOAT"}}}, {"name": "xception_65/exit_flow/block2/unit_1/xception_module/separable_conv2_pointwise/BatchNorm/FusedBatchNorm/Offset", "op": "Const", "attr": {"value": {"tensor": {"dtype": "DT_FLOAT", "tensorShape": {"dim": [{"size": "1536"}]}}}, "dtype": {"type": "DT_FLOAT"}}}, {"name": "xception_65/exit_flow/block2/unit_1/xception_module/separable_conv1_depthwise/depthwise/SpaceToBatchND/paddings", "op": "Const", "attr": {"value": {"tensor": {"dtype": "DT_INT32", "tensorShape": {"dim": [{"size": "2"}, {"size": "2"}]}}}, "dtype": {"type": "DT_INT32"}}}, {"name": "xception_65/exit_flow/block2/unit_1/xception_module/separable_conv3_depthwise/depthwise_weights", "op": "Const", "attr": {"value": {"tensor": {"dtype": "DT_FLOAT", "tensorShape": {"dim": [{"size": "3"}, {"size": "3"}, {"size": "1536"}, {"size": "1"}]}}}, "dtype": {"type": "DT_FLOAT"}}}, {"name": "xception_65/exit_flow/block2/unit_1/xception_module/separable_conv1_depthwise/depthwise/SpaceToBatchND/block_shape", "op": "Const", "attr": {"value": {"tensor": {"dtype": "DT_INT32", "tensorShape": {"dim": [{"size": "2"}]}}}, "dtype": {"type": "DT_INT32"}}}, {"name": "xception_65/exit_flow/block2/unit_1/xception_module/separable_conv1_depthwise/depthwise/BatchToSpaceND/crops", "op": "Const", "attr": {"value": {"tensor": {"dtype": "DT_INT32", "tensorShape": {"dim": [{"size": "2"}, {"size": "2"}]}}}, "dtype": {"type": "DT_INT32"}}}, {"name": "xception_65/exit_flow/block2/unit_1/xception_module/separable_conv3_depthwise/BatchNorm/FusedBatchNorm/Scaled", "op": "Const", "attr": {"dtype": {"type": "DT_FLOAT"}, "value": {"tensor": {"dtype": "DT_FLOAT", "tensorShape": {"dim": [{"size": "1536"}]}}}}}, {"name": "xception_65/exit_flow/block2/unit_1/xception_module/separable_conv3_depthwise/BatchNorm/FusedBatchNorm/Offset", "op": "Const", "attr": {"value": {"tensor": {"dtype": "DT_FLOAT", "tensorShape": {"dim": [{"size": "1536"}]}}}, "dtype": {"type": "DT_FLOAT"}}}, {"name": "xception_65/exit_flow/block2/unit_1/xception_module/separable_conv3_pointwise/weights", "op": "Const", "attr": {"dtype": {"type": "DT_FLOAT"}, "value": {"tensor": {"dtype": "DT_FLOAT", "tensorShape": {"dim": [{"size": "1"}, {"size": "1"}, {"size": "1536"}, {"size": "2048"}]}}}}}, {"name": "xception_65/exit_flow/block2/unit_1/xception_module/separable_conv3_pointwise/BatchNorm/FusedBatchNorm/Scaled", "op": "Const", "attr": {"value": {"tensor": {"dtype": "DT_FLOAT", "tensorShape": {"dim": [{"size": "2048"}]}}}, "dtype": {"type": "DT_FLOAT"}}}, {"name": "xception_65/exit_flow/block2/unit_1/xception_module/separable_conv3_pointwise/BatchNorm/FusedBatchNorm/Offset", "op": "Const", "attr": {"value": {"tensor": {"dtype": "DT_FLOAT", "tensorShape": {"dim": [{"size": "2048"}]}}}, "dtype": {"type": "DT_FLOAT"}}}, {"name": "aspp3_depthwise/depthwise/SpaceToBatchND/paddings", "op": "Const", "attr": {"value": {"tensor": {"dtype": "DT_INT32", "tensorShape": {"dim": [{"size": "2"}, {"size": "2"}]}}}, "dtype": {"type": "DT_INT32"}}}, {"name": "aspp3_depthwise/depthwise_weights", "op": "Const", "attr": {"value": {"tensor": {"dtype": "DT_FLOAT", "tensorShape": {"dim": [{"size": "3"}, {"size": "3"}, {"size": "2048"}, {"size": "1"}]}}}, "dtype": {"type": "DT_FLOAT"}}}, {"name": "aspp3_depthwise/depthwise/SpaceToBatchND/block_shape", "op": "Const", "attr": {"value": {"tensor": {"dtype": "DT_INT32", "tensorShape": {"dim": [{"size": "2"}]}}}, "dtype": {"type": "DT_INT32"}}}, {"name": "aspp1_depthwise/depthwise/BatchToSpaceND/crops", "op": "Const", "attr": {"value": {"tensor": {"dtype": "DT_INT32", "tensorShape": {"dim": [{"size": "2"}, {"size": "2"}]}}}, "dtype": {"type": "DT_INT32"}}}, {"name": "aspp3_depthwise/BatchNorm/FusedBatchNorm/Scaled", "op": "Const", "attr": {"value": {"tensor": {"dtype": "DT_FLOAT", "tensorShape": {"dim": [{"size": "2048"}]}}}, "dtype": {"type": "DT_FLOAT"}}}, {"name": "aspp3_depthwise/BatchNorm/FusedBatchNorm/Offset", "op": "Const", "attr": {"value": {"tensor": {"dtype": "DT_FLOAT", "tensorShape": {"dim": [{"size": "2048"}]}}}, "dtype": {"type": "DT_FLOAT"}}}, {"name": "aspp3_pointwise/Conv2D/merged_input", "op": "Const", "attr": {"value": {"tensor": {"dtype": "DT_FLOAT", "tensorShape": {"dim": [{"size": "1"}, {"size": "1"}, {"size": "2048"}, {"size": "256"}]}}}, "dtype": {"type": "DT_FLOAT"}}}, {"name": "aspp3_pointwise/BatchNorm/FusedBatchNorm/Offset", "op": "Const", "attr": {"value": {"tensor": {"dtype": "DT_FLOAT", "tensorShape": {"dim": [{"size": "256"}]}}}, "dtype": {"type": "DT_FLOAT"}}}, {"name": "concat_projection/Conv2D/merged_input", "op": "Const", "attr": {"value": {"tensor": {"dtype": "DT_FLOAT", "tensorShape": {"dim": [{"size": "1"}, {"size": "1"}, {"size": "1280"}, {"size": "256"}]}}}, "dtype": {"type": "DT_FLOAT"}}}, {"name": "concat_projection/BatchNorm/FusedBatchNorm/Offset", "op": "Const", "attr": {"value": {"tensor": {"dtype": "DT_FLOAT", "tensorShape": {"dim": [{"size": "256"}]}}}, "dtype": {"type": "DT_FLOAT"}}}, {"name": "xception_65/entry_flow/block1/unit_1/xception_module/separable_conv1_depthwise/depthwise_weights", "op": "Const", "attr": {"dtype": {"type": "DT_FLOAT"}, "value": {"tensor": {"dtype": "DT_FLOAT", "tensorShape": {"dim": [{"size": "3"}, {"size": "3"}, {"size": "64"}, {"size": "1"}]}}}}}, {"name": "xception_65/entry_flow/block1/unit_1/xception_module/separable_conv1_depthwise/BatchNorm/FusedBatchNorm/Scaled", "op": "Const", "attr": {"dtype": {"type": "DT_FLOAT"}, "value": {"tensor": {"dtype": "DT_FLOAT", "tensorShape": {"dim": [{"size": "64"}]}}}}}, {"name": "xception_65/entry_flow/block1/unit_1/xception_module/separable_conv1_depthwise/BatchNorm/FusedBatchNorm/Offset", "op": "Const", "attr": {"value": {"tensor": {"dtype": "DT_FLOAT", "tensorShape": {"dim": [{"size": "64"}]}}}, "dtype": {"type": "DT_FLOAT"}}}, {"name": "xception_65/entry_flow/block1/unit_1/xception_module/separable_conv1_pointwise/Conv2D/merged_input", "op": "Const", "attr": {"value": {"tensor": {"dtype": "DT_FLOAT", "tensorShape": {"dim": [{"size": "1"}, {"size": "1"}, {"size": "64"}, {"size": "128"}]}}}, "dtype": {"type": "DT_FLOAT"}}}, {"name": "xception_65/entry_flow/block1/unit_1/xception_module/separable_conv1_pointwise/BatchNorm/FusedBatchNorm/Offset", "op": "Const", "attr": {"value": {"tensor": {"dtype": "DT_FLOAT", "tensorShape": {"dim": [{"size": "128"}]}}}, "dtype": {"type": "DT_FLOAT"}}}, {"name": "xception_65/entry_flow/block1/unit_1/xception_module/separable_conv2_depthwise/depthwise_weights", "op": "Const", "attr": {"value": {"tensor": {"dtype": "DT_FLOAT", "tensorShape": {"dim": [{"size": "3"}, {"size": "3"}, {"size": "128"}, {"size": "1"}]}}}, "dtype": {"type": "DT_FLOAT"}}}, {"name": "xception_65/entry_flow/block1/unit_1/xception_module/separable_conv2_depthwise/BatchNorm/FusedBatchNorm/Scaled", "op": "Const", "attr": {"value": {"tensor": {"dtype": "DT_FLOAT", "tensorShape": {"dim": [{"size": "128"}]}}}, "dtype": {"type": "DT_FLOAT"}}}, {"name": "xception_65/entry_flow/block1/unit_1/xception_module/separable_conv2_depthwise/BatchNorm/FusedBatchNorm/Offset", "op": "Const", "attr": {"value": {"tensor": {"dtype": "DT_FLOAT", "tensorShape": {"dim": [{"size": "128"}]}}}, "dtype": {"type": "DT_FLOAT"}}}, {"name": "xception_65/entry_flow/block1/unit_1/xception_module/separable_conv2_pointwise/Conv2D/merged_input", "op": "Const", "attr": {"value": {"tensor": {"dtype": "DT_FLOAT", "tensorShape": {"dim": [{"size": "1"}, {"size": "1"}, {"size": "128"}, {"size": "128"}]}}}, "dtype": {"type": "DT_FLOAT"}}}, {"name": "xception_65/entry_flow/block1/unit_1/xception_module/separable_conv2_pointwise/BatchNorm/FusedBatchNorm/Offset", "op": "Const", "attr": {"dtype": {"type": "DT_FLOAT"}, "value": {"tensor": {"dtype": "DT_FLOAT", "tensorShape": {"dim": [{"size": "128"}]}}}}}, {"name": "xception_65/entry_flow/block1/unit_1/xception_module/separable_conv3_depthwise/depthwise_weights", "op": "Const", "attr": {"value": {"tensor": {"dtype": "DT_FLOAT", "tensorShape": {"dim": [{"size": "3"}, {"size": "3"}, {"size": "128"}, {"size": "1"}]}}}, "dtype": {"type": "DT_FLOAT"}}}, {"name": "xception_65/entry_flow/block1/unit_1/xception_module/separable_conv3_depthwise/BatchNorm/FusedBatchNorm/Scaled", "op": "Const", "attr": {"value": {"tensor": {"dtype": "DT_FLOAT", "tensorShape": {"dim": [{"size": "128"}]}}}, "dtype": {"type": "DT_FLOAT"}}}, {"name": "xception_65/entry_flow/block1/unit_1/xception_module/separable_conv3_depthwise/BatchNorm/FusedBatchNorm/Offset", "op": "Const", "attr": {"value": {"tensor": {"dtype": "DT_FLOAT", "tensorShape": {"dim": [{"size": "128"}]}}}, "dtype": {"type": "DT_FLOAT"}}}, {"name": "xception_65/entry_flow/block1/unit_1/xception_module/separable_conv3_pointwise/Conv2D/merged_input", "op": "Const", "attr": {"dtype": {"type": "DT_FLOAT"}, "value": {"tensor": {"dtype": "DT_FLOAT", "tensorShape": {"dim": [{"size": "1"}, {"size": "1"}, {"size": "128"}, {"size": "128"}]}}}}}, {"name": "xception_65/entry_flow/block1/unit_1/xception_module/separable_conv3_pointwise/BatchNorm/FusedBatchNorm/Offset", "op": "Const", "attr": {"value": {"tensor": {"dtype": "DT_FLOAT", "tensorShape": {"dim": [{"size": "128"}]}}}, "dtype": {"type": "DT_FLOAT"}}}, {"name": "mul_1/x", "op": "Const", "attr": {"value": {"tensor": {"dtype": "DT_FLOAT", "tensorShape": {}}}, "dtype": {"type": "DT_FLOAT"}}}, {"name": "sub_1/x", "op": "Const", "attr": {"value": {"tensor": {"dtype": "DT_INT32", "tensorShape": {}}}, "dtype": {"type": "DT_INT32"}}}, {"name": "stack_2", "op": "Const", "attr": {"value": {"tensor": {"dtype": "DT_INT32", "tensorShape": {"dim": [{"size": "2"}]}}}, "dtype": {"type": "DT_INT32"}}}, {"name": "Reshape", "op": "Const", "attr": {"dtype": {"type": "DT_FLOAT"}, "value": {"tensor": {"dtype": "DT_FLOAT", "tensorShape": {"dim": [{"size": "1"}, {"size": "1"}, {"size": "3"}]}}}}}, {"name": "stack/0", "op": "Const", "attr": {"value": {"tensor": {"dtype": "DT_INT32", "tensorShape": {}}}, "dtype": {"type": "DT_INT32"}}}, {"name": "ToFloat/x", "op": "Const", "attr": {"value": {"tensor": {"dtype": "DT_FLOAT", "tensorShape": {}}}, "dtype": {"type": "DT_FLOAT"}}}, {"name": "xception_65/entry_flow/block2/unit_1/xception_module/Pad/paddings", "op": "Const", "attr": {"value": {"tensor": {"dtype": "DT_INT32", "tensorShape": {"dim": [{"size": "4"}, {"size": "2"}]}}}, "dtype": {"type": "DT_INT32"}}}, {"name": "xception_65/entry_flow/conv1_1/Conv2D/merged_input", "op": "Const", "attr": {"value": {"tensor": {"dtype": "DT_FLOAT", "tensorShape": {"dim": [{"size": "3"}, {"size": "3"}, {"size": "3"}, {"size": "32"}]}}}, "dtype": {"type": "DT_FLOAT"}}}, {"name": "xception_65/entry_flow/conv1_1/BatchNorm/FusedBatchNorm/Offset", "op": "Const", "attr": {"dtype": {"type": "DT_FLOAT"}, "value": {"tensor": {"dtype": "DT_FLOAT", "tensorShape": {"dim": [{"size": "32"}]}}}}}, {"name": "xception_65/entry_flow/conv1_2/Conv2D/merged_input", "op": "Const", "attr": {"value": {"tensor": {"dtype": "DT_FLOAT", "tensorShape": {"dim": [{"size": "3"}, {"size": "3"}, {"size": "32"}, {"size": "64"}]}}}, "dtype": {"type": "DT_FLOAT"}}}, {"name": "xception_65/entry_flow/conv1_2/BatchNorm/FusedBatchNorm/Offset", "op": "Const", "attr": {"value": {"tensor": {"dtype": "DT_FLOAT", "tensorShape": {"dim": [{"size": "64"}]}}}, "dtype": {"type": "DT_FLOAT"}}}, {"name": "xception_65/entry_flow/block1/unit_1/xception_module/shortcut/Conv2D/merged_input", "op": "Const", "attr": {"value": {"tensor": {"dtype": "DT_FLOAT", "tensorShape": {"dim": [{"size": "1"}, {"size": "1"}, {"size": "64"}, {"size": "128"}]}}}, "dtype": {"type": "DT_FLOAT"}}}, {"name": "xception_65/entry_flow/block1/unit_1/xception_module/shortcut/BatchNorm/FusedBatchNorm/Offset", "op": "Const", "attr": {"value": {"tensor": {"dtype": "DT_FLOAT", "tensorShape": {"dim": [{"size": "128"}]}}}, "dtype": {"type": "DT_FLOAT"}}}, {"name": "xception_65/entry_flow/block2/unit_1/xception_module/separable_conv1_depthwise/depthwise_weights", "op": "Const", "attr": {"value": {"tensor": {"dtype": "DT_FLOAT", "tensorShape": {"dim": [{"size": "3"}, {"size": "3"}, {"size": "128"}, {"size": "1"}]}}}, "dtype": {"type": "DT_FLOAT"}}}, {"name": "xception_65/entry_flow/block2/unit_1/xception_module/separable_conv1_depthwise/BatchNorm/FusedBatchNorm/Scaled", "op": "Const", "attr": {"value": {"tensor": {"dtype": "DT_FLOAT", "tensorShape": {"dim": [{"size": "128"}]}}}, "dtype": {"type": "DT_FLOAT"}}}, {"name": "xception_65/entry_flow/block2/unit_1/xception_module/separable_conv1_depthwise/BatchNorm/FusedBatchNorm/Offset", "op": "Const", "attr": {"value": {"tensor": {"dtype": "DT_FLOAT", "tensorShape": {"dim": [{"size": "128"}]}}}, "dtype": {"type": "DT_FLOAT"}}}, {"name": "xception_65/entry_flow/block2/unit_1/xception_module/separable_conv1_pointwise/Conv2D/merged_input", "op": "Const", "attr": {"value": {"tensor": {"dtype": "DT_FLOAT", "tensorShape": {"dim": [{"size": "1"}, {"size": "1"}, {"size": "128"}, {"size": "256"}]}}}, "dtype": {"type": "DT_FLOAT"}}}, {"name": "xception_65/entry_flow/block2/unit_1/xception_module/separable_conv1_pointwise/BatchNorm/FusedBatchNorm/Offset", "op": "Const", "attr": {"value": {"tensor": {"dtype": "DT_FLOAT", "tensorShape": {"dim": [{"size": "256"}]}}}, "dtype": {"type": "DT_FLOAT"}}}, {"name": "xception_65/entry_flow/block2/unit_1/xception_module/separable_conv2_depthwise/depthwise_weights", "op": "Const", "attr": {"value": {"tensor": {"dtype": "DT_FLOAT", "tensorShape": {"dim": [{"size": "3"}, {"size": "3"}, {"size": "256"}, {"size": "1"}]}}}, "dtype": {"type": "DT_FLOAT"}}}, {"name": "xception_65/entry_flow/block2/unit_1/xception_module/separable_conv2_depthwise/BatchNorm/FusedBatchNorm/Scaled", "op": "Const", "attr": {"value": {"tensor": {"dtype": "DT_FLOAT", "tensorShape": {"dim": [{"size": "256"}]}}}, "dtype": {"type": "DT_FLOAT"}}}, {"name": "xception_65/entry_flow/block2/unit_1/xception_module/separable_conv2_depthwise/BatchNorm/FusedBatchNorm/Offset", "op": "Const", "attr": {"value": {"tensor": {"dtype": "DT_FLOAT", "tensorShape": {"dim": [{"size": "256"}]}}}, "dtype": {"type": "DT_FLOAT"}}}, {"name": "xception_65/entry_flow/block2/unit_1/xception_module/separable_conv2_pointwise/Conv2D/merged_input", "op": "Const", "attr": {"value": {"tensor": {"dtype": "DT_FLOAT", "tensorShape": {"dim": [{"size": "1"}, {"size": "1"}, {"size": "256"}, {"size": "256"}]}}}, "dtype": {"type": "DT_FLOAT"}}}, {"name": "xception_65/entry_flow/block2/unit_1/xception_module/separable_conv2_pointwise/BatchNorm/FusedBatchNorm/Offset", "op": "Const", "attr": {"value": {"tensor": {"dtype": "DT_FLOAT", "tensorShape": {"dim": [{"size": "256"}]}}}, "dtype": {"type": "DT_FLOAT"}}}, {"name": "decoder/feature_projection0/Conv2D/merged_input", "op": "Const", "attr": {"value": {"tensor": {"dtype": "DT_FLOAT", "tensorShape": {"dim": [{"size": "1"}, {"size": "1"}, {"size": "256"}, {"size": "48"}]}}}, "dtype": {"type": "DT_FLOAT"}}}, {"name": "decoder/feature_projection0/BatchNorm/FusedBatchNorm/Offset", "op": "Const", "attr": {"value": {"tensor": {"dtype": "DT_FLOAT", "tensorShape": {"dim": [{"size": "48"}]}}}, "dtype": {"type": "DT_FLOAT"}}}, {"name": "decoder/decoder_conv0_depthwise/depthwise_weights", "op": "Const", "attr": {"value": {"tensor": {"dtype": "DT_FLOAT", "tensorShape": {"dim": [{"size": "3"}, {"size": "3"}, {"size": "304"}, {"size": "1"}]}}}, "dtype": {"type": "DT_FLOAT"}}}, {"name": "decoder/decoder_conv0_depthwise/BatchNorm/FusedBatchNorm/Scaled", "op": "Const", "attr": {"value": {"tensor": {"dtype": "DT_FLOAT", "tensorShape": {"dim": [{"size": "304"}]}}}, "dtype": {"type": "DT_FLOAT"}}}, {"name": "decoder/decoder_conv0_depthwise/BatchNorm/FusedBatchNorm/Offset", "op": "Const", "attr": {"dtype": {"type": "DT_FLOAT"}, "value": {"tensor": {"dtype": "DT_FLOAT", "tensorShape": {"dim": [{"size": "304"}]}}}}}, {"name": "decoder/decoder_conv0_pointwise/Conv2D/merged_input", "op": "Const", "attr": {"value": {"tensor": {"dtype": "DT_FLOAT", "tensorShape": {"dim": [{"size": "1"}, {"size": "1"}, {"size": "304"}, {"size": "256"}]}}}, "dtype": {"type": "DT_FLOAT"}}}, {"name": "decoder/decoder_conv0_pointwise/BatchNorm/FusedBatchNorm/Offset", "op": "Const", "attr": {"value": {"tensor": {"dtype": "DT_FLOAT", "tensorShape": {"dim": [{"size": "256"}]}}}, "dtype": {"type": "DT_FLOAT"}}}, {"name": "decoder/decoder_conv1_depthwise/depthwise_weights", "op": "Const", "attr": {"dtype": {"type": "DT_FLOAT"}, "value": {"tensor": {"dtype": "DT_FLOAT", "tensorShape": {"dim": [{"size": "3"}, {"size": "3"}, {"size": "256"}, {"size": "1"}]}}}}}, {"name": "decoder/decoder_conv1_depthwise/BatchNorm/FusedBatchNorm/Scaled", "op": "Const", "attr": {"value": {"tensor": {"dtype": "DT_FLOAT", "tensorShape": {"dim": [{"size": "256"}]}}}, "dtype": {"type": "DT_FLOAT"}}}, {"name": "decoder/decoder_conv1_depthwise/BatchNorm/FusedBatchNorm/Offset", "op": "Const", "attr": {"value": {"tensor": {"dtype": "DT_FLOAT", "tensorShape": {"dim": [{"size": "256"}]}}}, "dtype": {"type": "DT_FLOAT"}}}, {"name": "decoder/decoder_conv1_pointwise/Conv2D/merged_input", "op": "Const", "attr": {"value": {"tensor": {"dtype": "DT_FLOAT", "tensorShape": {"dim": [{"size": "1"}, {"size": "1"}, {"size": "256"}, {"size": "256"}]}}}, "dtype": {"type": "DT_FLOAT"}}}, {"name": "decoder/decoder_conv1_pointwise/BatchNorm/FusedBatchNorm/Offset", "op": "Const", "attr": {"value": {"tensor": {"dtype": "DT_FLOAT", "tensorShape": {"dim": [{"size": "256"}]}}}, "dtype": {"type": "DT_FLOAT"}}}, {"name": "logits/semantic/weights", "op": "Const", "attr": {"value": {"tensor": {"dtype": "DT_FLOAT", "tensorShape": {"dim": [{"size": "1"}, {"size": "1"}, {"size": "256"}, {"size": "21"}]}}}, "dtype": {"type": "DT_FLOAT"}}}, {"name": "logits/semantic/biases", "op": "Const", "attr": {"value": {"tensor": {"dtype": "DT_FLOAT", "tensorShape": {"dim": [{"size": "21"}]}}}, "dtype": {"type": "DT_FLOAT"}}}, {"name": "decoder/ResizeBilinear/size", "op": "Const", "attr": {"value": {"tensor": {"dtype": "DT_INT32", "tensorShape": {"dim": [{"size": "2"}]}}}, "dtype": {"type": "DT_INT32"}}}, {"name": "strided_slice_7", "op": "Const", "attr": {"value": {"tensor": {"dtype": "DT_INT32", "tensorShape": {"dim": [{"size": "2"}]}}}, "dtype": {"type": "DT_INT32"}}}, {"name": "concat/axis", "op": "Const", "attr": {"value": {"tensor": {"dtype": "DT_INT32", "tensorShape": {}}}, "dtype": {"type": "DT_INT32"}}}, {"name": "SemanticPredictions/begin", "op": "Const", "attr": {"value": {"tensor": {"dtype": "DT_INT32", "tensorShape": {"dim": [{"size": "3"}]}}}, "dtype": {"type": "DT_INT32"}}}, {"name": "SemanticPredictions/size/0", "op": "Const", "attr": {"value": {"tensor": {"dtype": "DT_INT32", "tensorShape": {}}}, "dtype": {"type": "DT_INT32"}}}, {"name": "strided_slice_3/stack", "op": "Const", "attr": {"value": {"tensor": {"dtype": "DT_INT32", "tensorShape": {"dim": [{"size": "1"}]}}}, "dtype": {"type": "DT_INT32"}}}, {"name": "ImageTensor", "op": "Placeholder", "attr": {"shape": {"shape": {"dim": [{"size": "1"}, {"size": "-1"}, {"size": "-1"}, {"size": "3"}]}}, "dtype": {"type": "DT_UINT8"}}}, {"name": "strided_slice/stack_1", "op": "Const", "attr": {"value": {"tensor": {"dtype": "DT_INT32", "tensorShape": {"dim": [{"size": "1"}]}}}, "dtype": {"type": "DT_INT32"}}}, {"name": "strided_slice_4/stack_1", "op": "Const", "attr": {"value": {"tensor": {"dtype": "DT_INT32", "tensorShape": {"dim": [{"size": "1"}]}}}, "dtype": {"type": "DT_INT32"}}}, {"name": "strided_slice_4/stack", "op": "Const", "attr": {"dtype": {"type": "DT_INT32"}, "value": {"tensor": {"dtype": "DT_INT32", "tensorShape": {"dim": [{"size": "1"}]}}}}}, {"name": "xception_65/exit_flow/block2/unit_1/xception_module/separable_conv3_pointwise/Conv2D/merged_input", "op": "Mul", "input": ["xception_65/exit_flow/block2/unit_1/xception_module/separable_conv3_pointwise/weights", "xception_65/exit_flow/block2/unit_1/xception_module/separable_conv3_pointwise/BatchNorm/FusedBatchNorm/Scaled"], "attr": {"T": {"type": "DT_FLOAT"}}}, {"name": "Squeeze", "op": "Squeeze", "input": ["ImageTensor"], "attr": {"squeeze_dims": {"list": {"i": ["0"]}}, "T": {"type": "DT_UINT8"}}}, {"name": "Shape", "op": "Shape", "input": ["ImageTensor"], "attr": {"T": {"type": "DT_UINT8"}, "out_type": {"type": "DT_INT32"}}}, {"name": "Cast", "op": "Cast", "input": ["Squeeze"], "attr": {"DstT": {"type": "DT_FLOAT"}, "SrcT": {"type": "DT_UINT8"}, "Truncate": {"b": false}}}, {"name": "strided_slice", "op": "StridedSlice", "input": ["Shape", "strided_slice_4/stack", "strided_slice/stack_1", "strided_slice_4/stack"], "attr": {"end_mask": {"i": "0"}, "Index": {"type": "DT_INT32"}, "T": {"type": "DT_INT32"}, "shrink_axis_mask": {"i": "0"}, "ellipsis_mask": {"i": "0"}, "begin_mask": {"i": "0"}, "new_axis_mask": {"i": "0"}}}, {"name": "ExpandDims", "op": "ExpandDims", "input": ["Cast", "stack/0"], "attr": {"T": {"type": "DT_FLOAT"}, "Tdim": {"type": "DT_INT32"}}}, {"name": "Shape_1", "op": "Shape", "input": ["Cast"], "attr": {"T": {"type": "DT_FLOAT"}, "out_type": {"type": "DT_INT32"}}}, {"name": "strided_slice_8", "op": "StridedSlice", "input": ["strided_slice", "strided_slice_3/stack", "strided_slice_4/stack", "strided_slice_4/stack"], "attr": {"shrink_axis_mask": {"i": "1"}, "ellipsis_mask": {"i": "0"}, "begin_mask": {"i": "0"}, "new_axis_mask": {"i": "0"}, "end_mask": {"i": "0"}, "T": {"type": "DT_INT32"}, "Index": {"type": "DT_INT32"}}}, {"name": "strided_slice_9", "op": "StridedSlice", "input": ["strided_slice", "strided_slice_4/stack", "strided_slice_4/stack_1", "strided_slice_4/stack"], "attr": {"shrink_axis_mask": {"i": "1"}, "ellipsis_mask": {"i": "0"}, "begin_mask": {"i": "0"}, "new_axis_mask": {"i": "0"}, "end_mask": {"i": "0"}, "Index": {"type": "DT_INT32"}, "T": {"type": "DT_INT32"}}}, {"name": "strided_slice_1", "op": "StridedSlice", "input": ["Shape_1", "strided_slice_3/stack", "strided_slice_4/stack", "strided_slice_4/stack"], "attr": {"new_axis_mask": {"i": "0"}, "end_mask": {"i": "0"}, "Index": {"type": "DT_INT32"}, "T": {"type": "DT_INT32"}, "shrink_axis_mask": {"i": "1"}, "begin_mask": {"i": "0"}, "ellipsis_mask": {"i": "0"}}}, {"name": "strided_slice_2", "op": "StridedSlice", "input": ["Shape_1", "strided_slice_4/stack", "strided_slice_4/stack_1", "strided_slice_4/stack"], "attr": {"shrink_axis_mask": {"i": "1"}, "ellipsis_mask": {"i": "0"}, "begin_mask": {"i": "0"}, "new_axis_mask": {"i": "0"}, "end_mask": {"i": "0"}, "Index": {"type": "DT_INT32"}, "T": {"type": "DT_INT32"}}}, {"name": "SemanticPredictions/size", "op": "Pack", "input": ["SemanticPredictions/size/0", "strided_slice_8", "strided_slice_9"], "attr": {"T": {"type": "DT_INT32"}, "axis": {"i": "0"}, "N": {"i": "3"}}}, {"name": "ToFloat_1/x", "op": "Pack", "input": ["strided_slice_1", "strided_slice_2"], "attr": {"T": {"type": "DT_INT32"}, "axis": {"i": "0"}, "N": {"i": "2"}}}, {"name": "ToFloat_1", "op": "Cast", "input": ["ToFloat_1/x"], "attr": {"Truncate": {"b": false}, "DstT": {"type": "DT_FLOAT"}, "SrcT": {"type": "DT_INT32"}}}, {"name": "ToInt32", "op": "Cast", "input": ["ToFloat_1"], "attr": {"DstT": {"type": "DT_INT32"}, "SrcT": {"type": "DT_FLOAT"}, "Truncate": {"b": false}}}, {"name": "ResizeBilinear", "op": "ResizeBilinear", "input": ["ExpandDims", "ToInt32"], "attr": {"align_corners": {"b": true}, "T": {"type": "DT_FLOAT"}}}, {"name": "Squeeze_1", "op": "Squeeze", "input": ["ResizeBilinear"], "attr": {"squeeze_dims": {"list": {"i": ["0"]}}, "T": {"type": "DT_FLOAT"}}}, {"name": "Shape_2", "op": "Shape", "input": ["Squeeze_1"], "attr": {"T": {"type": "DT_FLOAT"}, "out_type": {"type": "DT_INT32"}}}, {"name": "sub_2", "op": "Sub", "input": ["Squeeze_1", "Reshape"], "attr": {"T": {"type": "DT_FLOAT"}}}, {"name": "strided_slice_3", "op": "StridedSlice", "input": ["Shape_2", "strided_slice_3/stack", "strided_slice_4/stack", "strided_slice_4/stack"], "attr": {"T": {"type": "DT_INT32"}, "Index": {"type": "DT_INT32"}, "shrink_axis_mask": {"i": "1"}, "begin_mask": {"i": "0"}, "ellipsis_mask": {"i": "0"}, "new_axis_mask": {"i": "0"}, "end_mask": {"i": "0"}}}, {"name": "strided_slice_4", "op": "StridedSlice", "input": ["Shape_2", "strided_slice_4/stack", "strided_slice_4/stack_1", "strided_slice_4/stack"], "attr": {"T": {"type": "DT_INT32"}, "Index": {"type": "DT_INT32"}, "shrink_axis_mask": {"i": "1"}, "ellipsis_mask": {"i": "0"}, "begin_mask": {"i": "0"}, "new_axis_mask": {"i": "0"}, "end_mask": {"i": "0"}}}, {"name": "Shape_3", "op": "Shape", "input": ["sub_2"], "attr": {"T": {"type": "DT_FLOAT"}, "out_type": {"type": "DT_INT32"}}}, {"name": "sub", "op": "Sub", "input": ["sub_1/x", "strided_slice_3"], "attr": {"T": {"type": "DT_INT32"}}}, {"name": "sub_1", "op": "Sub", "input": ["sub_1/x", "strided_slice_4"], "attr": {"T": {"type": "DT_INT32"}}}, {"name": "strided_slice_5", "op": "StridedSlice", "input": ["Shape_3", "strided_slice_3/stack", "strided_slice_4/stack", "strided_slice_4/stack"], "attr": {"T": {"type": "DT_INT32"}, "Index": {"type": "DT_INT32"}, "shrink_axis_mask": {"i": "1"}, "ellipsis_mask": {"i": "0"}, "begin_mask": {"i": "0"}, "new_axis_mask": {"i": "0"}, "end_mask": {"i": "0"}}}, {"name": "strided_slice_6", "op": "StridedSlice", "input": ["Shape_3", "strided_slice_4/stack", "strided_slice_4/stack_1", "strided_slice_4/stack"], "attr": {"begin_mask": {"i": "0"}, "ellipsis_mask": {"i": "0"}, "new_axis_mask": {"i": "0"}, "end_mask": {"i": "0"}, "Index": {"type": "DT_INT32"}, "T": {"type": "DT_INT32"}, "shrink_axis_mask": {"i": "1"}}}, {"name": "Maximum", "op": "Maximum", "input": ["sub", "stack/0"], "attr": {"T": {"type": "DT_INT32"}}}, {"name": "Maximum_1", "op": "Maximum", "input": ["sub_1", "stack/0"], "attr": {"T": {"type": "DT_INT32"}}}, {"name": "add", "op": "Add", "input": ["strided_slice_3", "Maximum"], "attr": {"T": {"type": "DT_INT32"}}}, {"name": "add_1", "op": "Add", "input": ["strided_slice_4", "Maximum_1"], "attr": {"T": {"type": "DT_INT32"}}}, {"name": "sub_6", "op": "Sub", "input": ["add", "strided_slice_5"], "attr": {"T": {"type": "DT_INT32"}}}, {"name": "sub_4", "op": "Sub", "input": ["add_1", "strided_slice_6"], "attr": {"T": {"type": "DT_INT32"}}}, {"name": "stack", "op": "Pack", "input": ["stack/0", "sub_6"], "attr": {"T": {"type": "DT_INT32"}, "axis": {"i": "0"}, "N": {"i": "2"}}}, {"name": "stack_1", "op": "Pack", "input": ["stack/0", "sub_4"], "attr": {"T": {"type": "DT_INT32"}, "axis": {"i": "0"}, "N": {"i": "2"}}}, {"name": "stack_3", "op": "Pack", "input": ["stack", "stack_1", "stack_2"], "attr": {"T": {"type": "DT_INT32"}, "axis": {"i": "0"}, "N": {"i": "3"}}}, {"name": "Pad", "op": "Pad", "input": ["sub_2", "stack_3"], "attr": {"T": {"type": "DT_FLOAT"}, "Tpaddings": {"type": "DT_INT32"}}}, {"name": "add_2", "op": "Add", "input": ["Pad", "Reshape"], "attr": {"T": {"type": "DT_FLOAT"}}}, {"name": "ExpandDims_1", "op": "ExpandDims", "input": ["add_2", "stack/0"], "attr": {"Tdim": {"type": "DT_INT32"}, "T": {"type": "DT_FLOAT"}}}, {"name": "mul_1", "op": "Mul", "input": ["mul_1/x", "ExpandDims_1"], "attr": {"T": {"type": "DT_FLOAT"}}}, {"name": "sub_7", "op": "Sub", "input": ["mul_1", "ToFloat/x"], "attr": {"T": {"type": "DT_FLOAT"}}}, {"name": "xception_65/Pad", "op": "Pad", "input": ["sub_7", "xception_65/entry_flow/block2/unit_1/xception_module/Pad/paddings"], "attr": {"T": {"type": "DT_FLOAT"}, "Tpaddings": {"type": "DT_INT32"}}}, {"name": "xception_65/entry_flow/conv1_1/BatchNorm/FusedBatchNorm/Mul", "op": "Conv2D", "input": ["xception_65/Pad", "xception_65/entry_flow/conv1_1/Conv2D/merged_input"], "attr": {"padding": {"s": "VkFMSUQ="}, "dilations": {"list": {"i": ["1", "1", "1", "1"]}}, "T": {"type": "DT_FLOAT"}, "data_format": {"s": "TkhXQw=="}, "strides": {"list": {"i": ["1", "2", "2", "1"]}}, "use_cudnn_on_gpu": {"b": true}}}, {"name": "xception_65/entry_flow/conv1_1/BatchNorm/FusedBatchNorm", "op": "Add", "input": ["xception_65/entry_flow/conv1_1/BatchNorm/FusedBatchNorm/Mul", "xception_65/entry_flow/conv1_1/BatchNorm/FusedBatchNorm/Offset"], "attr": {"T": {"type": "DT_FLOAT"}}}, {"name": "xception_65/entry_flow/conv1_1/Relu", "op": "Relu", "input": ["xception_65/entry_flow/conv1_1/BatchNorm/FusedBatchNorm"], "attr": {"T": {"type": "DT_FLOAT"}}}, {"name": "xception_65/entry_flow/conv1_2/BatchNorm/FusedBatchNorm/Mul", "op": "Conv2D", "input": ["xception_65/entry_flow/conv1_1/Relu", "xception_65/entry_flow/conv1_2/Conv2D/merged_input"], "attr": {"padding": {"s": "U0FNRQ=="}, "dilations": {"list": {"i": ["1", "1", "1", "1"]}}, "T": {"type": "DT_FLOAT"}, "strides": {"list": {"i": ["1", "1", "1", "1"]}}, "data_format": {"s": "TkhXQw=="}, "use_cudnn_on_gpu": {"b": true}}}, {"name": "xception_65/entry_flow/conv1_2/BatchNorm/FusedBatchNorm", "op": "Add", "input": ["xception_65/entry_flow/conv1_2/BatchNorm/FusedBatchNorm/Mul", "xception_65/entry_flow/conv1_2/BatchNorm/FusedBatchNorm/Offset"], "attr": {"T": {"type": "DT_FLOAT"}}}, {"name": "xception_65/entry_flow/conv1_2/Relu", "op": "Relu", "input": ["xception_65/entry_flow/conv1_2/BatchNorm/FusedBatchNorm"], "attr": {"T": {"type": "DT_FLOAT"}}}, {"name": "xception_65/entry_flow/block1/unit_1/xception_module/Relu", "op": "Relu", "input": ["xception_65/entry_flow/conv1_2/Relu"], "attr": {"T": {"type": "DT_FLOAT"}}}, {"name": "xception_65/entry_flow/block1/unit_1/xception_module/shortcut/BatchNorm/FusedBatchNorm/Mul", "op": "Conv2D", "input": ["xception_65/entry_flow/conv1_2/Relu", "xception_65/entry_flow/block1/unit_1/xception_module/shortcut/Conv2D/merged_input"], "attr": {"dilations": {"list": {"i": ["1", "1", "1", "1"]}}, "T": {"type": "DT_FLOAT"}, "data_format": {"s": "TkhXQw=="}, "strides": {"list": {"i": ["1", "2", "2", "1"]}}, "use_cudnn_on_gpu": {"b": true}, "padding": {"s": "U0FNRQ=="}}}, {"name": "xception_65/entry_flow/block1/unit_1/xception_module/separable_conv1_depthwise/depthwise", "op": "DepthwiseConv2dNative", "input": ["xception_65/entry_flow/block1/unit_1/xception_module/Relu", "xception_65/entry_flow/block1/unit_1/xception_module/separable_conv1_depthwise/depthwise_weights"], "attr": {"data_format": {"s": "TkhXQw=="}, "strides": {"list": {"i": ["1", "1", "1", "1"]}}, "padding": {"s": "U0FNRQ=="}, "dilations": {"list": {"i": ["1", "1", "1", "1"]}}, "T": {"type": "DT_FLOAT"}}}, {"name": "xception_65/entry_flow/block1/unit_1/xception_module/shortcut/BatchNorm/FusedBatchNorm", "op": "Add", "input": ["xception_65/entry_flow/block1/unit_1/xception_module/shortcut/BatchNorm/FusedBatchNorm/Mul", "xception_65/entry_flow/block1/unit_1/xception_module/shortcut/BatchNorm/FusedBatchNorm/Offset"], "attr": {"T": {"type": "DT_FLOAT"}}}, {"name": "xception_65/entry_flow/block1/unit_1/xception_module/separable_conv1_depthwise/BatchNorm/FusedBatchNorm/Mul", "op": "Mul", "input": ["xception_65/entry_flow/block1/unit_1/xception_module/separable_conv1_depthwise/depthwise", "xception_65/entry_flow/block1/unit_1/xception_module/separable_conv1_depthwise/BatchNorm/FusedBatchNorm/Scaled"], "attr": {"T": {"type": "DT_FLOAT"}}}, {"name": "xception_65/entry_flow/block1/unit_1/xception_module/separable_conv1_depthwise/BatchNorm/FusedBatchNorm", "op": "Add", "input": ["xception_65/entry_flow/block1/unit_1/xception_module/separable_conv1_depthwise/BatchNorm/FusedBatchNorm/Mul", "xception_65/entry_flow/block1/unit_1/xception_module/separable_conv1_depthwise/BatchNorm/FusedBatchNorm/Offset"], "attr": {"T": {"type": "DT_FLOAT"}}}, {"name": "xception_65/entry_flow/block1/unit_1/xception_module/separable_conv1_pointwise/BatchNorm/FusedBatchNorm/Mul", "op": "Conv2D", "input": ["xception_65/entry_flow/block1/unit_1/xception_module/separable_conv1_depthwise/BatchNorm/FusedBatchNorm", "xception_65/entry_flow/block1/unit_1/xception_module/separable_conv1_pointwise/Conv2D/merged_input"], "attr": {"padding": {"s": "U0FNRQ=="}, "dilations": {"list": {"i": ["1", "1", "1", "1"]}}, "T": {"type": "DT_FLOAT"}, "data_format": {"s": "TkhXQw=="}, "strides": {"list": {"i": ["1", "1", "1", "1"]}}, "use_cudnn_on_gpu": {"b": true}}}, {"name": "xception_65/entry_flow/block1/unit_1/xception_module/separable_conv1_pointwise/BatchNorm/FusedBatchNorm", "op": "Add", "input": ["xception_65/entry_flow/block1/unit_1/xception_module/separable_conv1_pointwise/BatchNorm/FusedBatchNorm/Mul", "xception_65/entry_flow/block1/unit_1/xception_module/separable_conv1_pointwise/BatchNorm/FusedBatchNorm/Offset"], "attr": {"T": {"type": "DT_FLOAT"}}}, {"name": "xception_65/entry_flow/block1/unit_1/xception_module/Relu_1", "op": "Relu", "input": ["xception_65/entry_flow/block1/unit_1/xception_module/separable_conv1_pointwise/BatchNorm/FusedBatchNorm"], "attr": {"T": {"type": "DT_FLOAT"}}}, {"name": "xception_65/entry_flow/block1/unit_1/xception_module/separable_conv2_depthwise/depthwise", "op": "DepthwiseConv2dNative", "input": ["xception_65/entry_flow/block1/unit_1/xception_module/Relu_1", "xception_65/entry_flow/block1/unit_1/xception_module/separable_conv2_depthwise/depthwise_weights"], "attr": {"T": {"type": "DT_FLOAT"}, "strides": {"list": {"i": ["1", "1", "1", "1"]}}, "data_format": {"s": "TkhXQw=="}, "padding": {"s": "U0FNRQ=="}, "dilations": {"list": {"i": ["1", "1", "1", "1"]}}}}, {"name": "xception_65/entry_flow/block1/unit_1/xception_module/separable_conv2_depthwise/BatchNorm/FusedBatchNorm/Mul", "op": "Mul", "input": ["xception_65/entry_flow/block1/unit_1/xception_module/separable_conv2_depthwise/depthwise", "xception_65/entry_flow/block1/unit_1/xception_module/separable_conv2_depthwise/BatchNorm/FusedBatchNorm/Scaled"], "attr": {"T": {"type": "DT_FLOAT"}}}, {"name": "xception_65/entry_flow/block1/unit_1/xception_module/separable_conv2_depthwise/BatchNorm/FusedBatchNorm", "op": "Add", "input": ["xception_65/entry_flow/block1/unit_1/xception_module/separable_conv2_depthwise/BatchNorm/FusedBatchNorm/Mul", "xception_65/entry_flow/block1/unit_1/xception_module/separable_conv2_depthwise/BatchNorm/FusedBatchNorm/Offset"], "attr": {"T": {"type": "DT_FLOAT"}}}, {"name": "xception_65/entry_flow/block1/unit_1/xception_module/separable_conv2_pointwise/BatchNorm/FusedBatchNorm/Mul", "op": "Conv2D", "input": ["xception_65/entry_flow/block1/unit_1/xception_module/separable_conv2_depthwise/BatchNorm/FusedBatchNorm", "xception_65/entry_flow/block1/unit_1/xception_module/separable_conv2_pointwise/Conv2D/merged_input"], "attr": {"dilations": {"list": {"i": ["1", "1", "1", "1"]}}, "T": {"type": "DT_FLOAT"}, "strides": {"list": {"i": ["1", "1", "1", "1"]}}, "data_format": {"s": "TkhXQw=="}, "use_cudnn_on_gpu": {"b": true}, "padding": {"s": "U0FNRQ=="}}}, {"name": "xception_65/entry_flow/block1/unit_1/xception_module/separable_conv2_pointwise/BatchNorm/FusedBatchNorm", "op": "Add", "input": ["xception_65/entry_flow/block1/unit_1/xception_module/separable_conv2_pointwise/BatchNorm/FusedBatchNorm/Mul", "xception_65/entry_flow/block1/unit_1/xception_module/separable_conv2_pointwise/BatchNorm/FusedBatchNorm/Offset"], "attr": {"T": {"type": "DT_FLOAT"}}}, {"name": "xception_65/entry_flow/block1/unit_1/xception_module/Relu_2", "op": "Relu", "input": ["xception_65/entry_flow/block1/unit_1/xception_module/separable_conv2_pointwise/BatchNorm/FusedBatchNorm"], "attr": {"T": {"type": "DT_FLOAT"}}}, {"name": "xception_65/entry_flow/block1/unit_1/xception_module/Pad", "op": "Pad", "input": ["xception_65/entry_flow/block1/unit_1/xception_module/Relu_2", "xception_65/entry_flow/block2/unit_1/xception_module/Pad/paddings"], "attr": {"T": {"type": "DT_FLOAT"}, "Tpaddings": {"type": "DT_INT32"}}}, {"name": "xception_65/entry_flow/block1/unit_1/xception_module/separable_conv3_depthwise/depthwise", "op": "DepthwiseConv2dNative", "input": ["xception_65/entry_flow/block1/unit_1/xception_module/Pad", "xception_65/entry_flow/block1/unit_1/xception_module/separable_conv3_depthwise/depthwise_weights"], "attr": {"strides": {"list": {"i": ["1", "2", "2", "1"]}}, "data_format": {"s": "TkhXQw=="}, "dilations": {"list": {"i": ["1", "1", "1", "1"]}}, "padding": {"s": "VkFMSUQ="}, "T": {"type": "DT_FLOAT"}}}, {"name": "xception_65/entry_flow/block1/unit_1/xception_module/separable_conv3_depthwise/BatchNorm/FusedBatchNorm/Mul", "op": "Mul", "input": ["xception_65/entry_flow/block1/unit_1/xception_module/separable_conv3_depthwise/depthwise", "xception_65/entry_flow/block1/unit_1/xception_module/separable_conv3_depthwise/BatchNorm/FusedBatchNorm/Scaled"], "attr": {"T": {"type": "DT_FLOAT"}}}, {"name": "xception_65/entry_flow/block1/unit_1/xception_module/separable_conv3_depthwise/BatchNorm/FusedBatchNorm", "op": "Add", "input": ["xception_65/entry_flow/block1/unit_1/xception_module/separable_conv3_depthwise/BatchNorm/FusedBatchNorm/Mul", "xception_65/entry_flow/block1/unit_1/xception_module/separable_conv3_depthwise/BatchNorm/FusedBatchNorm/Offset"], "attr": {"T": {"type": "DT_FLOAT"}}}, {"name": "xception_65/entry_flow/block1/unit_1/xception_module/separable_conv3_pointwise/BatchNorm/FusedBatchNorm/Mul", "op": "Conv2D", "input": ["xception_65/entry_flow/block1/unit_1/xception_module/separable_conv3_depthwise/BatchNorm/FusedBatchNorm", "xception_65/entry_flow/block1/unit_1/xception_module/separable_conv3_pointwise/Conv2D/merged_input"], "attr": {"dilations": {"list": {"i": ["1", "1", "1", "1"]}}, "T": {"type": "DT_FLOAT"}, "data_format": {"s": "TkhXQw=="}, "strides": {"list": {"i": ["1", "1", "1", "1"]}}, "use_cudnn_on_gpu": {"b": true}, "padding": {"s": "U0FNRQ=="}}}, {"name": "xception_65/entry_flow/block1/unit_1/xception_module/separable_conv3_pointwise/BatchNorm/FusedBatchNorm", "op": "Add", "input": ["xception_65/entry_flow/block1/unit_1/xception_module/separable_conv3_pointwise/BatchNorm/FusedBatchNorm/Mul", "xception_65/entry_flow/block1/unit_1/xception_module/separable_conv3_pointwise/BatchNorm/FusedBatchNorm/Offset"], "attr": {"T": {"type": "DT_FLOAT"}}}, {"name": "xception_65/entry_flow/block1/unit_1/xception_module/add", "op": "Add", "input": ["xception_65/entry_flow/block1/unit_1/xception_module/separable_conv3_pointwise/BatchNorm/FusedBatchNorm", "xception_65/entry_flow/block1/unit_1/xception_module/shortcut/BatchNorm/FusedBatchNorm"], "attr": {"T": {"type": "DT_FLOAT"}}}, {"name": "xception_65/entry_flow/block2/unit_1/xception_module/shortcut/BatchNorm/FusedBatchNorm/Mul", "op": "Conv2D", "input": ["xception_65/entry_flow/block1/unit_1/xception_module/add", "xception_65/entry_flow/block2/unit_1/xception_module/shortcut/Conv2D/merged_input"], "attr": {"dilations": {"list": {"i": ["1", "1", "1", "1"]}}, "T": {"type": "DT_FLOAT"}, "data_format": {"s": "TkhXQw=="}, "strides": {"list": {"i": ["1", "2", "2", "1"]}}, "use_cudnn_on_gpu": {"b": true}, "padding": {"s": "U0FNRQ=="}}}, {"name": "xception_65/entry_flow/block2/unit_1/xception_module/Relu", "op": "Relu", "input": ["xception_65/entry_flow/block1/unit_1/xception_module/add"], "attr": {"T": {"type": "DT_FLOAT"}}}, {"name": "xception_65/entry_flow/block2/unit_1/xception_module/shortcut/BatchNorm/FusedBatchNorm", "op": "Add", "input": ["xception_65/entry_flow/block2/unit_1/xception_module/shortcut/BatchNorm/FusedBatchNorm/Mul", "xception_65/entry_flow/block2/unit_1/xception_module/shortcut/BatchNorm/FusedBatchNorm/Offset"], "attr": {"T": {"type": "DT_FLOAT"}}}, {"name": "xception_65/entry_flow/block2/unit_1/xception_module/separable_conv1_depthwise/depthwise", "op": "DepthwiseConv2dNative", "input": ["xception_65/entry_flow/block2/unit_1/xception_module/Relu", "xception_65/entry_flow/block2/unit_1/xception_module/separable_conv1_depthwise/depthwise_weights"], "attr": {"data_format": {"s": "TkhXQw=="}, "strides": {"list": {"i": ["1", "1", "1", "1"]}}, "padding": {"s": "U0FNRQ=="}, "dilations": {"list": {"i": ["1", "1", "1", "1"]}}, "T": {"type": "DT_FLOAT"}}}, {"name": "xception_65/entry_flow/block2/unit_1/xception_module/separable_conv1_depthwise/BatchNorm/FusedBatchNorm/Mul", "op": "Mul", "input": ["xception_65/entry_flow/block2/unit_1/xception_module/separable_conv1_depthwise/depthwise", "xception_65/entry_flow/block2/unit_1/xception_module/separable_conv1_depthwise/BatchNorm/FusedBatchNorm/Scaled"], "attr": {"T": {"type": "DT_FLOAT"}}}, {"name": "xception_65/entry_flow/block2/unit_1/xception_module/separable_conv1_depthwise/BatchNorm/FusedBatchNorm", "op": "Add", "input": ["xception_65/entry_flow/block2/unit_1/xception_module/separable_conv1_depthwise/BatchNorm/FusedBatchNorm/Mul", "xception_65/entry_flow/block2/unit_1/xception_module/separable_conv1_depthwise/BatchNorm/FusedBatchNorm/Offset"], "attr": {"T": {"type": "DT_FLOAT"}}}, {"name": "xception_65/entry_flow/block2/unit_1/xception_module/separable_conv1_pointwise/BatchNorm/FusedBatchNorm/Mul", "op": "Conv2D", "input": ["xception_65/entry_flow/block2/unit_1/xception_module/separable_conv1_depthwise/BatchNorm/FusedBatchNorm", "xception_65/entry_flow/block2/unit_1/xception_module/separable_conv1_pointwise/Conv2D/merged_input"], "attr": {"dilations": {"list": {"i": ["1", "1", "1", "1"]}}, "T": {"type": "DT_FLOAT"}, "data_format": {"s": "TkhXQw=="}, "strides": {"list": {"i": ["1", "1", "1", "1"]}}, "use_cudnn_on_gpu": {"b": true}, "padding": {"s": "U0FNRQ=="}}}, {"name": "xception_65/entry_flow/block2/unit_1/xception_module/separable_conv1_pointwise/BatchNorm/FusedBatchNorm", "op": "Add", "input": ["xception_65/entry_flow/block2/unit_1/xception_module/separable_conv1_pointwise/BatchNorm/FusedBatchNorm/Mul", "xception_65/entry_flow/block2/unit_1/xception_module/separable_conv1_pointwise/BatchNorm/FusedBatchNorm/Offset"], "attr": {"T": {"type": "DT_FLOAT"}}}, {"name": "xception_65/entry_flow/block2/unit_1/xception_module/Relu_1", "op": "Relu", "input": ["xception_65/entry_flow/block2/unit_1/xception_module/separable_conv1_pointwise/BatchNorm/FusedBatchNorm"], "attr": {"T": {"type": "DT_FLOAT"}}}, {"name": "xception_65/entry_flow/block2/unit_1/xception_module/separable_conv2_depthwise/depthwise", "op": "DepthwiseConv2dNative", "input": ["xception_65/entry_flow/block2/unit_1/xception_module/Relu_1", "xception_65/entry_flow/block2/unit_1/xception_module/separable_conv2_depthwise/depthwise_weights"], "attr": {"dilations": {"list": {"i": ["1", "1", "1", "1"]}}, "padding": {"s": "U0FNRQ=="}, "T": {"type": "DT_FLOAT"}, "data_format": {"s": "TkhXQw=="}, "strides": {"list": {"i": ["1", "1", "1", "1"]}}}}, {"name": "xception_65/entry_flow/block2/unit_1/xception_module/separable_conv2_depthwise/BatchNorm/FusedBatchNorm/Mul", "op": "Mul", "input": ["xception_65/entry_flow/block2/unit_1/xception_module/separable_conv2_depthwise/depthwise", "xception_65/entry_flow/block2/unit_1/xception_module/separable_conv2_depthwise/BatchNorm/FusedBatchNorm/Scaled"], "attr": {"T": {"type": "DT_FLOAT"}}}, {"name": "xception_65/entry_flow/block2/unit_1/xception_module/separable_conv2_depthwise/BatchNorm/FusedBatchNorm", "op": "Add", "input": ["xception_65/entry_flow/block2/unit_1/xception_module/separable_conv2_depthwise/BatchNorm/FusedBatchNorm/Mul", "xception_65/entry_flow/block2/unit_1/xception_module/separable_conv2_depthwise/BatchNorm/FusedBatchNorm/Offset"], "attr": {"T": {"type": "DT_FLOAT"}}}, {"name": "xception_65/entry_flow/block2/unit_1/xception_module/separable_conv2_pointwise/BatchNorm/FusedBatchNorm/Mul", "op": "Conv2D", "input": ["xception_65/entry_flow/block2/unit_1/xception_module/separable_conv2_depthwise/BatchNorm/FusedBatchNorm", "xception_65/entry_flow/block2/unit_1/xception_module/separable_conv2_pointwise/Conv2D/merged_input"], "attr": {"padding": {"s": "U0FNRQ=="}, "dilations": {"list": {"i": ["1", "1", "1", "1"]}}, "T": {"type": "DT_FLOAT"}, "data_format": {"s": "TkhXQw=="}, "strides": {"list": {"i": ["1", "1", "1", "1"]}}, "use_cudnn_on_gpu": {"b": true}}}, {"name": "xception_65/entry_flow/block2/unit_1/xception_module/separable_conv2_pointwise/BatchNorm/FusedBatchNorm", "op": "Add", "input": ["xception_65/entry_flow/block2/unit_1/xception_module/separable_conv2_pointwise/BatchNorm/FusedBatchNorm/Mul", "xception_65/entry_flow/block2/unit_1/xception_module/separable_conv2_pointwise/BatchNorm/FusedBatchNorm/Offset"], "attr": {"T": {"type": "DT_FLOAT"}}}, {"name": "xception_65/entry_flow/block2/unit_1/xception_module/Relu_2", "op": "Relu", "input": ["xception_65/entry_flow/block2/unit_1/xception_module/separable_conv2_pointwise/BatchNorm/FusedBatchNorm"], "attr": {"T": {"type": "DT_FLOAT"}}}, {"name": "decoder/feature_projection0/BatchNorm/FusedBatchNorm/Mul", "op": "Conv2D", "input": ["xception_65/entry_flow/block2/unit_1/xception_module/separable_conv2_pointwise/BatchNorm/FusedBatchNorm", "decoder/feature_projection0/Conv2D/merged_input"], "attr": {"padding": {"s": "U0FNRQ=="}, "dilations": {"list": {"i": ["1", "1", "1", "1"]}}, "T": {"type": "DT_FLOAT"}, "data_format": {"s": "TkhXQw=="}, "strides": {"list": {"i": ["1", "1", "1", "1"]}}, "use_cudnn_on_gpu": {"b": true}}}, {"name": "xception_65/entry_flow/block2/unit_1/xception_module/Pad", "op": "Pad", "input": ["xception_65/entry_flow/block2/unit_1/xception_module/Relu_2", "xception_65/entry_flow/block2/unit_1/xception_module/Pad/paddings"], "attr": {"T": {"type": "DT_FLOAT"}, "Tpaddings": {"type": "DT_INT32"}}}, {"name": "decoder/feature_projection0/BatchNorm/FusedBatchNorm", "op": "Add", "input": ["decoder/feature_projection0/BatchNorm/FusedBatchNorm/Mul", "decoder/feature_projection0/BatchNorm/FusedBatchNorm/Offset"], "attr": {"T": {"type": "DT_FLOAT"}}}, {"name": "xception_65/entry_flow/block2/unit_1/xception_module/separable_conv3_depthwise/depthwise", "op": "DepthwiseConv2dNative", "input": ["xception_65/entry_flow/block2/unit_1/xception_module/Pad", "xception_65/entry_flow/block2/unit_1/xception_module/separable_conv3_depthwise/depthwise_weights"], "attr": {"strides": {"list": {"i": ["1", "2", "2", "1"]}}, "data_format": {"s": "TkhXQw=="}, "padding": {"s": "VkFMSUQ="}, "dilations": {"list": {"i": ["1", "1", "1", "1"]}}, "T": {"type": "DT_FLOAT"}}}, {"name": "decoder/feature_projection0/Relu", "op": "Relu", "input": ["decoder/feature_projection0/BatchNorm/FusedBatchNorm"], "attr": {"T": {"type": "DT_FLOAT"}}}, {"name": "xception_65/entry_flow/block2/unit_1/xception_module/separable_conv3_depthwise/BatchNorm/FusedBatchNorm/Mul", "op": "Mul", "input": ["xception_65/entry_flow/block2/unit_1/xception_module/separable_conv3_depthwise/depthwise", "xception_65/entry_flow/block2/unit_1/xception_module/separable_conv3_depthwise/BatchNorm/FusedBatchNorm/Scaled"], "attr": {"T": {"type": "DT_FLOAT"}}}, {"name": "decoder/ResizeBilinear_1", "op": "ResizeBilinear", "input": ["decoder/feature_projection0/Relu", "decoder/ResizeBilinear/size"], "attr": {"align_corners": {"b": true}, "T": {"type": "DT_FLOAT"}}}, {"name": "xception_65/entry_flow/block2/unit_1/xception_module/separable_conv3_depthwise/BatchNorm/FusedBatchNorm", "op": "Add", "input": ["xception_65/entry_flow/block2/unit_1/xception_module/separable_conv3_depthwise/BatchNorm/FusedBatchNorm/Mul", "xception_65/entry_flow/block2/unit_1/xception_module/separable_conv3_depthwise/BatchNorm/FusedBatchNorm/Offset"], "attr": {"T": {"type": "DT_FLOAT"}}}, {"name": "xception_65/entry_flow/block2/unit_1/xception_module/separable_conv3_pointwise/BatchNorm/FusedBatchNorm/Mul", "op": "Conv2D", "input": ["xception_65/entry_flow/block2/unit_1/xception_module/separable_conv3_depthwise/BatchNorm/FusedBatchNorm", "xception_65/entry_flow/block2/unit_1/xception_module/separable_conv3_pointwise/Conv2D/merged_input"], "attr": {"T": {"type": "DT_FLOAT"}, "data_format": {"s": "TkhXQw=="}, "strides": {"list": {"i": ["1", "1", "1", "1"]}}, "use_cudnn_on_gpu": {"b": true}, "padding": {"s": "U0FNRQ=="}, "dilations": {"list": {"i": ["1", "1", "1", "1"]}}}}, {"name": "xception_65/entry_flow/block2/unit_1/xception_module/separable_conv3_pointwise/BatchNorm/FusedBatchNorm", "op": "Add", "input": ["xception_65/entry_flow/block2/unit_1/xception_module/separable_conv3_pointwise/BatchNorm/FusedBatchNorm/Mul", "xception_65/entry_flow/block2/unit_1/xception_module/separable_conv3_pointwise/BatchNorm/FusedBatchNorm/Offset"], "attr": {"T": {"type": "DT_FLOAT"}}}, {"name": "xception_65/entry_flow/block2/unit_1/xception_module/add", "op": "Add", "input": ["xception_65/entry_flow/block2/unit_1/xception_module/separable_conv3_pointwise/BatchNorm/FusedBatchNorm", "xception_65/entry_flow/block2/unit_1/xception_module/shortcut/BatchNorm/FusedBatchNorm"], "attr": {"T": {"type": "DT_FLOAT"}}}, {"name": "xception_65/entry_flow/block3/unit_1/xception_module/Relu", "op": "Relu", "input": ["xception_65/entry_flow/block2/unit_1/xception_module/add"], "attr": {"T": {"type": "DT_FLOAT"}}}, {"name": "xception_65/entry_flow/block3/unit_1/xception_module/shortcut/BatchNorm/FusedBatchNorm/Mul", "op": "Conv2D", "input": ["xception_65/entry_flow/block2/unit_1/xception_module/add", "xception_65/entry_flow/block3/unit_1/xception_module/shortcut/Conv2D/merged_input"], "attr": {"dilations": {"list": {"i": ["1", "1", "1", "1"]}}, "T": {"type": "DT_FLOAT"}, "strides": {"list": {"i": ["1", "1", "1", "1"]}}, "data_format": {"s": "TkhXQw=="}, "use_cudnn_on_gpu": {"b": true}, "padding": {"s": "U0FNRQ=="}}}, {"name": "xception_65/entry_flow/block3/unit_1/xception_module/separable_conv1_depthwise/depthwise", "op": "DepthwiseConv2dNative", "input": ["xception_65/entry_flow/block3/unit_1/xception_module/Relu", "xception_65/entry_flow/block3/unit_1/xception_module/separable_conv1_depthwise/depthwise_weights"], "attr": {"dilations": {"list": {"i": ["1", "1", "1", "1"]}}, "padding": {"s": "U0FNRQ=="}, "T": {"type": "DT_FLOAT"}, "strides": {"list": {"i": ["1", "1", "1", "1"]}}, "data_format": {"s": "TkhXQw=="}}}, {"name": "xception_65/entry_flow/block3/unit_1/xception_module/separable_conv1_depthwise/BatchNorm/FusedBatchNorm/Mul", "op": "Mul", "input": ["xception_65/entry_flow/block3/unit_1/xception_module/separable_conv1_depthwise/depthwise", "xception_65/entry_flow/block3/unit_1/xception_module/separable_conv1_depthwise/BatchNorm/FusedBatchNorm/Scaled"], "attr": {"T": {"type": "DT_FLOAT"}}}, {"name": "xception_65/entry_flow/block3/unit_1/xception_module/separable_conv1_depthwise/BatchNorm/FusedBatchNorm", "op": "Add", "input": ["xception_65/entry_flow/block3/unit_1/xception_module/separable_conv1_depthwise/BatchNorm/FusedBatchNorm/Mul", "xception_65/entry_flow/block3/unit_1/xception_module/separable_conv1_depthwise/BatchNorm/FusedBatchNorm/Offset"], "attr": {"T": {"type": "DT_FLOAT"}}}, {"name": "xception_65/entry_flow/block3/unit_1/xception_module/separable_conv1_pointwise/BatchNorm/FusedBatchNorm/Mul", "op": "Conv2D", "input": ["xception_65/entry_flow/block3/unit_1/xception_module/separable_conv1_depthwise/BatchNorm/FusedBatchNorm", "xception_65/entry_flow/block3/unit_1/xception_module/separable_conv1_pointwise/Conv2D/merged_input"], "attr": {"dilations": {"list": {"i": ["1", "1", "1", "1"]}}, "T": {"type": "DT_FLOAT"}, "data_format": {"s": "TkhXQw=="}, "strides": {"list": {"i": ["1", "1", "1", "1"]}}, "use_cudnn_on_gpu": {"b": true}, "padding": {"s": "U0FNRQ=="}}}, {"name": "xception_65/entry_flow/block3/unit_1/xception_module/separable_conv1_pointwise/BatchNorm/FusedBatchNorm", "op": "Add", "input": ["xception_65/entry_flow/block3/unit_1/xception_module/separable_conv1_pointwise/BatchNorm/FusedBatchNorm/Mul", "xception_65/entry_flow/block3/unit_1/xception_module/separable_conv1_pointwise/BatchNorm/FusedBatchNorm/Offset"], "attr": {"T": {"type": "DT_FLOAT"}}}, {"name": "xception_65/entry_flow/block3/unit_1/xception_module/Relu_1", "op": "Relu", "input": ["xception_65/entry_flow/block3/unit_1/xception_module/separable_conv1_pointwise/BatchNorm/FusedBatchNorm"], "attr": {"T": {"type": "DT_FLOAT"}}}, {"name": "xception_65/entry_flow/block3/unit_1/xception_module/separable_conv2_depthwise/depthwise", "op": "DepthwiseConv2dNative", "input": ["xception_65/entry_flow/block3/unit_1/xception_module/Relu_1", "xception_65/entry_flow/block3/unit_1/xception_module/separable_conv2_depthwise/depthwise_weights"], "attr": {"dilations": {"list": {"i": ["1", "1", "1", "1"]}}, "padding": {"s": "U0FNRQ=="}, "T": {"type": "DT_FLOAT"}, "data_format": {"s": "TkhXQw=="}, "strides": {"list": {"i": ["1", "1", "1", "1"]}}}}, {"name": "xception_65/entry_flow/block3/unit_1/xception_module/separable_conv2_depthwise/BatchNorm/FusedBatchNorm/Mul", "op": "Mul", "input": ["xception_65/entry_flow/block3/unit_1/xception_module/separable_conv2_depthwise/depthwise", "xception_65/entry_flow/block3/unit_1/xception_module/separable_conv2_depthwise/BatchNorm/FusedBatchNorm/Scaled"], "attr": {"T": {"type": "DT_FLOAT"}}}, {"name": "xception_65/entry_flow/block3/unit_1/xception_module/separable_conv2_depthwise/BatchNorm/FusedBatchNorm", "op": "Add", "input": ["xception_65/entry_flow/block3/unit_1/xception_module/separable_conv2_depthwise/BatchNorm/FusedBatchNorm/Mul", "xception_65/entry_flow/block3/unit_1/xception_module/separable_conv2_depthwise/BatchNorm/FusedBatchNorm/Offset"], "attr": {"T": {"type": "DT_FLOAT"}}}, {"name": "xception_65/entry_flow/block3/unit_1/xception_module/separable_conv2_pointwise/BatchNorm/FusedBatchNorm/Mul", "op": "Conv2D", "input": ["xception_65/entry_flow/block3/unit_1/xception_module/separable_conv2_depthwise/BatchNorm/FusedBatchNorm", "xception_65/entry_flow/block3/unit_1/xception_module/separable_conv2_pointwise/Conv2D/merged_input"], "attr": {"padding": {"s": "U0FNRQ=="}, "dilations": {"list": {"i": ["1", "1", "1", "1"]}}, "T": {"type": "DT_FLOAT"}, "strides": {"list": {"i": ["1", "1", "1", "1"]}}, "data_format": {"s": "TkhXQw=="}, "use_cudnn_on_gpu": {"b": true}}}, {"name": "xception_65/entry_flow/block3/unit_1/xception_module/separable_conv2_pointwise/BatchNorm/FusedBatchNorm", "op": "Add", "input": ["xception_65/entry_flow/block3/unit_1/xception_module/separable_conv2_pointwise/BatchNorm/FusedBatchNorm/Mul", "xception_65/entry_flow/block3/unit_1/xception_module/separable_conv2_pointwise/BatchNorm/FusedBatchNorm/Offset"], "attr": {"T": {"type": "DT_FLOAT"}}}, {"name": "xception_65/entry_flow/block3/unit_1/xception_module/Relu_2", "op": "Relu", "input": ["xception_65/entry_flow/block3/unit_1/xception_module/separable_conv2_pointwise/BatchNorm/FusedBatchNorm"], "attr": {"T": {"type": "DT_FLOAT"}}}, {"name": "xception_65/entry_flow/block3/unit_1/xception_module/separable_conv3_depthwise/depthwise", "op": "DepthwiseConv2dNative", "input": ["xception_65/entry_flow/block3/unit_1/xception_module/Relu_2", "xception_65/entry_flow/block3/unit_1/xception_module/separable_conv3_depthwise/depthwise_weights"], "attr": {"strides": {"list": {"i": ["1", "1", "1", "1"]}}, "data_format": {"s": "TkhXQw=="}, "padding": {"s": "U0FNRQ=="}, "dilations": {"list": {"i": ["1", "1", "1", "1"]}}, "T": {"type": "DT_FLOAT"}}}, {"name": "xception_65/entry_flow/block3/unit_1/xception_module/separable_conv3_depthwise/BatchNorm/FusedBatchNorm/Mul", "op": "Mul", "input": ["xception_65/entry_flow/block3/unit_1/xception_module/separable_conv3_depthwise/depthwise", "xception_65/entry_flow/block3/unit_1/xception_module/separable_conv3_depthwise/BatchNorm/FusedBatchNorm/Scaled"], "attr": {"T": {"type": "DT_FLOAT"}}}, {"name": "xception_65/entry_flow/block3/unit_1/xception_module/separable_conv3_depthwise/BatchNorm/FusedBatchNorm", "op": "Add", "input": ["xception_65/entry_flow/block3/unit_1/xception_module/separable_conv3_depthwise/BatchNorm/FusedBatchNorm/Mul", "xception_65/entry_flow/block3/unit_1/xception_module/separable_conv3_depthwise/BatchNorm/FusedBatchNorm/Offset"], "attr": {"T": {"type": "DT_FLOAT"}}}, {"name": "xception_65/entry_flow/block3/unit_1/xception_module/separable_conv3_pointwise/BatchNorm/FusedBatchNorm/Mul", "op": "Conv2D", "input": ["xception_65/entry_flow/block3/unit_1/xception_module/separable_conv3_depthwise/BatchNorm/FusedBatchNorm", "xception_65/entry_flow/block3/unit_1/xception_module/separable_conv3_pointwise/Conv2D/merged_input"], "attr": {"dilations": {"list": {"i": ["1", "1", "1", "1"]}}, "T": {"type": "DT_FLOAT"}, "data_format": {"s": "TkhXQw=="}, "strides": {"list": {"i": ["1", "1", "1", "1"]}}, "use_cudnn_on_gpu": {"b": true}, "padding": {"s": "U0FNRQ=="}}}, {"name": "xception_65/entry_flow/block3/unit_1/xception_module/ArithmeticOptimizer/AddOpsRewrite_Leaf_1_add", "op": "AddN", "input": ["xception_65/entry_flow/block3/unit_1/xception_module/separable_conv3_pointwise/BatchNorm/FusedBatchNorm/Mul", "xception_65/entry_flow/block3/unit_1/xception_module/shortcut/BatchNorm/FusedBatchNorm/Mul"], "attr": {"T": {"type": "DT_FLOAT"}, "N": {"i": "2"}, "_grappler:ArithmeticOptimizer:AddOpsRewriteStage": {"b": true}}}, {"name": "xception_65/entry_flow/block3/unit_1/xception_module/ArithmeticOptimizer/AddOpsRewrite_add", "op": "Add", "input": ["xception_65/entry_flow/block3/unit_1/xception_module/ArithmeticOptimizer/AddOpsRewrite_Leaf_0_add", "xception_65/entry_flow/block3/unit_1/xception_module/ArithmeticOptimizer/AddOpsRewrite_Leaf_1_add"], "attr": {"T": {"type": "DT_FLOAT"}, "_grappler:ArithmeticOptimizer:AddOpsRewriteStage": {"b": true}}}, {"name": "xception_65/middle_flow/block1/unit_1/xception_module/Relu", "op": "Relu", "input": ["xception_65/entry_flow/block3/unit_1/xception_module/ArithmeticOptimizer/AddOpsRewrite_add"], "attr": {"T": {"type": "DT_FLOAT"}}}, {"name": "xception_65/middle_flow/block1/unit_1/xception_module/separable_conv1_depthwise/depthwise/SpaceToBatchND", "op": "SpaceToBatchND", "input": ["xception_65/middle_flow/block1/unit_1/xception_module/Relu", "xception_65/exit_flow/block1/unit_1/xception_module/separable_conv1_depthwise/depthwise/SpaceToBatchND/block_shape", "xception_65/exit_flow/block1/unit_1/xception_module/separable_conv1_depthwise/depthwise/SpaceToBatchND/paddings"], "attr": {"Tblock_shape": {"type": "DT_INT32"}, "T": {"type": "DT_FLOAT"}, "Tpaddings": {"type": "DT_INT32"}}}, {"name": "xception_65/middle_flow/block1/unit_1/xception_module/separable_conv1_depthwise/depthwise", "op": "DepthwiseConv2dNative", "input": ["xception_65/middle_flow/block1/unit_1/xception_module/separable_conv1_depthwise/depthwise/SpaceToBatchND", "xception_65/middle_flow/block1/unit_1/xception_module/separable_conv1_depthwise/depthwise_weights"], "attr": {"T": {"type": "DT_FLOAT"}, "strides": {"list": {"i": ["1", "1", "1", "1"]}}, "data_format": {"s": "TkhXQw=="}, "dilations": {"list": {"i": ["1", "1", "1", "1"]}}, "padding": {"s": "VkFMSUQ="}}}, {"name": "xception_65/middle_flow/block1/unit_1/xception_module/separable_conv1_depthwise/depthwise/BatchToSpaceND", "op": "BatchToSpaceND", "input": ["xception_65/middle_flow/block1/unit_1/xception_module/separable_conv1_depthwise/depthwise", "xception_65/exit_flow/block1/unit_1/xception_module/separable_conv1_depthwise/depthwise/SpaceToBatchND/block_shape", "xception_65/exit_flow/block1/unit_1/xception_module/separable_conv1_depthwise/depthwise/BatchToSpaceND/crops"], "attr": {"Tblock_shape": {"type": "DT_INT32"}, "Tcrops": {"type": "DT_INT32"}, "T": {"type": "DT_FLOAT"}}}, {"name": "xception_65/middle_flow/block1/unit_1/xception_module/separable_conv1_depthwise/BatchNorm/FusedBatchNorm/Mul", "op": "Mul", "input": ["xception_65/middle_flow/block1/unit_1/xception_module/separable_conv1_depthwise/depthwise/BatchToSpaceND", "xception_65/middle_flow/block1/unit_1/xception_module/separable_conv1_depthwise/BatchNorm/FusedBatchNorm/Scaled"], "attr": {"T": {"type": "DT_FLOAT"}}}, {"name": "xception_65/middle_flow/block1/unit_1/xception_module/separable_conv1_depthwise/BatchNorm/FusedBatchNorm", "op": "Add", "input": ["xception_65/middle_flow/block1/unit_1/xception_module/separable_conv1_depthwise/BatchNorm/FusedBatchNorm/Mul", "xception_65/middle_flow/block1/unit_1/xception_module/separable_conv1_depthwise/BatchNorm/FusedBatchNorm/Offset"], "attr": {"T": {"type": "DT_FLOAT"}}}, {"name": "xception_65/middle_flow/block1/unit_1/xception_module/separable_conv1_pointwise/BatchNorm/FusedBatchNorm/Mul", "op": "Conv2D", "input": ["xception_65/middle_flow/block1/unit_1/xception_module/separable_conv1_depthwise/BatchNorm/FusedBatchNorm", "xception_65/middle_flow/block1/unit_1/xception_module/separable_conv1_pointwise/Conv2D/merged_input"], "attr": {"padding": {"s": "U0FNRQ=="}, "dilations": {"list": {"i": ["1", "1", "1", "1"]}}, "T": {"type": "DT_FLOAT"}, "data_format": {"s": "TkhXQw=="}, "strides": {"list": {"i": ["1", "1", "1", "1"]}}, "use_cudnn_on_gpu": {"b": true}}}, {"name": "xception_65/middle_flow/block1/unit_1/xception_module/separable_conv1_pointwise/BatchNorm/FusedBatchNorm", "op": "Add", "input": ["xception_65/middle_flow/block1/unit_1/xception_module/separable_conv1_pointwise/BatchNorm/FusedBatchNorm/Mul", "xception_65/middle_flow/block1/unit_1/xception_module/separable_conv1_pointwise/BatchNorm/FusedBatchNorm/Offset"], "attr": {"T": {"type": "DT_FLOAT"}}}, {"name": "xception_65/middle_flow/block1/unit_1/xception_module/Relu_1", "op": "Relu", "input": ["xception_65/middle_flow/block1/unit_1/xception_module/separable_conv1_pointwise/BatchNorm/FusedBatchNorm"], "attr": {"T": {"type": "DT_FLOAT"}}}, {"name": "xception_65/middle_flow/block1/unit_1/xception_module/separable_conv2_depthwise/depthwise/SpaceToBatchND", "op": "SpaceToBatchND", "input": ["xception_65/middle_flow/block1/unit_1/xception_module/Relu_1", "xception_65/exit_flow/block1/unit_1/xception_module/separable_conv1_depthwise/depthwise/SpaceToBatchND/block_shape", "xception_65/exit_flow/block1/unit_1/xception_module/separable_conv1_depthwise/depthwise/SpaceToBatchND/paddings"], "attr": {"T": {"type": "DT_FLOAT"}, "Tpaddings": {"type": "DT_INT32"}, "Tblock_shape": {"type": "DT_INT32"}}}, {"name": "xception_65/middle_flow/block1/unit_1/xception_module/separable_conv2_depthwise/depthwise", "op": "DepthwiseConv2dNative", "input": ["xception_65/middle_flow/block1/unit_1/xception_module/separable_conv2_depthwise/depthwise/SpaceToBatchND", "xception_65/middle_flow/block1/unit_1/xception_module/separable_conv2_depthwise/depthwise_weights"], "attr": {"dilations": {"list": {"i": ["1", "1", "1", "1"]}}, "padding": {"s": "VkFMSUQ="}, "T": {"type": "DT_FLOAT"}, "data_format": {"s": "TkhXQw=="}, "strides": {"list": {"i": ["1", "1", "1", "1"]}}}}, {"name": "xception_65/middle_flow/block1/unit_1/xception_module/separable_conv2_depthwise/depthwise/BatchToSpaceND", "op": "BatchToSpaceND", "input": ["xception_65/middle_flow/block1/unit_1/xception_module/separable_conv2_depthwise/depthwise", "xception_65/exit_flow/block1/unit_1/xception_module/separable_conv1_depthwise/depthwise/SpaceToBatchND/block_shape", "xception_65/exit_flow/block1/unit_1/xception_module/separable_conv1_depthwise/depthwise/BatchToSpaceND/crops"], "attr": {"Tblock_shape": {"type": "DT_INT32"}, "Tcrops": {"type": "DT_INT32"}, "T": {"type": "DT_FLOAT"}}}, {"name": "xception_65/middle_flow/block1/unit_1/xception_module/separable_conv2_depthwise/BatchNorm/FusedBatchNorm/Mul", "op": "Mul", "input": ["xception_65/middle_flow/block1/unit_1/xception_module/separable_conv2_depthwise/depthwise/BatchToSpaceND", "xception_65/middle_flow/block1/unit_1/xception_module/separable_conv2_depthwise/BatchNorm/FusedBatchNorm/Scaled"], "attr": {"T": {"type": "DT_FLOAT"}}}, {"name": "xception_65/middle_flow/block1/unit_1/xception_module/separable_conv2_depthwise/BatchNorm/FusedBatchNorm", "op": "Add", "input": ["xception_65/middle_flow/block1/unit_1/xception_module/separable_conv2_depthwise/BatchNorm/FusedBatchNorm/Mul", "xception_65/middle_flow/block1/unit_1/xception_module/separable_conv2_depthwise/BatchNorm/FusedBatchNorm/Offset"], "attr": {"T": {"type": "DT_FLOAT"}}}, {"name": "xception_65/middle_flow/block1/unit_1/xception_module/separable_conv2_pointwise/BatchNorm/FusedBatchNorm/Mul", "op": "Conv2D", "input": ["xception_65/middle_flow/block1/unit_1/xception_module/separable_conv2_depthwise/BatchNorm/FusedBatchNorm", "xception_65/middle_flow/block1/unit_1/xception_module/separable_conv2_pointwise/Conv2D/merged_input"], "attr": {"dilations": {"list": {"i": ["1", "1", "1", "1"]}}, "T": {"type": "DT_FLOAT"}, "strides": {"list": {"i": ["1", "1", "1", "1"]}}, "data_format": {"s": "TkhXQw=="}, "use_cudnn_on_gpu": {"b": true}, "padding": {"s": "U0…
t32"}, {"name": "xception_65/middle_flow/block1/unit_15/xception_module/separable_conv3_depthwise/depthwise_weights", "shape": [3, 3, 728, 1], "dtype": "float32"}, {"name": "xception_65/middle_flow/block1/unit_15/xception_module/separable_conv3_depthwise/BatchNorm/FusedBatchNorm/Scaled", "shape": [728], "dtype": "float32"}, {"name": "xception_65/middle_flow/block1/unit_15/xception_module/separable_conv3_depthwise/BatchNorm/FusedBatchNorm/Offset", "shape": [728], "dtype": "float32"}, {"name": "xception_65/middle_flow/block1/unit_15/xception_module/separable_conv3_pointwise/Conv2D/merged_input", "shape": [1, 1, 728, 728], "dtype": "float32"}, {"name": "xception_65/middle_flow/block1/unit_15/xception_module/separable_conv3_pointwise/BatchNorm/FusedBatchNorm/Offset", "shape": [728], "dtype": "float32"}, {"name": "xception_65/middle_flow/block1/unit_14/xception_module/separable_conv1_depthwise/depthwise_weights", "shape": [3, 3, 728, 1], "dtype": "float32"}, {"name": "xception_65/middle_flow/block1/unit_14/xception_module/separable_conv1_depthwise/BatchNorm/FusedBatchNorm/Scaled", "shape": [728], "dtype": "float32"}, {"name": "xception_65/middle_flow/block1/unit_14/xception_module/separable_conv1_depthwise/BatchNorm/FusedBatchNorm/Offset", "shape": [728], "dtype": "float32"}, {"name": "xception_65/middle_flow/block1/unit_14/xception_module/separable_conv1_pointwise/Conv2D/merged_input", "shape": [1, 1, 728, 728], "dtype": "float32"}, {"name": "xception_65/middle_flow/block1/unit_14/xception_module/separable_conv1_pointwise/BatchNorm/FusedBatchNorm/Offset", "shape": [728], "dtype": "float32"}, {"name": "xception_65/middle_flow/block1/unit_14/xception_module/separable_conv2_depthwise/depthwise_weights", "shape": [3, 3, 728, 1], "dtype": "float32"}, {"name": "xception_65/middle_flow/block1/unit_14/xception_module/separable_conv2_depthwise/BatchNorm/FusedBatchNorm/Scaled", "shape": [728], "dtype": "float32"}, {"name": "xception_65/middle_flow/block1/unit_14/xception_module/separable_conv2_depthwise/BatchNorm/FusedBatchNorm/Offset", "shape": [728], "dtype": "float32"}, {"name": "xception_65/middle_flow/block1/unit_14/xception_module/separable_conv2_pointwise/Conv2D/merged_input", "shape": [1, 1, 728, 728], "dtype": "float32"}, {"name": "xception_65/middle_flow/block1/unit_14/xception_module/separable_conv2_pointwise/BatchNorm/FusedBatchNorm/Offset", "shape": [728], "dtype": "float32"}, {"name": "xception_65/middle_flow/block1/unit_14/xception_module/separable_conv3_depthwise/depthwise_weights", "shape": [3, 3, 728, 1], "dtype": "float32"}, {"name": "xception_65/middle_flow/block1/unit_14/xception_module/separable_conv3_depthwise/BatchNorm/FusedBatchNorm/Scaled", "shape": [728], "dtype": "float32"}, {"name": "xception_65/middle_flow/block1/unit_14/xception_module/separable_conv3_depthwise/BatchNorm/FusedBatchNorm/Offset", "shape": [728], "dtype": "float32"}, {"name": "xception_65/middle_flow/block1/unit_14/xception_module/separable_conv3_pointwise/Conv2D/merged_input", "shape": [1, 1, 728, 728], "dtype": "float32"}, {"name": "xception_65/middle_flow/block1/unit_14/xception_module/separable_conv3_pointwise/BatchNorm/FusedBatchNorm/Offset", "shape": [728], "dtype": "float32"}, {"name": "xception_65/middle_flow/block1/unit_13/xception_module/separable_conv1_depthwise/depthwise_weights", "shape": [3, 3, 728, 1], "dtype": "float32"}, {"name": "xception_65/middle_flow/block1/unit_13/xception_module/separable_conv1_depthwise/BatchNorm/FusedBatchNorm/Scaled", "shape": [728], "dtype": "float32"}, {"name": "xception_65/middle_flow/block1/unit_13/xception_module/separable_conv1_depthwise/BatchNorm/FusedBatchNorm/Offset", "shape": [728], "dtype": "float32"}, {"name": "xception_65/middle_flow/block1/unit_13/xception_module/separable_conv1_pointwise/Conv2D/merged_input", "shape": [1, 1, 728, 728], "dtype": "float32"}, {"name": "xception_65/middle_flow/block1/unit_13/xception_module/separable_conv1_pointwise/BatchNorm/FusedBatchNorm/Offset", "shape": [728], "dtype": "float32"}, {"name": "xception_65/middle_flow/block1/unit_13/xception_module/separable_conv2_depthwise/depthwise_weights", "shape": [3, 3, 728, 1], "dtype": "float32"}, {"name": "xception_65/middle_flow/block1/unit_13/xception_module/separable_conv2_depthwise/BatchNorm/FusedBatchNorm/Scaled", "shape": [728], "dtype": "float32"}, {"name": "xception_65/middle_flow/block1/unit_13/xception_module/separable_conv2_depthwise/BatchNorm/FusedBatchNorm/Offset", "shape": [728], "dtype": "float32"}, {"name": "xception_65/middle_flow/block1/unit_13/xception_module/separable_conv2_pointwise/Conv2D/merged_input", "shape": [1, 1, 728, 728], "dtype": "float32"}, {"name": "xception_65/middle_flow/block1/unit_13/xception_module/separable_conv2_pointwise/BatchNorm/FusedBatchNorm/Offset", "shape": [728], "dtype": "float32"}, {"name": "xception_65/middle_flow/block1/unit_13/xception_module/separable_conv3_depthwise/depthwise_weights", "shape": [3, 3, 728, 1], "dtype": "float32"}, {"name": "xception_65/middle_flow/block1/unit_13/xception_module/separable_conv3_depthwise/BatchNorm/FusedBatchNorm/Scaled", "shape": [728], "dtype": "float32"}, {"name": "xception_65/middle_flow/block1/unit_13/xception_module/separable_conv3_depthwise/BatchNorm/FusedBatchNorm/Offset", "shape": [728], "dtype": "float32"}, {"name": "xception_65/middle_flow/block1/unit_13/xception_module/separable_conv3_pointwise/Conv2D/merged_input", "shape": [1, 1, 728, 728], "dtype": "float32"}, {"name": "xception_65/middle_flow/block1/unit_13/xception_module/separable_conv3_pointwise/BatchNorm/FusedBatchNorm/Offset", "shape": [728], "dtype": "float32"}, {"name": "xception_65/middle_flow/block1/unit_12/xception_module/separable_conv1_depthwise/depthwise_weights", "shape": [3, 3, 728, 1], "dtype": "float32"}, {"name": "xception_65/middle_flow/block1/unit_12/xception_module/separable_conv1_depthwise/BatchNorm/FusedBatchNorm/Scaled", "shape": [728], "dtype": "float32"}, {"name": "xception_65/middle_flow/block1/unit_12/xception_module/separable_conv1_depthwise/BatchNorm/FusedBatchNorm/Offset", "shape": [728], "dtype": "float32"}, {"name": "xception_65/middle_flow/block1/unit_12/xception_module/separable_conv1_pointwise/Conv2D/merged_input", "shape": [1, 1, 728, 728], "dtype": "float32"}, {"name": "xception_65/middle_flow/block1/unit_12/xception_module/separable_conv1_pointwise/BatchNorm/FusedBatchNorm/Offset", "shape": [728], "dtype": "float32"}, {"name": "xception_65/middle_flow/block1/unit_12/xception_module/separable_conv2_depthwise/depthwise_weights", "shape": [3, 3, 728, 1], "dtype": "float32"}, {"name": "xception_65/middle_flow/block1/unit_12/xception_module/separable_conv2_depthwise/BatchNorm/FusedBatchNorm/Scaled", "shape": [728], "dtype": "float32"}, {"name": "xception_65/middle_flow/block1/unit_12/xception_module/separable_conv2_depthwise/BatchNorm/FusedBatchNorm/Offset", "shape": [728], "dtype": "float32"}, {"name": "xception_65/middle_flow/block1/unit_12/xception_module/separable_conv2_pointwise/Conv2D/merged_input", "shape": [1, 1, 728, 728], "dtype": "float32"}, {"name": "xception_65/middle_flow/block1/unit_12/xception_module/separable_conv2_pointwise/BatchNorm/FusedBatchNorm/Offset", "shape": [728], "dtype": "float32"}, {"name": "xception_65/middle_flow/block1/unit_12/xception_module/separable_conv3_depthwise/depthwise_weights", "shape": [3, 3, 728, 1], "dtype": "float32"}, {"name": "xception_65/middle_flow/block1/unit_12/xception_module/separable_conv3_depthwise/BatchNorm/FusedBatchNorm/Scaled", "shape": [728], "dtype": "float32"}, {"name": "xception_65/middle_flow/block1/unit_12/xception_module/separable_conv3_depthwise/BatchNorm/FusedBatchNorm/Offset", "shape": [728], "dtype": "float32"}, {"name": "xception_65/middle_flow/block1/unit_12/xception_module/separable_conv3_pointwise/Conv2D/merged_input", "shape": [1, 1, 728, 728], "dtype": "float32"}, {"name": "xception_65/middle_flow/block1/unit_12/xception_module/separable_conv3_pointwise/BatchNorm/FusedBatchNorm/Offset", "shape": [728], "dtype": "float32"}, {"name": "xception_65/middle_flow/block1/unit_11/xception_module/separable_conv1_depthwise/depthwise_weights", "shape": [3, 3, 728, 1], "dtype": "float32"}, {"name": "xception_65/middle_flow/block1/unit_11/xception_module/separable_conv1_depthwise/BatchNorm/FusedBatchNorm/Scaled", "shape": [728], "dtype": "float32"}, {"name": "xception_65/middle_flow/block1/unit_11/xception_module/separable_conv1_depthwise/BatchNorm/FusedBatchNorm/Offset", "shape": [728], "dtype": "float32"}, {"name": "xception_65/middle_flow/block1/unit_11/xception_module/separable_conv1_pointwise/Conv2D/merged_input", "shape": [1, 1, 728, 728], "dtype": "float32"}, {"name": "xception_65/middle_flow/block1/unit_11/xception_module/separable_conv1_pointwise/BatchNorm/FusedBatchNorm/Offset", "shape": [728], "dtype": "float32"}, {"name": "xception_65/middle_flow/block1/unit_11/xception_module/separable_conv2_depthwise/depthwise_weights", "shape": [3, 3, 728, 1], "dtype": "float32"}, {"name": "xception_65/middle_flow/block1/unit_11/xception_module/separable_conv2_depthwise/BatchNorm/FusedBatchNorm/Scaled", "shape": [728], "dtype": "float32"}, {"name": "xception_65/middle_flow/block1/unit_11/xception_module/separable_conv2_depthwise/BatchNorm/FusedBatchNorm/Offset", "shape": [728], "dtype": "float32"}, {"name": "xception_65/middle_flow/block1/unit_11/xception_module/separable_conv2_pointwise/Conv2D/merged_input", "shape": [1, 1, 728, 728], "dtype": "float32"}, {"name": "xception_65/middle_flow/block1/unit_11/xception_module/separable_conv2_pointwise/BatchNorm/FusedBatchNorm/Offset", "shape": [728], "dtype": "float32"}, {"name": "xception_65/middle_flow/block1/unit_11/xception_module/separable_conv3_depthwise/depthwise_weights", "shape": [3, 3, 728, 1], "dtype": "float32"}, {"name": "xception_65/middle_flow/block1/unit_11/xception_module/separable_conv3_depthwise/BatchNorm/FusedBatchNorm/Scaled", "shape": [728], "dtype": "float32"}, {"name": "xception_65/middle_flow/block1/unit_11/xception_module/separable_conv3_depthwise/BatchNorm/FusedBatchNorm/Offset", "shape": [728], "dtype": "float32"}, {"name": "xception_65/middle_flow/block1/unit_11/xception_module/separable_conv3_pointwise/Conv2D/merged_input", "shape": [1, 1, 728, 728], "dtype": "float32"}, {"name": "xception_65/middle_flow/block1/unit_11/xception_module/separable_conv3_pointwise/BatchNorm/FusedBatchNorm/Offset", "shape": [728], "dtype": "float32"}, {"name": "xception_65/middle_flow/block1/unit_10/xception_module/separable_conv1_depthwise/depthwise_weights", "shape": [3, 3, 728, 1], "dtype": "float32"}, {"name": "xception_65/middle_flow/block1/unit_10/xception_module/separable_conv1_depthwise/BatchNorm/FusedBatchNorm/Scaled", "shape": [728], "dtype": "float32"}, {"name": "xception_65/middle_flow/block1/unit_10/xception_module/separable_conv1_depthwise/BatchNorm/FusedBatchNorm/Offset", "shape": [728], "dtype": "float32"}, {"name": "xception_65/middle_flow/block1/unit_10/xception_module/separable_conv1_pointwise/Conv2D/merged_input", "shape": [1, 1, 728, 728], "dtype": "float32"}, {"name": "xception_65/middle_flow/block1/unit_10/xception_module/separable_conv1_pointwise/BatchNorm/FusedBatchNorm/Offset", "shape": [728], "dtype": "float32"}, {"name": "xception_65/middle_flow/block1/unit_10/xception_module/separable_conv2_depthwise/depthwise_weights", "shape": [3, 3, 728, 1], "dtype": "float32"}, {"name": "xception_65/middle_flow/block1/unit_10/xception_module/separable_conv2_depthwise/BatchNorm/FusedBatchNorm/Scaled", "shape": [728], "dtype": "float32"}, {"name": "xception_65/middle_flow/block1/unit_10/xception_module/separable_conv2_depthwise/BatchNorm/FusedBatchNorm/Offset", "shape": [728], "dtype": "float32"}, {"name": "xception_65/middle_flow/block1/unit_10/xception_module/separable_conv2_pointwise/Conv2D/merged_input", "shape": [1, 1, 728, 728], "dtype": "float32"}, {"name": "xception_65/middle_flow/block1/unit_10/xception_module/separable_conv2_pointwise/BatchNorm/FusedBatchNorm/Offset", "shape": [728], "dtype": "float32"}, {"name": "xception_65/middle_flow/block1/unit_10/xception_module/separable_conv3_depthwise/depthwise_weights", "shape": [3, 3, 728, 1], "dtype": "float32"}, {"name": "xception_65/middle_flow/block1/unit_10/xception_module/separable_conv3_depthwise/BatchNorm/FusedBatchNorm/Scaled", "shape": [728], "dtype": "float32"}, {"name": "xception_65/middle_flow/block1/unit_10/xception_module/separable_conv3_depthwise/BatchNorm/FusedBatchNorm/Offset", "shape": [728], "dtype": "float32"}, {"name": "xception_65/middle_flow/block1/unit_10/xception_module/separable_conv3_pointwise/Conv2D/merged_input", "shape": [1, 1, 728, 728], "dtype": "float32"}, {"name": "xception_65/middle_flow/block1/unit_10/xception_module/separable_conv3_pointwise/BatchNorm/FusedBatchNorm/Offset", "shape": [728], "dtype": "float32"}, {"name": "xception_65/middle_flow/block1/unit_9/xception_module/separable_conv1_depthwise/depthwise_weights", "shape": [3, 3, 728, 1], "dtype": "float32"}, {"name": "xception_65/middle_flow/block1/unit_9/xception_module/separable_conv1_depthwise/BatchNorm/FusedBatchNorm/Scaled", "shape": [728], "dtype": "float32"}, {"name": "xception_65/middle_flow/block1/unit_9/xception_module/separable_conv1_depthwise/BatchNorm/FusedBatchNorm/Offset", "shape": [728], "dtype": "float32"}, {"name": "xception_65/middle_flow/block1/unit_9/xception_module/separable_conv1_pointwise/Conv2D/merged_input", "shape": [1, 1, 728, 728], "dtype": "float32"}, {"name": "xception_65/middle_flow/block1/unit_9/xception_module/separable_conv1_pointwise/BatchNorm/FusedBatchNorm/Offset", "shape": [728], "dtype": "float32"}, {"name": "xception_65/middle_flow/block1/unit_9/xception_module/separable_conv2_depthwise/depthwise_weights", "shape": [3, 3, 728, 1], "dtype": "float32"}, {"name": "xception_65/middle_flow/block1/unit_9/xception_module/separable_conv2_depthwise/BatchNorm/FusedBatchNorm/Scaled", "shape": [728], "dtype": "float32"}, {"name": "xception_65/middle_flow/block1/unit_9/xception_module/separable_conv2_depthwise/BatchNorm/FusedBatchNorm/Offset", "shape": [728], "dtype": "float32"}, {"name": "xception_65/middle_flow/block1/unit_9/xception_module/separable_conv2_pointwise/Conv2D/merged_input", "shape": [1, 1, 728, 728], "dtype": "float32"}, {"name": "xception_65/middle_flow/block1/unit_9/xception_module/separable_conv2_pointwise/BatchNorm/FusedBatchNorm/Offset", "shape": [728], "dtype": "float32"}, {"name": "xception_65/middle_flow/block1/unit_9/xception_module/separable_conv3_depthwise/depthwise_weights", "shape": [3, 3, 728, 1], "dtype": "float32"}, {"name": "xception_65/middle_flow/block1/unit_9/xception_module/separable_conv3_depthwise/BatchNorm/FusedBatchNorm/Scaled", "shape": [728], "dtype": "float32"}, {"name": "xception_65/middle_flow/block1/unit_9/xception_module/separable_conv3_depthwise/BatchNorm/FusedBatchNorm/Offset", "shape": [728], "dtype": "float32"}, {"name": "xception_65/middle_flow/block1/unit_9/xception_module/separable_conv3_pointwise/Conv2D/merged_input", "shape": [1, 1, 728, 728], "dtype": "float32"}, {"name": "xception_65/middle_flow/block1/unit_9/xception_module/separable_conv3_pointwise/BatchNorm/FusedBatchNorm/Offset", "shape": [728], "dtype": "float32"}, {"name": "xception_65/middle_flow/block1/unit_8/xception_module/separable_conv1_depthwise/depthwise_weights", "shape": [3, 3, 728, 1], "dtype": "float32"}, {"name": "xception_65/middle_flow/block1/unit_8/xception_module/separable_conv1_depthwise/BatchNorm/FusedBatchNorm/Scaled", "shape": [728], "dtype": "float32"}, {"name": "xception_65/middle_flow/block1/unit_8/xception_module/separable_conv1_depthwise/BatchNorm/FusedBatchNorm/Offset", "shape": [728], "dtype": "float32"}, {"name": "xception_65/middle_flow/block1/unit_8/xception_module/separable_conv1_pointwise/Conv2D/merged_input", "shape": [1, 1, 728, 728], "dtype": "float32"}, {"name": "xception_65/middle_flow/block1/unit_8/xception_module/separable_conv1_pointwise/BatchNorm/FusedBatchNorm/Offset", "shape": [728], "dtype": "float32"}, {"name": "xception_65/middle_flow/block1/unit_8/xception_module/separable_conv2_depthwise/depthwise_weights", "shape": [3, 3, 728, 1], "dtype": "float32"}, {"name": "xception_65/middle_flow/block1/unit_8/xception_module/separable_conv2_depthwise/BatchNorm/FusedBatchNorm/Scaled", "shape": [728], "dtype": "float32"}, {"name": "xception_65/middle_flow/block1/unit_8/xception_module/separable_conv2_depthwise/BatchNorm/FusedBatchNorm/Offset", "shape": [728], "dtype": "float32"}, {"name": "xception_65/middle_flow/block1/unit_8/xception_module/separable_conv2_pointwise/Conv2D/merged_input", "shape": [1, 1, 728, 728], "dtype": "float32"}, {"name": "xception_65/middle_flow/block1/unit_8/xception_module/separable_conv2_pointwise/BatchNorm/FusedBatchNorm/Offset", "shape": [728], "dtype": "float32"}, {"name": "xception_65/middle_flow/block1/unit_8/xception_module/separable_conv3_depthwise/depthwise_weights", "shape": [3, 3, 728, 1], "dtype": "float32"}, {"name": "xception_65/middle_flow/block1/unit_8/xception_module/separable_conv3_depthwise/BatchNorm/FusedBatchNorm/Scaled", "shape": [728], "dtype": "float32"}, {"name": "xception_65/middle_flow/block1/unit_8/xception_module/separable_conv3_depthwise/BatchNorm/FusedBatchNorm/Offset", "shape": [728], "dtype": "float32"}, {"name": "xception_65/middle_flow/block1/unit_8/xception_module/separable_conv3_pointwise/Conv2D/merged_input", "shape": [1, 1, 728, 728], "dtype": "float32"}, {"name": "xception_65/middle_flow/block1/unit_8/xception_module/separable_conv3_pointwise/BatchNorm/FusedBatchNorm/Offset", "shape": [728], "dtype": "float32"}, {"name": "xception_65/middle_flow/block1/unit_7/xception_module/separable_conv1_depthwise/depthwise_weights", "shape": [3, 3, 728, 1], "dtype": "float32"}, {"name": "xception_65/middle_flow/block1/unit_7/xception_module/separable_conv1_depthwise/BatchNorm/FusedBatchNorm/Scaled", "shape": [728], "dtype": "float32"}, {"name": "xception_65/middle_flow/block1/unit_7/xception_module/separable_conv1_depthwise/BatchNorm/FusedBatchNorm/Offset", "shape": [728], "dtype": "float32"}, {"name": "xception_65/middle_flow/block1/unit_7/xception_module/separable_conv1_pointwise/Conv2D/merged_input", "shape": [1, 1, 728, 728], "dtype": "float32"}, {"name": "xception_65/middle_flow/block1/unit_7/xception_module/separable_conv1_pointwise/BatchNorm/FusedBatchNorm/Offset", "shape": [728], "dtype": "float32"}, {"name": "xception_65/middle_flow/block1/unit_7/xception_module/separable_conv2_depthwise/depthwise_weights", "shape": [3, 3, 728, 1], "dtype": "float32"}, {"name": "xception_65/middle_flow/block1/unit_7/xception_module/separable_conv2_depthwise/BatchNorm/FusedBatchNorm/Scaled", "shape": [728], "dtype": "float32"}, {"name": "xception_65/middle_flow/block1/unit_7/xception_module/separable_conv2_depthwise/BatchNorm/FusedBatchNorm/Offset", "shape": [728], "dtype": "float32"}, {"name": "xception_65/middle_flow/block1/unit_7/xception_module/separable_conv2_pointwise/Conv2D/merged_input", "shape": [1, 1, 728, 728], "dtype": "float32"}, {"name": "xception_65/middle_flow/block1/unit_7/xception_module/separable_conv2_pointwise/BatchNorm/FusedBatchNorm/Offset", "shape": [728], "dtype": "float32"}, {"name": "xception_65/middle_flow/block1/unit_7/xception_module/separable_conv3_depthwise/depthwise_weights", "shape": [3, 3, 728, 1], "dtype": "float32"}, {"name": "xception_65/middle_flow/block1/unit_7/xception_module/separable_conv3_depthwise/BatchNorm/FusedBatchNorm/Scaled", "shape": [728], "dtype": "float32"}, {"name": "xception_65/middle_flow/block1/unit_7/xception_module/separable_conv3_depthwise/BatchNorm/FusedBatchNorm/Offset", "shape": [728], "dtype": "float32"}, {"name": "xception_65/middle_flow/block1/unit_7/xception_module/separable_conv3_pointwise/Conv2D/merged_input", "shape": [1, 1, 728, 728], "dtype": "float32"}, {"name": "xception_65/middle_flow/block1/unit_7/xception_module/separable_conv3_pointwise/BatchNorm/FusedBatchNorm/Offset", "shape": [728], "dtype": "float32"}, {"name": "xception_65/middle_flow/block1/unit_6/xception_module/separable_conv1_depthwise/depthwise_weights", "shape": [3, 3, 728, 1], "dtype": "float32"}, {"name": "xception_65/middle_flow/block1/unit_6/xception_module/separable_conv1_depthwise/BatchNorm/FusedBatchNorm/Scaled", "shape": [728], "dtype": "float32"}, {"name": "xception_65/middle_flow/block1/unit_6/xception_module/separable_conv1_depthwise/BatchNorm/FusedBatchNorm/Offset", "shape": [728], "dtype": "float32"}, {"name": "xception_65/middle_flow/block1/unit_6/xception_module/separable_conv1_pointwise/Conv2D/merged_input", "shape": [1, 1, 728, 728], "dtype": "float32"}, {"name": "xception_65/middle_flow/block1/unit_6/xception_module/separable_conv1_pointwise/BatchNorm/FusedBatchNorm/Offset", "shape": [728], "dtype": "float32"}, {"name": "xception_65/middle_flow/block1/unit_6/xception_module/separable_conv2_depthwise/depthwise_weights", "shape": [3, 3, 728, 1], "dtype": "float32"}, {"name": "xception_65/middle_flow/block1/unit_6/xception_module/separable_conv2_depthwise/BatchNorm/FusedBatchNorm/Scaled", "shape": [728], "dtype": "float32"}, {"name": "xception_65/middle_flow/block1/unit_6/xception_module/separable_conv2_depthwise/BatchNorm/FusedBatchNorm/Offset", "shape": [728], "dtype": "float32"}, {"name": "xception_65/middle_flow/block1/unit_6/xception_module/separable_conv2_pointwise/Conv2D/merged_input", "shape": [1, 1, 728, 728], "dtype": "float32"}, {"name": "xception_65/middle_flow/block1/unit_6/xception_module/separable_conv2_pointwise/BatchNorm/FusedBatchNorm/Offset", "shape": [728], "dtype": "float32"}, {"name": "xception_65/middle_flow/block1/unit_6/xception_module/separable_conv3_depthwise/depthwise_weights", "shape": [3, 3, 728, 1], "dtype": "float32"}, {"name": "xception_65/middle_flow/block1/unit_6/xception_module/separable_conv3_depthwise/BatchNorm/FusedBatchNorm/Scaled", "shape": [728], "dtype": "float32"}, {"name": "xception_65/middle_flow/block1/unit_6/xception_module/separable_conv3_depthwise/BatchNorm/FusedBatchNorm/Offset", "shape": [728], "dtype": "float32"}, {"name": "xception_65/middle_flow/block1/unit_6/xception_module/separable_conv3_pointwise/Conv2D/merged_input", "shape": [1, 1, 728, 728], "dtype": "float32"}, {"name": "xception_65/middle_flow/block1/unit_6/xception_module/separable_conv3_pointwise/BatchNorm/FusedBatchNorm/Offset", "shape": [728], "dtype": "float32"}, {"name": "xception_65/middle_flow/block1/unit_5/xception_module/separable_conv1_depthwise/depthwise_weights", "shape": [3, 3, 728, 1], "dtype": "float32"}, {"name": "xception_65/middle_flow/block1/unit_5/xception_module/separable_conv1_depthwise/BatchNorm/FusedBatchNorm/Scaled", "shape": [728], "dtype": "float32"}, {"name": "xception_65/middle_flow/block1/unit_5/xception_module/separable_conv1_depthwise/BatchNorm/FusedBatchNorm/Offset", "shape": [728], "dtype": "float32"}, {"name": "xception_65/middle_flow/block1/unit_5/xception_module/separable_conv1_pointwise/Conv2D/merged_input", "shape": [1, 1, 728, 728], "dtype": "float32"}, {"name": "xception_65/middle_flow/block1/unit_5/xception_module/separable_conv1_pointwise/BatchNorm/FusedBatchNorm/Offset", "shape": [728], "dtype": "float32"}, {"name": "xception_65/middle_flow/block1/unit_5/xception_module/separable_conv2_depthwise/depthwise_weights", "shape": [3, 3, 728, 1], "dtype": "float32"}, {"name": "xception_65/middle_flow/block1/unit_5/xception_module/separable_conv2_depthwise/BatchNorm/FusedBatchNorm/Scaled", "shape": [728], "dtype": "float32"}, {"name": "xception_65/middle_flow/block1/unit_5/xception_module/separable_conv2_depthwise/BatchNorm/FusedBatchNorm/Offset", "shape": [728], "dtype": "float32"}, {"name": "xception_65/middle_flow/block1/unit_5/xception_module/separable_conv2_pointwise/Conv2D/merged_input", "shape": [1, 1, 728, 728], "dtype": "float32"}, {"name": "xception_65/middle_flow/block1/unit_5/xception_module/separable_conv2_pointwise/BatchNorm/FusedBatchNorm/Offset", "shape": [728], "dtype": "float32"}, {"name": "xception_65/middle_flow/block1/unit_5/xception_module/separable_conv3_depthwise/depthwise_weights", "shape": [3, 3, 728, 1], "dtype": "float32"}, {"name": "xception_65/middle_flow/block1/unit_5/xception_module/separable_conv3_depthwise/BatchNorm/FusedBatchNorm/Scaled", "shape": [728], "dtype": "float32"}, {"name": "xception_65/middle_flow/block1/unit_5/xception_module/separable_conv3_depthwise/BatchNorm/FusedBatchNorm/Offset", "shape": [728], "dtype": "float32"}, {"name": "xception_65/middle_flow/block1/unit_5/xception_module/separable_conv3_pointwise/Conv2D/merged_input", "shape": [1, 1, 728, 728], "dtype": "float32"}, {"name": "xception_65/middle_flow/block1/unit_5/xception_module/separable_conv3_pointwise/BatchNorm/FusedBatchNorm/Offset", "shape": [728], "dtype": "float32"}, {"name": "xception_65/middle_flow/block1/unit_4/xception_module/separable_conv1_depthwise/depthwise_weights", "shape": [3, 3, 728, 1], "dtype": "float32"}, {"name": "xception_65/middle_flow/block1/unit_4/xception_module/separable_conv1_depthwise/BatchNorm/FusedBatchNorm/Scaled", "shape": [728], "dtype": "float32"}, {"name": "xception_65/middle_flow/block1/unit_4/xception_module/separable_conv1_depthwise/BatchNorm/FusedBatchNorm/Offset", "shape": [728], "dtype": "float32"}, {"name": "xception_65/middle_flow/block1/unit_4/xception_module/separable_conv1_pointwise/Conv2D/merged_input", "shape": [1, 1, 728, 728], "dtype": "float32"}, {"name": "xception_65/middle_flow/block1/unit_4/xception_module/separable_conv1_pointwise/BatchNorm/FusedBatchNorm/Offset", "shape": [728], "dtype": "float32"}, {"name": "xception_65/middle_flow/block1/unit_4/xception_module/separable_conv2_depthwise/depthwise_weights", "shape": [3, 3, 728, 1], "dtype": "float32"}, {"name": "xception_65/middle_flow/block1/unit_4/xception_module/separable_conv2_depthwise/BatchNorm/FusedBatchNorm/Scaled", "shape": [728], "dtype": "float32"}, {"name": "xception_65/middle_flow/block1/unit_4/xception_module/separable_conv2_depthwise/BatchNorm/FusedBatchNorm/Offset", "shape": [728], "dtype": "float32"}, {"name": "xception_65/middle_flow/block1/unit_4/xception_module/separable_conv2_pointwise/Conv2D/merged_input", "shape": [1, 1, 728, 728], "dtype": "float32"}, {"name": "xception_65/middle_flow/block1/unit_4/xception_module/separable_conv2_pointwise/BatchNorm/FusedBatchNorm/Offset", "shape": [728], "dtype": "float32"}, {"name": "xception_65/middle_flow/block1/unit_4/xception_module/separable_conv3_depthwise/depthwise_weights", "shape": [3, 3, 728, 1], "dtype": "float32"}, {"name": "xception_65/middle_flow/block1/unit_4/xception_module/separable_conv3_depthwise/BatchNorm/FusedBatchNorm/Scaled", "shape": [728], "dtype": "float32"}, {"name": "xception_65/middle_flow/block1/unit_4/xception_module/separable_conv3_depthwise/BatchNorm/FusedBatchNorm/Offset", "shape": [728], "dtype": "float32"}, {"name": "xception_65/middle_flow/block1/unit_4/xception_module/separable_conv3_pointwise/Conv2D/merged_input", "shape": [1, 1, 728, 728], "dtype": "float32"}, {"name": "xception_65/middle_flow/block1/unit_4/xception_module/separable_conv3_pointwise/BatchNorm/FusedBatchNorm/Offset", "shape": [728], "dtype": "float32"}, {"name": "xception_65/middle_flow/block1/unit_3/xception_module/separable_conv1_depthwise/depthwise_weights", "shape": [3, 3, 728, 1], "dtype": "float32"}, {"name": "xception_65/middle_flow/block1/unit_3/xception_module/separable_conv1_depthwise/BatchNorm/FusedBatchNorm/Scaled", "shape": [728], "dtype": "float32"}, {"name": "xception_65/middle_flow/block1/unit_3/xception_module/separable_conv1_depthwise/BatchNorm/FusedBatchNorm/Offset", "shape": [728], "dtype": "float32"}, {"name": "xception_65/middle_flow/block1/unit_3/xception_module/separable_conv1_pointwise/Conv2D/merged_input", "shape": [1, 1, 728, 728], "dtype": "float32"}, {"name": "xception_65/middle_flow/block1/unit_3/xception_module/separable_conv1_pointwise/BatchNorm/FusedBatchNorm/Offset", "shape": [728], "dtype": "float32"}, {"name": "xception_65/middle_flow/block1/unit_3/xception_module/separable_conv2_depthwise/depthwise_weights", "shape": [3, 3, 728, 1], "dtype": "float32"}, {"name": "xception_65/middle_flow/block1/unit_3/xception_module/separable_conv2_depthwise/BatchNorm/FusedBatchNorm/Scaled", "shape": [728], "dtype": "float32"}, {"name": "xception_65/middle_flow/block1/unit_3/xception_module/separable_conv2_depthwise/BatchNorm/FusedBatchNorm/Offset", "shape": [728], "dtype": "float32"}, {"name": "xception_65/middle_flow/block1/unit_3/xception_module/separable_conv2_pointwise/Conv2D/merged_input", "shape": [1, 1, 728, 728], "dtype": "float32"}, {"name": "xception_65/middle_flow/block1/unit_3/xception_module/separable_conv2_pointwise/BatchNorm/FusedBatchNorm/Offset", "shape": [728], "dtype": "float32"}, {"name": "xception_65/middle_flow/block1/unit_3/xception_module/separable_conv3_depthwise/depthwise_weights", "shape": [3, 3, 728, 1], "dtype": "float32"}, {"name": "xception_65/middle_flow/block1/unit_3/xception_module/separable_conv3_depthwise/BatchNorm/FusedBatchNorm/Scaled", "shape": [728], "dtype": "float32"}, {"name": "xception_65/middle_flow/block1/unit_3/xception_module/separable_conv3_depthwise/BatchNorm/FusedBatchNorm/Offset", "shape": [728], "dtype": "float32"}, {"name": "xception_65/middle_flow/block1/unit_3/xception_module/separable_conv3_pointwise/Conv2D/merged_input", "shape": [1, 1, 728, 728], "dtype": "float32"}, {"name": "xception_65/middle_flow/block1/unit_3/xception_module/separable_conv3_pointwise/BatchNorm/FusedBatchNorm/Offset", "shape": [728], "dtype": "float32"}, {"name": "xception_65/middle_flow/block1/unit_2/xception_module/separable_conv1_depthwise/depthwise_weights", "shape": [3, 3, 728, 1], "dtype": "float32"}, {"name": "xception_65/middle_flow/block1/unit_2/xception_module/separable_conv1_depthwise/BatchNorm/FusedBatchNorm/Scaled", "shape": [728], "dtype": "float32"}, {"name": "xception_65/middle_flow/block1/unit_2/xception_module/separable_conv1_depthwise/BatchNorm/FusedBatchNorm/Offset", "shape": [728], "dtype": "float32"}, {"name": "xception_65/middle_flow/block1/unit_2/xception_module/separable_conv1_pointwise/Conv2D/merged_input", "shape": [1, 1, 728, 728], "dtype": "float32"}, {"name": "xception_65/middle_flow/block1/unit_2/xception_module/separable_conv1_pointwise/BatchNorm/FusedBatchNorm/Offset", "shape": [728], "dtype": "float32"}, {"name": "xception_65/middle_flow/block1/unit_2/xception_module/separable_conv2_depthwise/depthwise_weights", "shape": [3, 3, 728, 1], "dtype": "float32"}, {"name": "xception_65/middle_flow/block1/unit_2/xception_module/separable_conv2_depthwise/BatchNorm/FusedBatchNorm/Scaled", "shape": [728], "dtype": "float32"}, {"name": "xception_65/middle_flow/block1/unit_2/xception_module/separable_conv2_depthwise/BatchNorm/FusedBatchNorm/Offset", "shape": [728], "dtype": "float32"}, {"name": "xception_65/middle_flow/block1/unit_2/xception_module/separable_conv2_pointwise/Conv2D/merged_input", "shape": [1, 1, 728, 728], "dtype": "float32"}, {"name": "xception_65/middle_flow/block1/unit_2/xception_module/separable_conv2_pointwise/BatchNorm/FusedBatchNorm/Offset", "shape": [728], "dtype": "float32"}, {"name": "xception_65/middle_flow/block1/unit_2/xception_module/separable_conv3_depthwise/depthwise_weights", "shape": [3, 3, 728, 1], "dtype": "float32"}, {"name": "xception_65/middle_flow/block1/unit_2/xception_module/separable_conv3_depthwise/BatchNorm/FusedBatchNorm/Scaled", "shape": [728], "dtype": "float32"}, {"name": "xception_65/middle_flow/block1/unit_2/xception_module/separable_conv3_depthwise/BatchNorm/FusedBatchNorm/Offset", "shape": [728], "dtype": "float32"}, {"name": "xception_65/middle_flow/block1/unit_2/xception_module/separable_conv3_pointwise/Conv2D/merged_input", "shape": [1, 1, 728, 728], "dtype": "float32"}, {"name": "xception_65/middle_flow/block1/unit_2/xception_module/separable_conv3_pointwise/BatchNorm/FusedBatchNorm/Offset", "shape": [728], "dtype": "float32"}, {"name": "xception_65/middle_flow/block1/unit_1/xception_module/separable_conv1_depthwise/depthwise_weights", "shape": [3, 3, 728, 1], "dtype": "float32"}, {"name": "xception_65/middle_flow/block1/unit_1/xception_module/separable_conv1_depthwise/BatchNorm/FusedBatchNorm/Scaled", "shape": [728], "dtype": "float32"}, {"name": "xception_65/middle_flow/block1/unit_1/xception_module/separable_conv1_depthwise/BatchNorm/FusedBatchNorm/Offset", "shape": [728], "dtype": "float32"}, {"name": "xception_65/middle_flow/block1/unit_1/xception_module/separable_conv1_pointwise/Conv2D/merged_input", "shape": [1, 1, 728, 728], "dtype": "float32"}, {"name": "xception_65/middle_flow/block1/unit_1/xception_module/separable_conv1_pointwise/BatchNorm/FusedBatchNorm/Offset", "shape": [728], "dtype": "float32"}, {"name": "xception_65/middle_flow/block1/unit_1/xception_module/separable_conv2_depthwise/depthwise_weights", "shape": [3, 3, 728, 1], "dtype": "float32"}, {"name": "xception_65/middle_flow/block1/unit_1/xception_module/separable_conv2_depthwise/BatchNorm/FusedBatchNorm/Scaled", "shape": [728], "dtype": "float32"}, {"name": "xception_65/middle_flow/block1/unit_1/xception_module/separable_conv2_depthwise/BatchNorm/FusedBatchNorm/Offset", "shape": [728], "dtype": "float32"}, {"name": "xception_65/middle_flow/block1/unit_1/xception_module/separable_conv2_pointwise/Conv2D/merged_input", "shape": [1, 1, 728, 728], "dtype": "float32"}, {"name": "xception_65/middle_flow/block1/unit_1/xception_module/separable_conv2_pointwise/BatchNorm/FusedBatchNorm/Offset", "shape": [728], "dtype": "float32"}, {"name": "xception_65/exit_flow/block1/unit_1/xception_module/separable_conv1_depthwise/depthwise/SpaceToBatchND/paddings", "shape": [2, 2], "dtype": "int32"}, {"name": "xception_65/middle_flow/block1/unit_1/xception_module/separable_conv3_depthwise/depthwise_weights", "shape": [3, 3, 728, 1], "dtype": "float32"}, {"name": "xception_65/exit_flow/block1/unit_1/xception_module/separable_conv1_depthwise/depthwise/SpaceToBatchND/block_shape", "shape": [2], "dtype": "int32"}, {"name": "xception_65/exit_flow/block1/unit_1/xception_module/separable_conv1_depthwise/depthwise/BatchToSpaceND/crops", "shape": [2, 2], "dtype": "int32"}, {"name": "xception_65/middle_flow/block1/unit_1/xception_module/separable_conv3_depthwise/BatchNorm/FusedBatchNorm/Scaled", "shape": [728], "dtype": "float32"}, {"name": "xception_65/middle_flow/block1/unit_1/xception_module/separable_conv3_depthwise/BatchNorm/FusedBatchNorm/Offset", "shape": [728], "dtype": "float32"}, {"name": "xception_65/middle_flow/block1/unit_1/xception_module/separable_conv3_pointwise/Conv2D/merged_input", "shape": [1, 1, 728, 728], "dtype": "float32"}, {"name": "xception_65/middle_flow/block1/unit_1/xception_module/separable_conv3_pointwise/BatchNorm/FusedBatchNorm/Offset", "shape": [728], "dtype": "float32"}, {"name": "xception_65/entry_flow/block3/unit_1/xception_module/ArithmeticOptimizer/AddOpsRewrite_Leaf_0_add", "shape": [728], "dtype": "float32"}, {"name": "xception_65/entry_flow/block3/unit_1/xception_module/separable_conv1_depthwise/depthwise_weights", "shape": [3, 3, 256, 1], "dtype": "float32"}, {"name": "xception_65/entry_flow/block3/unit_1/xception_module/separable_conv1_depthwise/BatchNorm/FusedBatchNorm/Scaled", "shape": [256], "dtype": "float32"}, {"name": "xception_65/entry_flow/block3/unit_1/xception_module/separable_conv1_depthwise/BatchNorm/FusedBatchNorm/Offset", "shape": [256], "dtype": "float32"}, {"name": "xception_65/entry_flow/block3/unit_1/xception_module/separable_conv1_pointwise/Conv2D/merged_input", "shape": [1, 1, 256, 728], "dtype": "float32"}, {"name": "xception_65/entry_flow/block3/unit_1/xception_module/separable_conv1_pointwise/BatchNorm/FusedBatchNorm/Offset", "shape": [728], "dtype": "float32"}, {"name": "xception_65/entry_flow/block3/unit_1/xception_module/separable_conv2_depthwise/depthwise_weights", "shape": [3, 3, 728, 1], "dtype": "float32"}, {"name": "xception_65/entry_flow/block3/unit_1/xception_module/separable_conv2_depthwise/BatchNorm/FusedBatchNorm/Scaled", "shape": [728], "dtype": "float32"}, {"name": "xception_65/entry_flow/block3/unit_1/xception_module/separable_conv2_depthwise/BatchNorm/FusedBatchNorm/Offset", "shape": [728], "dtype": "float32"}, {"name": "xception_65/entry_flow/block3/unit_1/xception_module/separable_conv2_pointwise/Conv2D/merged_input", "shape": [1, 1, 728, 728], "dtype": "float32"}, {"name": "xception_65/entry_flow/block3/unit_1/xception_module/separable_conv2_pointwise/BatchNorm/FusedBatchNorm/Offset", "shape": [728], "dtype": "float32"}, {"name": "xception_65/entry_flow/block3/unit_1/xception_module/separable_conv3_depthwise/depthwise_weights", "shape": [3, 3, 728, 1], "dtype": "float32"}, {"name": "xception_65/entry_flow/block3/unit_1/xception_module/separable_conv3_depthwise/BatchNorm/FusedBatchNorm/Scaled", "shape": [728], "dtype": "float32"}, {"name": "xception_65/entry_flow/block3/unit_1/xception_module/separable_conv3_depthwise/BatchNorm/FusedBatchNorm/Offset", "shape": [728], "dtype": "float32"}, {"name": "xception_65/entry_flow/block3/unit_1/xception_module/separable_conv3_pointwise/Conv2D/merged_input", "shape": [1, 1, 728, 728], "dtype": "float32"}, {"name": "xception_65/entry_flow/block2/unit_1/xception_module/separable_conv3_depthwise/depthwise_weights", "shape": [3, 3, 256, 1], "dtype": "float32"}, {"name": "xception_65/entry_flow/block2/unit_1/xception_module/separable_conv3_depthwise/BatchNorm/FusedBatchNorm/Scaled", "shape": [256], "dtype": "float32"}, {"name": "xception_65/entry_flow/block2/unit_1/xception_module/separable_conv3_depthwise/BatchNorm/FusedBatchNorm/Offset", "shape": [256], "dtype": "float32"}, {"name": "xception_65/entry_flow/block2/unit_1/xception_module/separable_conv3_pointwise/Conv2D/merged_input", "shape": [1, 1, 256, 256], "dtype": "float32"}, {"name": "xception_65/entry_flow/block2/unit_1/xception_module/separable_conv3_pointwise/BatchNorm/FusedBatchNorm/Offset", "shape": [256], "dtype": "float32"}, {"name": "xception_65/entry_flow/block2/unit_1/xception_module/shortcut/Conv2D/merged_input", "shape": [1, 1, 128, 256], "dtype": "float32"}, {"name": "xception_65/entry_flow/block2/unit_1/xception_module/shortcut/BatchNorm/FusedBatchNorm/Offset", "shape": [256], "dtype": "float32"}, {"name": "xception_65/entry_flow/block3/unit_1/xception_module/shortcut/Conv2D/merged_input", "shape": [1, 1, 256, 728], "dtype": "float32"}, {"name": "xception_65/exit_flow/block1/unit_1/xception_module/shortcut/Conv2D/merged_input", "shape": [1, 1, 728, 1024], "dtype": "float32"}, {"name": "xception_65/exit_flow/block1/unit_1/xception_module/shortcut/BatchNorm/FusedBatchNorm/Offset", "shape": [1024], "dtype": "float32"}, {"name": "xception_65/exit_flow/block2/unit_1/xception_module/separable_conv1_depthwise/depthwise_weights", "shape": [3, 3, 1024, 1], "dtype": "float32"}, {"name": "xception_65/exit_flow/block2/unit_1/xception_module/separable_conv1_depthwise/BatchNorm/FusedBatchNorm/Scaled", "shape": [1024], "dtype": "float32"}, {"name": "xception_65/exit_flow/block2/unit_1/xception_module/separable_conv1_depthwise/BatchNorm/FusedBatchNorm/Offset", "shape": [1024], "dtype": "float32"}, {"name": "xception_65/exit_flow/block2/unit_1/xception_module/separable_conv1_pointwise/Conv2D/merged_input", "shape": [1, 1, 1024, 1536], "dtype": "float32"}, {"name": "xception_65/exit_flow/block2/unit_1/xception_module/separable_conv1_pointwise/BatchNorm/FusedBatchNorm/Offset", "shape": [1536], "dtype": "float32"}, {"name": "xception_65/exit_flow/block2/unit_1/xception_module/separable_conv2_depthwise/depthwise_weights", "shape": [3, 3, 1536, 1], "dtype": "float32"}, {"name": "xception_65/exit_flow/block2/unit_1/xception_module/separable_conv2_depthwise/BatchNorm/FusedBatchNorm/Scaled", "shape": [1536], "dtype": "float32"}, {"name": "xception_65/exit_flow/block2/unit_1/xception_module/separable_conv2_depthwise/BatchNorm/FusedBatchNorm/Offset", "shape": [1536], "dtype": "float32"}, {"name": "xception_65/exit_flow/block2/unit_1/xception_module/separable_conv2_pointwise/Conv2D/merged_input", "shape": [1, 1, 1536, 1536], "dtype": "float32"}, {"name": "xception_65/exit_flow/block2/unit_1/xception_module/separable_conv2_pointwise/BatchNorm/FusedBatchNorm/Offset", "shape": [1536], "dtype": "float32"}, {"name": "xception_65/exit_flow/block2/unit_1/xception_module/separable_conv1_depthwise/depthwise/SpaceToBatchND/paddings", "shape": [2, 2], "dtype": "int32"}, {"name": "xception_65/exit_flow/block2/unit_1/xception_module/separable_conv3_depthwise/depthwise_weights", "shape": [3, 3, 1536, 1], "dtype": "float32"}, {"name": "xception_65/exit_flow/block2/unit_1/xception_module/separable_conv1_depthwise/depthwise/SpaceToBatchND/block_shape", "shape": [2], "dtype": "int32"}, {"name": "xception_65/exit_flow/block2/unit_1/xception_module/separable_conv1_depthwise/depthwise/BatchToSpaceND/crops", "shape": [2, 2], "dtype": "int32"}, {"name": "xception_65/exit_flow/block2/unit_1/xception_module/separable_conv3_depthwise/BatchNorm/FusedBatchNorm/Scaled", "shape": [1536], "dtype": "float32"}, {"name": "xception_65/exit_flow/block2/unit_1/xception_module/separable_conv3_depthwise/BatchNorm/FusedBatchNorm/Offset", "shape": [1536], "dtype": "float32"}, {"name": "xception_65/exit_flow/block2/unit_1/xception_module/separable_conv3_pointwise/weights", "shape": [1, 1, 1536, 2048], "dtype": "float32"}, {"name": "xception_65/exit_flow/block2/unit_1/xception_module/separable_conv3_pointwise/BatchNorm/FusedBatchNorm/Scaled", "shape": [2048], "dtype": "float32"}, {"name": "xception_65/exit_flow/block2/unit_1/xception_module/separable_conv3_pointwise/BatchNorm/FusedBatchNorm/Offset", "shape": [2048], "dtype": "float32"}, {"name": "aspp3_depthwise/depthwise/SpaceToBatchND/paddings", "shape": [2, 2], "dtype": "int32"}, {"name": "aspp3_depthwise/depthwise_weights", "shape": [3, 3, 2048, 1], "dtype": "float32"}, {"name": "aspp3_depthwise/depthwise/SpaceToBatchND/block_shape", "shape": [2], "dtype": "int32"}, {"name": "aspp1_depthwise/depthwise/BatchToSpaceND/crops", "shape": [2, 2], "dtype": "int32"}, {"name": "aspp3_depthwise/BatchNorm/FusedBatchNorm/Scaled", "shape": [2048], "dtype": "float32"}, {"name": "aspp3_depthwise/BatchNorm/FusedBatchNorm/Offset", "shape": [2048], "dtype": "float32"}, {"name": "aspp3_pointwise/Conv2D/merged_input", "shape": [1, 1, 2048, 256], "dtype": "float32"}, {"name": "aspp3_pointwise/BatchNorm/FusedBatchNorm/Offset", "shape": [256], "dtype": "float32"}, {"name": "concat_projection/Conv2D/merged_input", "shape": [1, 1, 1280, 256], "dtype": "float32"}, {"name": "concat_projection/BatchNorm/FusedBatchNorm/Offset", "shape": [256], "dtype": "float32"}, {"name": "xception_65/entry_flow/block1/unit_1/xception_module/separable_conv1_depthwise/depthwise_weights", "shape": [3, 3, 64, 1], "dtype": "float32"}, {"name": "xception_65/entry_flow/block1/unit_1/xception_module/separable_conv1_depthwise/BatchNorm/FusedBatchNorm/Scaled", "shape": [64], "dtype": "float32"}, {"name": "xception_65/entry_flow/block1/unit_1/xception_module/separable_conv1_depthwise/BatchNorm/FusedBatchNorm/Offset", "shape": [64], "dtype": "float32"}, {"name": "xception_65/entry_flow/block1/unit_1/xception_module/separable_conv1_pointwise/Conv2D/merged_input", "shape": [1, 1, 64, 128], "dtype": "float32"}, {"name": "xception_65/entry_flow/block1/unit_1/xception_module/separable_conv1_pointwise/BatchNorm/FusedBatchNorm/Offset", "shape": [128], "dtype": "float32"}, {"name": "xception_65/entry_flow/block1/unit_1/xception_module/separable_conv2_depthwise/depthwise_weights", "shape": [3, 3, 128, 1], "dtype": "float32"}, {"name": "xception_65/entry_flow/block1/unit_1/xception_module/separable_conv2_depthwise/BatchNorm/FusedBatchNorm/Scaled", "shape": [128], "dtype": "float32"}, {"name": "xception_65/entry_flow/block1/unit_1/xception_module/separable_conv2_depthwise/BatchNorm/FusedBatchNorm/Offset", "shape": [128], "dtype": "float32"}, {"name": "xception_65/entry_flow/block1/unit_1/xception_module/separable_conv2_pointwise/Conv2D/merged_input", "shape": [1, 1, 128, 128], "dtype": "float32"}, {"name": "xception_65/entry_flow/block1/unit_1/xception_module/separable_conv2_pointwise/BatchNorm/FusedBatchNorm/Offset", "shape": [128], "dtype": "float32"}, {"name": "xception_65/entry_flow/block1/unit_1/xception_module/separable_conv3_depthwise/depthwise_weights", "shape": [3, 3, 128, 1], "dtype": "float32"}, {"name": "xception_65/entry_flow/block1/unit_1/xception_module/separable_conv3_depthwise/BatchNorm/FusedBatchNorm/Scaled", "shape": [128], "dtype": "float32"}, {"name": "xception_65/entry_flow/block1/unit_1/xception_module/separable_conv3_depthwise/BatchNorm/FusedBatchNorm/Offset", "shape": [128], "dtype": "float32"}, {"name": "xception_65/entry_flow/block1/unit_1/xception_module/separable_conv3_pointwise/Conv2D/merged_input", "shape": [1, 1, 128, 128], "dtype": "float32"}, {"name": "xception_65/entry_flow/block1/unit_1/xception_module/separable_conv3_pointwise/BatchNorm/FusedBatchNorm/Offset", "shape": [128], "dtype": "float32"}, {"name": "mul_1/x", "shape": [], "dtype": "float32"}, {"name": "sub_1/x", "shape": [], "dtype": "int32"}, {"name": "stack_2", "shape": [2], "dtype": "int32"}, {"name": "Reshape", "shape": [1, 1, 3], "dtype": "float32"}, {"name": "stack/0", "shape": [], "dtype": "int32"}, {"name": "ToFloat/x", "shape": [], "dtype": "float32"}, {"name": "xception_65/entry_flow/block2/unit_1/xception_module/Pad/paddings", "shape": [4, 2], "dtype": "int32"}, {"name": "xception_65/entry_flow/conv1_1/Conv2D/merged_input", "shape": [3, 3, 3, 32], "dtype": "float32"}, {"name": "xception_65/entry_flow/conv1_1/BatchNorm/FusedBatchNorm/Offset", "shape": [32], "dtype": "float32"}, {"name": "xception_65/entry_flow/conv1_2/Conv2D/merged_input", "shape": [3, 3, 32, 64], "dtype": "float32"}, {"name": "xception_65/entry_flow/conv1_2/BatchNorm/FusedBatchNorm/Offset", "shape": [64], "dtype": "float32"}, {"name": "xception_65/entry_flow/block1/unit_1/xception_module/shortcut/Conv2D/merged_input", "shape": [1, 1, 64, 128], "dtype": "float32"}, {"name": "xception_65/entry_flow/block1/unit_1/xception_module/shortcut/BatchNorm/FusedBatchNorm/Offset", "shape": [128], "dtype": "float32"}, {"name": "xception_65/entry_flow/block2/unit_1/xception_module/separable_conv1_depthwise/depthwise_weights", "shape": [3, 3, 128, 1], "dtype": "float32"}, {"name": "xception_65/entry_flow/block2/unit_1/xception_module/separable_conv1_depthwise/BatchNorm/FusedBatchNorm/Scaled", "shape": [128], "dtype": "float32"}, {"name": "xception_65/entry_flow/block2/unit_1/xception_module/separable_conv1_depthwise/BatchNorm/FusedBatchNorm/Offset", "shape": [128], "dtype": "float32"}, {"name": "xception_65/entry_flow/block2/unit_1/xception_module/separable_conv1_pointwise/Conv2D/merged_input", "shape": [1, 1, 128, 256], "dtype": "float32"}, {"name": "xception_65/entry_flow/block2/unit_1/xception_module/separable_conv1_pointwise/BatchNorm/FusedBatchNorm/Offset", "shape": [256], "dtype": "float32"}, {"name": "xception_65/entry_flow/block2/unit_1/xception_module/separable_conv2_depthwise/depthwise_weights", "shape": [3, 3, 256, 1], "dtype": "float32"}, {"name": "xception_65/entry_flow/block2/unit_1/xception_module/separable_conv2_depthwise/BatchNorm/FusedBatchNorm/Scaled", "shape": [256], "dtype": "float32"}, {"name": "xception_65/entry_flow/block2/unit_1/xception_module/separable_conv2_depthwise/BatchNorm/FusedBatchNorm/Offset", "shape": [256], "dtype": "float32"}, {"name": "xception_65/entry_flow/block2/unit_1/xception_module/separable_conv2_pointwise/Conv2D/merged_input", "shape": [1, 1, 256, 256], "dtype": "float32"}, {"name": "xception_65/entry_flow/block2/unit_1/xception_module/separable_conv2_pointwise/BatchNorm/FusedBatchNorm/Offset", "shape": [256], "dtype": "float32"}, {"name": "decoder/feature_projection0/Conv2D/merged_input", "shape": [1, 1, 256, 48], "dtype": "float32"}, {"name": "decoder/feature_projection0/BatchNorm/FusedBatchNorm/Offset", "shape": [48], "dtype": "float32"}, {"name": "decoder/decoder_conv0_depthwise/depthwise_weights", "shape": [3, 3, 304, 1], "dtype": "float32"}, {"name": "decoder/decoder_conv0_depthwise/BatchNorm/FusedBatchNorm/Scaled", "shape": [304], "dtype": "float32"}, {"name": "decoder/decoder_conv0_depthwise/BatchNorm/FusedBatchNorm/Offset", "shape": [304], "dtype": "float32"}, {"name": "decoder/decoder_conv0_pointwise/Conv2D/merged_input", "shape": [1, 1, 304, 256], "dtype": "float32"}, {"name": "decoder/decoder_conv0_pointwise/BatchNorm/FusedBatchNorm/Offset", "shape": [256], "dtype": "float32"}, {"name": "decoder/decoder_conv1_depthwise/depthwise_weights", "shape": [3, 3, 256, 1], "dtype": "float32"}, {"name": "decoder/decoder_conv1_depthwise/BatchNorm/FusedBatchNorm/Scaled", "shape": [256], "dtype": "float32"}, {"name": "decoder/decoder_conv1_depthwise/BatchNorm/FusedBatchNorm/Offset", "shape": [256], "dtype": "float32"}, {"name": "decoder/decoder_conv1_pointwise/Conv2D/merged_input", "shape": [1, 1, 256, 256], "dtype": "float32"}, {"name": "decoder/decoder_conv1_pointwise/BatchNorm/FusedBatchNorm/Offset", "shape": [256], "dtype": "float32"}, {"name": "logits/semantic/weights", "shape": [1, 1, 256, 21], "dtype": "float32"}, {"name": "logits/semantic/biases", "shape": [21], "dtype": "float32"}, {"name": "decoder/ResizeBilinear/size", "shape": [2], "dtype": "int32"}, {"name": "strided_slice_7", "shape": [2], "dtype": "int32"}, {"name": "concat/axis", "shape": [], "dtype": "int32"}, {"name": "SemanticPredictions/begin", "shape": [3], "dtype": "int32"}, {"name": "SemanticPredictions/size/0", "shape": [], "dtype": "int32"}, {"name": "strided_slice_3/stack", "shape": [1], "dtype": "int32"}, {"name": "strided_slice/stack_1", "shape": [1], "dtype": "int32"}, {"name": "strided_slice_4/stack_1", "shape": [1], "dtype": "int32"}, {"name": "strided_slice_4/stack", "shape": [1], "dtype": "int32"}]}]}